result/model-morp-lstm/model.pt (torch_old, 473944 bytes, 39 tensors)

weight f4 [32, 4]
0	0xbfc346ba	-1.5255959
1	0xbf400f31	-0.7502318
2	0xbf276b4b	-0.6539809
3	0xbfce0399	-1.6094848
4	0xbef8867f	-0.48540112
5	0x3efd6c3b	0.49496636
6	0xbfe5c0b5	-1.7949435
7	0xc035ff15	-2.843694
8	0xc0a9ab9f	-5.3022
9	0x3d826251	0.063664086
10	0xbfcdbfc2	-1.6074145
11	0x40310441	2.7658846
12	0x3ff930a2	1.9467967
13	0x40b45ca5	5.636309
14	0x400a1672	2.15762
15	0x3faf77c4	1.3708425
16	0x3efe89ee	0.49714607
17	0x3e39658f	0.18105148
18	0x403f881e	2.992683
19	0x3eb4f72d	0.3534483
20	0x3fc704ba	1.5548317
21	0xbdbc2545	-0.09186796
22	0x3fe43006	1.7827156
23	0x3f84c646	1.0373008
24	0x402d392b	2.7066143
25	0xbf807b2d	-1.003759
26	0xc02a0b47	-2.6569383
27	0xc029dd32	-2.6541257
28	0xbfc3529b	-1.5259584
29	0x3fb21750	1.3913364
30	0x3ee3653b	0.4441317
31	0x4087f173	4.248224
32	0xc01dae72	-2.4637723
33	0x40008a4a	2.0084405
34	0xbf5ca081	-0.8618241
35	0x40276073	2.6152618
36	0x3fa78816	1.3088405
37	0xc0d9914a	-6.7989855
38	0x4010c72b	2.2621562
39	0xbfef1b53	-1.8680214
40	0x409155c5	4.54172
41	0xbf7bdd67	-0.9838471
42	0x41127c1f	9.155303
43	0x407ebc82	3.9802556
44	0xbecbfb9a	-0.39840394
45	0xbcae7e24	-0.021300383
46	0x404cad6b	3.1980846
47	0xbe135bc7	-0.14390479
48	0x3ffd8e53	1.9809059
49	0xbd81dff1	-0.063415416
50	0x405cbe20	3.4491043
51	0x40341052	2.813496
52	0x3fe488f7	1.7854298
53	0x3f2acb2e	0.6671628
54	0x4071516d	3.7705948
55	0x40631fc5	3.548814
56	0x4093500b	4.603521
57	0xbf294daa	-0.6613413
58	0xbe8ebf81	-0.2788048
59	0xbf6a604c	-0.9155319
60	0x3fe6734c	1.8003936
61	0xc04685fc	-3.1019278
62	0xc01f3747	-2.4877489
63	0xbf2092d1	-0.62724024
64	0x3e54f308	0.20795834
65	0xc027ad73	-2.6199615
66	0xbf83c22f	-1.0293635
67	0x3fe18c48	1.7620935
68	0x3fc5866d	1.5431648
69	0xbd36ee48	-0.044660836
70	0x40bd1ead	5.9099946
71	0x3fc0104d	1.5004975
72	0xc058b8e9	-3.386286
73	0x400a6e3b	2.162978
74	0x400069df	2.0064619
75	0x40626831	3.5376093
76	0x3f888e1b	1.0668367
77	0xbfc57fd5	-1.5429636
78	0xbfb14ced	-1.3851601
79	0xbf9cf221	-1.2261392
80	0xbf6d9d2d	-0.92817956
81	0x3f02a122	0.5102712
82	0xbfb141f7	-1.3848256
83	0x3f8507b2	1.0392973
84	0x3d3da7bf	0.046302553
85	0xbe87c74d	-0.26519242
86	0x400aebe8	2.1706486
87	0xbfbea863	-1.4895138
88	0x3f55f880	0.83582306
89	0xbebc73a4	-0.36806977
90	0xbfbd77f4	-1.4802232
91	0xbf151e1c	-0.5824907
92	0xbf1e6a1f	-0.6188068
93	0xbe395e47	-0.1810237
94	0x3e0154fe	0.12630078
95	0x40095679	2.1459029
96	0xbef92fca	-0.48669273
97	0x3fb0a3f1	1.3800031
98	0x3f04ed74	0.51924825
99	0x3c8b1d4f	0.016981749
100	0x3fdc94f8	1.7232962
101	0x3d286e08	0.04112056
102	0x4035e749	2.8422415
103	0x402792df	2.6183393
104	0x3fc832a2	1.5640452
105	0x3f8b1f67	1.0868958
106	0x3ebd43ca	0.3696578
107	0x3e8bdeb9	0.2731836
108	0xc01df567	-2.4681032
109	0xbb18154a	-0.0023206049
110	0xbfe9caf2	-1.8265059
111	0xbfaa8abe	-1.3323591
112	0x3f830dba	1.0238564
113	0xbef53c17	-0.47897407
114	0x3fa2fae7	1.2732819
115	0x3f514381	0.8174363
116	0x3ebb9551	0.36637357
117	0xbdb24558	-0.087046325
118	0x3f1793fc	0.5921018
119	0xbec041f7	-0.37550327
120	0x4016287e	2.3462214
121	0xbeb8e2d3	-0.36110553
122	0x3ca1cb8e	0.019750383
123	0x3ff268a3	1.8938183
124	0xbfd36fef	-1.6518534
125	0x3fd60671	1.6720716
126	0x3f2feacc	0.68717647
127	0x3ed2f3c8	0.41201615

weight_ih_l0 f4 [128, 100]
0	0xc0394df2	-2.8953824
1	0xbf2ac6b8	-0.6670947
2	0x3ec7f1c2	0.39051634
3	0xbfa4c7a7	-1.2873429
4	0xbf1b91f3	-0.60769576
5	0x3f6b5bf2	0.9193717
6	0x405dfbfe	3.4685054
7	0x40533895	3.3003285
8	0xbfc06d98	-1.5033445
9	0x3f99294b	1.1965727
10	0x3f80848a	1.0040448
11	0xbf9fddaf	-1.2489527
12	0x3fc799fa	1.5593865
13	0xbfb0e9ee	-1.382139
14	0xbe3e3fcf	-0.18579029
15	0x3ee09889	0.43866375
16	0x401aa4a1	2.4162982
17	0x3eca7f62	0.3955031
18	0xbf55d019	-0.83520657
19	0x3f51db2d	0.8197506
20	0x3f7a5acf	0.9779481
21	0x3faa521b	1.3306307
22	0x3fbfcd14	1.498446
23	0x3e5b45fb	0.21413414
24	0xbfde7347	-1.737893
25	0xbc514ff5	-0.012775411
26	0x4006f220	2.1085281
27	0x400f3417	2.2375543
28	0xbe9e0db9	-0.30869845
29	0x3f948b00	1.160492
30	0x3eb37f2a	0.35057956
31	0x3f189e28	0.5961633
32	0x3fb1ec75	1.3900286
33	0x4038d52c	2.888011
34	0xbf03a4eb	-0.5142352
35	0x400cdc7f	2.200958
36	0xbfade156	-1.3584392
37	0xbfa86900	-1.3157043
38	0xbe6a2ee1	-0.22869445
39	0x3e981de5	0.29710308
40	0xbf9c2729	-1.2199451
41	0xc0490b88	-3.1413288
42	0x404993c0	3.149643
43	0xbebf8cfb	-0.37412247
44	0x40246af5	2.5690281
45	0x3eba102b	0.3634046
46	0xbfafa80f	-1.3723162
47	0x3eade23a	0.3396166
48	0x3f9843df	1.1895713
49	0xbe825b77	-0.25460407
50	0x3f924e3d	1.1430126
51	0x3f5d62cb	0.8647887
52	0xbef357d2	-0.4752794
53	0xbf16bd02	-0.58882153
54	0x3f510ebc	0.8166311
55	0xbf6a00b4	-0.9140732
56	0xbf9ea964	-1.2395444
57	0x3ec988ff	0.39362332
58	0xc054d657	-3.3255823
59	0xbe8f4e8f	-0.27989623
60	0x3feb0143	1.835976
61	0xbfd1df22	-1.639622
62	0x3f82a051	1.0205175
63	0xbe380d65	-0.1797386
64	0x3f94590f	1.1589679
65	0x3ebd1ebc	0.3693751
66	0x3fdacbd2	1.7093451
67	0xbfa8bb43	-1.3182148
68	0x3f293696	0.66098917
69	0x3f8a0522	1.0782816
70	0x3fe9b930	1.825964
71	0xbfc1d83c	-1.5144114
72	0x3f5e69a4	0.86879945
73	0xc0662872	-3.5962186
74	0x3f1e2f29	0.6179071
75	0x3f1cfbfa	0.61321986
76	0x3fde3334	1.7359376
77	0x3db39e64	0.08770445
78	0xbec42831	-0.38311914
79	0x3c8ad8ef	0.016949145
80	0xbebbd275	-0.36684003
81	0xbe554b10	-0.20829415
82	0x3f528f02	0.8224946
83	0x3fc00bfd	1.5003659
84	0x3e319391	0.17341448
85	0xbeae49d9	-0.34040716
86	0x40311809	2.767092
87	0xbe30de12	-0.17272213
88	0x3f1e3472	0.61798775
89	0x3f300d6f	0.687705
90	0xc0060cc0	-2.0945282
91	0xbf771914	-0.9652264
92	0xbd7b1523	-0.061299454
93	0x3e5d36fc	0.21603006
94	0x3eaad2b1	0.3336387
95	0xbfd395a3	-1.653004
96	0xbfc30653	-1.5236305
97	0x3ebe00f4	0.37110102
98	0x3f8428b1	1.0324918
99	0xbf68280a	-0.90686095
100	0xbf3200e6	-0.6953262
101	0xbe8f1e31	-0.27952722
102	0x3fb3e4e6	1.4054229
103	0xbea58e69	-0.32335213
104	0x4069f703	3.6557014
105	0x3dbed220	0.09317422
106	0x3f820ea7	1.0160722
107	0x3fe45dab	1.7841085
108	0x3fa8b861	1.3181268
109	0x3f0b0328	0.5430169
110	0x3fe964be	1.8233869
111	0xbfa1fec8	-1.2655878
112	0xbeaa3648	-0.33244538
113	0x3f218dc4	0.6310694
114	0xbd863570	-0.06553161
115	0x3f0e2ed8	0.5554023
116	0x3fcf5a80	1.6199493
117	0xbe88094c	-0.26569593
118	0x3fd90387	1.6954201
119	0xbfc67a80	-1.5506134
120	0xbf75d543	-0.96028537
121	0x3fd84156	1.6894939
122	0x3fa7069c	1.3048892
123	0x3f09883f	0.5372352
124	0xbfa1c555	-1.2638346
125	0x3f5a5884	0.85291314
126	0xbfd0a5ec	-1.6300635
127	0xbf08bc10	-0.5341196
128	0x3ffe72f4	1.9878831
129	0xbfc5cbd7	-1.5452832
130	0x405295e1	3.290398
131	0x4093ab6a	4.6146746
132	0xbe77b75b	-0.24191038
133	0x400f6b2a	2.2409158
134	0x3e2e299d	0.17008062
135	0xbf9cb6c6	-1.2243278
136	0x3f59ce2f	0.85080236
137	0x401df3db	2.4680088
138	0xbd542796	-0.051795565
139	0xbf3ae663	-0.7300779
140	0xbf00ef2e	-0.5036496
141	0xbf9bbf48	-1.216775
142	0x3f647702	0.8924409
143	0xbf203e0a	-0.62594664
144	0x3edd8396	0.43264455
145	0x3fb1baa1	1.388508
146	0xbfcd7c02	-1.6053469
147	0xbdd91f74	-0.10601702
148	0xbf502815	-0.8131116
149	0x400687c5	2.1020367
150	0x3e34eb6c	0.17667931
151	0xbe65256b	-0.22377555
152	0x3f0d99e7	0.5531296
153	0x3ee65fe0	0.44995022
154	0xbe7c41b6	-0.24634442
155	0x3f6fb8f4	0.9364159
156	0xbf69b7ca	-0.91296065
157	0xbe881143	-0.2657567
158	0xc01b5dad	-2.4275925
159	0x3ecf1856	0.40448254
160	0xbed61f19	-0.418206
161	0xbdd024f7	-0.101633005
162	0x3f1f2ae7	0.6217484
163	0x3e840970	0.2578845
164	0x3ee32b10	0.44368792
165	0x402f2396	2.736547
166	0x3ea819cf	0.3283219
167	0xc02c3442	-2.6906896
168	0xbe56d94f	-0.20981334
169	0x3e8d83b6	0.2763955
170	0xbf8242b1	-1.0176603
171	0xbfac76f1	-1.3473798
172	0xbe97cc8c	-0.29648244
173	0x3f3b7fa5	0.73241645
174	0xbf372cde	-0.71552837
175	0x400ea859	2.2290251
176	0xbf180599	-0.5938354
177	0xbf7319b9	-0.94961125
178	0x3feef467	1.8668336
179	0x3e2654c8	0.16243279
180	0x3f0bd4fb	0.5462186
181	0x3d8242ff	0.06360435
182	0x3f525f8d	0.8217705
183	0x40071147	2.1104295
184	0x3fb19ebf	1.387657
185	0xbf6a41e0	-0.9150677
186	0x3f4d4e8a	0.80197966
187	0xbf906206	-1.1279914
188	0x3f89c15c	1.0762134
189	0x3f64c032	0.89355767
190	0x3fb6a0be	1.4267805
191	0xbe8d964a	-0.27653724
192	0x402c89cc	2.6959105
193	0xc0197394	-2.3976793
194	0x3f397541	0.7244454
195	0xbf8929d0	-1.0715885
196	0xbef3aa32	-0.47590786
197	0xbf017751	-0.5057269
198	0xbf89bbbd	-1.0760418
199	0xbfc5ad9f	-1.544361
200	0x3e1c3a60	0.15256643
201	0xbf0e72a4	-0.5564368
202	0x3de9a765	0.11408881
203	0xc0171abc	-2.3610067
204	0x3f946300	1.1592712
205	0x3e4d3164	0.20038372
206	0x402fb32f	2.7453115
207	0xbe725941	-0.2366686
208	0xbf97f564	-1.1871762
209	0x3faabcba	1.3338845
210	0x3e7f14ae	0.24910232
211	0x402b3bba	2.6755204
212	0x3ef6ce01	0.48204044
213	0x3f6bd9c7	0.92129177
214	0xbfc91143	-1.5708393
215	0x3fca10f0	1.5786419
216	0xbfa4c84e	-1.2873628
217	0xbf8689b4	-1.0510774
218	0x400843ab	2.1291301
219	0x3fc47e77	1.5351094
220	0x407545f0	3.8323936
221	0x3fd4e421	1.663212
222	0xbeba7af9	-0.36421946
223	0xbeb096d1	-0.34490064
224	0x3f550d47	0.83223385
225	0x3f8388a8	1.0276079
226	0xbfc5f06c	-1.5463996
227	0xbdd548de	-0.10414289
228	0xbf2712e7	-0.6526322
229	0xbf472185	-0.7778552
230	0x3fb6a532	1.4269164
231	0x3f81f2c1	1.0152208
232	0x3f3beb5c	0.73406005
233	0xbf52da3b	-0.82364243
234	0x3eb6c93f	0.35700414
235	0x3f401b2b	0.75041455
236	0x3ea7732e	0.32705063
237	0x3ed0e763	0.40801534
238	0x3eb545e4	0.35404885
239	0x3fb565fc	1.4171748
240	0x4022ab9e	2.5417247
241	0x3f645d28	0.89204645
242	0xbfc52c71	-1.5404187
243	0xc01b279f	-2.4242933
244	0xbee812b3	-0.45326766
245	0x3de8c6fb	0.113660775
246	0x3f872e97	1.0561093
247	0x3cb53b87	0.022123111
248	0x3f855de3	1.0419277
249	0xbe3a3d59	-0.18187465
250	0x4083a3f8	4.1137657
251	0x3ed9197d	0.4240226
252	0xbd3ade44	-0.045622125
253	0x403be1fe	2.9356685
254	0x3f492337	0.7856936
255	0x3f1236a8	0.5711465

weight_hh_l0 f4 [128, 32]
0	0xbffea42f	-1.9893855
1	0xbe1fbafc	-0.15598673
2	0x3e803b41	0.25045207
3	0x3e50cabf	0.20389841
4	0x400e36f3	2.2221038
5	0xbfea0edb	-1.8285784
6	0xbf452976	-0.7701639
7	0x3ebddbd2	0.37081772
8	0xbed98d12	-0.4249044
9	0xbfe5721d	-1.792545
10	0xbe15cd1f	-0.14629029
11	0x3db3b5db	0.087749206
12	0xbf983e2d	-1.1893975
13	0x3fdee94d	1.7414948
14	0x401dd6c5	2.4662335
15	0xbfdf0390	-1.7422962
16	0x3d379193	0.044816565
17	0x3e35e8c2	0.17764571
18	0xbfc5c5c7	-1.5450982
19	0xbfc1b4c7	-1.5133294
20	0xbe25cbbf	-0.16191004
21	0x3ddf4c1a	0.10903187
22	0xbd9a7383	-0.07541563
23	0xc015c069	-2.3398688
24	0x3e61f095	0.22064431
25	0x3f943d55	1.1581217
26	0xbef49f2b	-0.47777686
27	0x3fcf8755	1.6213175
28	0xc000b9f7	-2.0113504
29	0xbfba06a9	-1.4533283
30	0x3fdeb07c	1.7397609
31	0xbf3ec030	-0.74512005
32	0xbfad6af1	-1.3548261
33	0x4010105c	2.2509985
34	0x3df39741	0.11894084
35	0xbfc61f23	-1.5478252
36	0xbf872aa1	-1.0559884
37	0xbebf163e	-0.37321657
38	0xc00fbd04	-2.2459116
39	0xc0061948	-2.095293
40	0x3fdc44c3	1.7208484
41	0x3f2854fb	0.6575467
42	0xbfc11ec1	-1.508751
43	0xbf8e2bf8	-1.1107168
44	0xbfe44d83	-1.7836155
45	0xbf040b0c	-0.51579356
46	0x3e59d442	0.21272376
47	0x3fabd2c4	1.3423696
48	0xc03e8414	-2.9768114
49	0x3d03a403	0.032138836
50	0xbe484d34	-0.195607
51	0x3fcd3d6f	1.6034373
52	0xbf7779ac	-0.9667003
53	0xc0065b30	-2.0993156
54	0xbf1660e2	-0.5874158
55	0x3fbb9bad	1.4656883
56	0xbe102851	-0.1407788
57	0xbf5f6e58	-0.87277746
58	0xbeb7089d	-0.3574876
59	0x3f143c36	0.57904375
60	0xc03df3b5	-2.9679997
61	0xc0140986	-2.3130813
62	0xbe8901e6	-0.2675926
63	0x3f85e10e	1.0459306
64	0x3eae56b0	0.34050512
65	0xbf3c5c51	-0.73578364
66	0xbf46a736	-0.77598894
67	0x3eeec7af	0.46636721
68	0xbf4a599b	-0.7904298
69	0x3d558e16	0.052137457
70	0x3f89d153	1.0767006
71	0x3f72660d	0.9468697
72	0xbe8234ab	-0.25430807
73	0xc0418da9	-3.0242712
74	0xbeb27b52	-0.3485971
75	0x3fa288e0	1.2698021
76	0x3f9df27b	1.2339624
77	0xc036858f	-2.8519018
78	0x3f68270d	0.90684587
79	0xbeccfc95	-0.40036455
80	0xbf61dd68	-0.88228464
81	0x3f73cfa5	0.95238715
82	0x3fb6cc90	1.4281178
83	0x3f11e9c6	0.56997335
84	0xbf08fa4b	-0.53506917
85	0x3dbce5f0	0.092235446
86	0xbf244e91	-0.6418238
87	0x3f8956fb	1.0729669
88	0xbff7ec88	-1.9369059
89	0x3dcd8c55	0.10036532
90	0x3ea10abf	0.3145351
91	0xbfc43214	-1.5327783
92	0x3f43c390	0.7647028
93	0x3f1e775d	0.61900884
94	0xbf1a994b	-0.60390157
95	0x4007cd25	2.121896
96	0xbea05a66	-0.3131897
97	0x3f44c547	0.7686352
98	0x3fc737af	1.5563868
99	0x3fe0f9c8	1.7576227
100	0xbe4658ba	-0.19369784
101	0xbccdbde1	-0.025114955
102	0x3f215416	0.6301893
103	0xbf503a7a	-0.8133923
104	0x3fe29758	1.7702436
105	0x3fd65be5	1.6746794
106	0xbeb6872d	-0.35650006
107	0xbfdb2406	-1.7120368
108	0xbf76f925	-0.96473914
109	0x3fe44b09	1.7835399
110	0x3f7a7fdd	0.97851354
111	0xbfaecbaf	-1.3655909
112	0xbdf158b4	-0.11784497
113	0xbfc86274	-1.5655046
114	0xbfb3320b	-1.3999647
115	0xbf2dc0fc	-0.67872596
116	0x403df96e	2.968349
117	0x3f0fcf78	0.5617595
118	0x3f8a9921	1.0827981
119	0x3f35da2c	0.7103603
120	0x4002480f	2.035648
121	0x3e08153d	0.13289352
122	0x3c3d274e	0.0115450155
123	0x3e675650	0.2259152
124	0x3f37f373	0.7185585
125	0xbfdd4102	-1.7285464
126	0x3e63901d	0.22222944
127	0x3fd7dfbd	1.6865155
128	0x40028b08	2.0397358
129	0xbf0c7dda	-0.54879534
130	0x3f5ae160	0.85500145
131	0xbf5e0d25	-0.86738807
132	0xbea8b761	-0.32952407
133	0x3f2dade0	0.6784344
134	0x3f081f14	0.5317242
135	0x3f51b6f5	0.81919795
136	0x3d6ecc8f	0.05830055
137	0xbfd1caa0	-1.6389961
138	0xbfa62a69	-1.2981693
139	0x3f6e47d2	0.9307834
140	0x3f8c03f1	1.0938703
141	0xbfa96a31	-1.3235532
142	0xbf69448c	-0.9112022
143	0x3fed6503	1.8546451
144	0x40106f5e	2.2567973
145	0xbfb030ec	-1.376493
146	0x401ea721	2.4789507
147	0x4013ceaf	2.30949
148	0x3f89beff	1.0761412
149	0x3fe159b9	1.7605506
150	0x3f1c63ff	0.6109008
151	0xbc8b7645	-0.017024169
152	0x4030ec7d	2.764434
153	0xbe6ae14b	-0.22937505
154	0x40756a98	3.834631
155	0xbff9cd77	-1.9515828
156	0xbf911aeb	-1.133634
157	0x3f87a155	1.059611
158	0xbf6fc11c	-0.93654037
159	0xbfb127d1	-1.3840276
160	0xbf7aee4d	-0.9801987
161	0x3f8a0f4a	1.0785916
162	0x3f15cb6d	0.5851353
163	0x3ecf6c67	0.40512392
164	0x3fa22c8e	1.2669847
165	0xbf885719	-1.065158
166	0xbf84e354	-1.0381875
167	0xbfc74a5d	-1.5569569
168	0x3fe35114	1.7759118
169	0xbf9da38b	-1.2315534
170	0x3f335545	0.70051986
171	0x3f4a0b7f	0.7892379
172	0x3fb457f4	1.4089341
173	0xbed900c2	-0.4238339
174	0xbdf7b4e4	-0.12095049
175	0xc021fed2	-2.531178
176	0xbf22d60e	-0.6360787
177	0xbf9026f3	-1.1261886
178	0xbffb11ad	-1.9614769
179	0x3f5112bc	0.8166921
180	0x3f8a00d0	1.0781498
181	0xbeb25fa7	-0.34838602
182	0x3f916aca	1.1360714
183	0xbee1206e	-0.43970054
184	0xbc81d0da	-0.015846658
185	0xbcbb8005	-0.022888193
186	0x403f4010	2.988285
187	0xbf9583fd	-1.1680905
188	0x3ff54c01	1.916382
189	0xbe221b3a	-0.15830699
190	0x3e95829d	0.29201213
191	0x400da277	2.213041
192	0xbeb1924a	-0.34681922
193	0xbe785a3d	-0.24253173
194	0xbf2c1d60	-0.6723232
195	0x3c4a6475	0.012353052
196	0xbf44a544	-0.76814675
197	0x3f7ca04e	0.98682106
198	0xbc8081e7	-0.015686942
199	0xbf48f3cf	-0.7849702
200	0x3e38627b	0.18006317
201	0xbe829d96	-0.25510854
202	0xbeb58f9f	-0.35461137
203	0xbff61f2f	-1.9228266
204	0x3ff6718d	1.9253403
205	0x3f5d639b	0.8648011
206	0xbf23e34e	-0.64018714
207	0xbfd8ae21	-1.692814
208	0x3faee01d	1.3662144
209	0x3f0073bb	0.5017659
210	0x3f5bb89b	0.8582856
211	0xbf290396	-0.66021097
212	0x3f402eaa	0.75071204
213	0x3fda0323	1.7032207
214	0x403ed495	2.981725
215	0x3eff6083	0.4987832
216	0x3fb26b5d	1.3939015
217	0xbea8b23e	-0.32948488
218	0xbf96303b	-1.1733469
219	0x3f15643b	0.58356065
220	0x3fcb6d57	1.5892743
221	0x3decdbea	0.11565383
222	0x3fef5811	1.8698751
223	0x3f55d83a	0.8353306
224	0x3f61e827	0.8824486
225	0x3fd22450	1.6417332
226	0x3f36da9c	0.7142732
227	0x3fbaa872	1.4582655
228	0x3fbf4faa	1.4946187
229	0xbf658423	-0.8965475
230	0xbf8862eb	-1.0655187
231	0xc00390ab	-2.0557048
232	0xbfbc7d31	-1.4725705
233	0x3d030c18	0.031993955
234	0x3e635a9b	0.22202532
235	0x3ebbffc1	0.36718562
236	0xbf6fef50	-0.93724537
237	0x3fa83722	1.3141825
238	0x3f5187ab	0.8184764
239	0x40157cf5	2.3357518
240	0xc0326af6	-2.7877784
241	0x3fb4266a	1.4074223
242	0xbed71d10	-0.4201436
243	0xbf9b8471	-1.2149793
244	0xbfc0837a	-1.5040123
245	0x405b57dd	3.4272377
246	0x3f648fd1	0.89281946
247	0x3ec91937	0.3927705
248	0xbcb86436	-0.022508722
249	0xc02645c3	-2.598008
250	0xbfafca30	-1.3733578
251	0x3ff72d6d	1.9310738
252	0xbfdcaddd	-1.7240559
253	0xbfd5e5d0	-1.6710758
254	0xbf6b6662	-0.919531
255	0xc006da1f	-2.107063

bias_ih_l0 f4 [128]
0	0xbf38a753	-0.72130316
1	0xbdf287d4	-0.118423134
2	0x3f4d9e53	0.8031971
3	0xbe341a68	-0.17588198
4	0x3ef4855d	0.47757998
5	0x3f652d69	0.89522415
6	0x3feb98de	1.8406026
7	0xbe3d2428	-0.18470824
8	0x3f62dcea	0.8861834
9	0x3d40f06a	0.047104277
10	0xbcd481ec	-0.025940858
11	0x3fdfd339	1.7486335
12	0x3ff52533	1.9151977
13	0xbf994e0b	-1.1976942
14	0x3eb15fe9	0.34643486
15	0xbf87d857	-1.0612897
16	0x3e085442	0.13313392
17	0x3fc715c8	1.5553522
18	0x3ec1da2a	0.37861758
19	0x40151f91	2.3300517
20	0x3fc76dc6	1.5580375
21	0x3fc8e5a2	1.5695078
22	0x3f7e5280	0.99344635
23	0x3e0038a5	0.12521608
24	0x3f3503b9	0.70708805
25	0xbe8d7ae9	-0.27632836
26	0x3e5f7fb7	0.21826063
27	0xbe2f02e5	-0.17090948
28	0x3fc252b4	1.5181489
29	0x4017df10	2.3729897
30	0x3e410d71	0.18852784
31	0xbf90cc95	-1.1312433
32	0x3ebcbf16	0.36864537
33	0x3e627822	0.2211614
34	0xbeaa9f91	-0.33324865
35	0xc004c5a1	-2.0745623
36	0xbfaa34c7	-1.3297356
37	0xbed2b43f	-0.41153142
38	0xc0148ebc	-2.3212118
39	0x3f1da8c5	0.61585647
40	0xbf5dda02	-0.8666078
41	0xbee7deab	-0.4528707
42	0xbf848404	-1.0352788
43	0xbea72a2b	-0.3264936
44	0x40822d7f	4.0680537
45	0x3ec45a2e	0.38350052
46	0x3ed4bbd9	0.41549566
47	0xbf4ca23e	-0.7993506
48	0x3f811df1	1.0087262
49	0xbefc2ee3	-0.49254522
50	0xbef9b781	-0.48772815
51	0xbc1682d5	-0.009186466
52	0x3eb07333	0.3446289
53	0x4046440b	3.097903
54	0xc000af1c	-2.0106878
55	0x3d45a953	0.048257183
56	0xc0110a5e	-2.2662578
57	0xbf13418a	-0.5752188
58	0xbf2c55f9	-0.67318684
59	0xbfea600a	-1.8310559
60	0xbe99b121	-0.3001795
61	0x3fde5592	1.7369864
62	0xbfc9c611	-1.576357
63	0xbf2aeeb2	-0.6677047
64	0x3fd210ec	1.6411414
65	0xbf834f63	-1.0258602
66	0xbf87f060	-1.0620232
67	0xbf95aed4	-1.1693978
68	0x3f442bc1	0.76629263
69	0x400643b1	2.0978816
70	0x3f521384	0.8206103
71	0x3f2299fe	0.63516223
72	0x3c9a6857	0.018848581
73	0xbfc2a4af	-1.5206507
74	0xbf7acd88	-0.97969866
75	0x3f2f9659	0.6858879
76	0x3fd8b737	1.6930913
77	0xc007553e	-2.1145778
78	0x3f425c5d	0.75922185
79	0xbf85ddaf	-1.0458277
80	0x3fd944c9	1.6974117
81	0x40229f68	2.5409794
82	0x3f8ba156	1.0908611
83	0xbf286418	-0.6577773
84	0x3f7b730e	0.98222435
85	0x3f59ed9b	0.8512818
86	0xbf4e42a0	-0.8057041
87	0x3eb2a6e6	0.34892958
88	0x3fbffa00	1.4998169
89	0x3e84a6dc	0.25908554
90	0xbd354b85	-0.044261474
91	0x3ec5e387	0.38650152
92	0x3fe2cf10	1.771944
93	0x3f934350	1.1504917
94	0x3c2713eb	0.01019762
95	0x4010f6bc	2.2650595
96	0x3f3b7ca6	0.73237073
97	0x3d1a8578	0.037724942
98	0x3e5bfd7d	0.21483417
99	0xbf932a1b	-1.1497225
100	0xbfaabc2a	-1.3338673
101	0x3f6c5c40	0.9232826
102	0x3fa8fb55	1.32017
103	0x3fc1193c	1.5085826
104	0x3fe617a0	1.797596
105	0x3e0f7caf	0.14012407
106	0xbeca430d	-0.3950428
107	0x3f49e5bc	0.7886617
108	0xbff846de	-1.9396627
109	0xbff9e6df	-1.9523581
110	0xbf8f0e46	-1.1176231
111	0xbe456d98	-0.19280088
112	0x3f3d42a1	0.7392979
113	0xbcec5933	-0.028851127
114	0xbfc4932d	-1.5357414
115	0x3fe42ad2	1.7825568
116	0xbfa1dca5	-1.264546
117	0x3f0a0c9c	0.5392549
118	0xc00df097	-2.2178094
119	0x3fb7be1a	1.4354889
120	0x3fc0a78c	1.5051131
121	0x3f7a191e	0.97694576
122	0xbe10900f	-0.14117454
123	0xbf08b9d9	-0.5340858
124	0x3f069d64	0.5258391
125	0xbe16f5eb	-0.14742248
126	0xbf6b0ab2	-0.91813195
127	0xbf8e9e4e	-1.1142061

bias_hh_l0 f4 [128]
0	0xbf474330	-0.77836895
1	0x3dc1b719	0.09458751
2	0x3f80c2c4	1.0059438
3	0x3d68cf85	0.05683853
4	0x3eec8304	0.46193707
5	0x3f58d936	0.8470644
6	0x3fecac1f	1.8490027
7	0xbd8d464f	-0.06898176
8	0x3f6b8a43	0.92007846
9	0xbc99ca22	-0.018773142
10	0x3c980ca1	0.01856071
11	0x3ff1570b	1.8854688
12	0x4004ada8	2.0730991
13	0xbfa1053e	-1.2579725
14	0x3ea9f9ff	0.33198544
15	0xbf6ecf80	-0.9328537
16	0x3e0af1e1	0.13568832
17	0x3fe7aae4	1.8099027
18	0x3ef4c664	0.4780761
19	0x401ee9ee	2.483028
20	0x3fafecfb	1.3744196
21	0x3fda0c77	1.7035054
22	0x3f860793	1.0471061
23	0x3d3493f7	0.044086423
24	0x3eed7d4b	0.46384653
25	0xbec40872	-0.38287693
26	0x3e9210a0	0.2852831
27	0xbda9bccc	-0.08287963
28	0x3fa998dd	1.3249775
29	0x4015bc92	2.3396344
30	0x3e3c5646	0.18392286
31	0xbf83cd58	-1.0297041
32	0x3ecec201	0.40382388
33	0x3de12251	0.109928735
34	0xbe3f2cac	-0.18669385
35	0xc00eeb4f	-2.233112
36	0xbf96e3a0	-1.1788216
37	0xbe96b830	-0.294374
38	0xc00e59db	-2.2242343
39	0x3f1c9a96	0.6117338
40	0xbf83bd82	-1.0292208
41	0xbe8c03a8	-0.2734654
42	0xbf8740af	-1.0566615
43	0xbe624557	-0.22096764
44	0x4083adea	4.1149797
45	0x3ea8811c	0.32911003
46	0x3f032bed	0.512389
47	0xbf724235	-0.94632274
48	0x3f4d1a68	0.8011842
49	0xbf0a2937	-0.5396914
50	0xbf0220d5	-0.5083135
51	0xbdbddd4b	-0.09270724
52	0x3cab29c6	0.020893943
53	0x404c3fba	3.1913896
54	0xc003f2b0	-2.0616875
55	0x3c883a4d	0.016629362
56	0xc00b1e69	-2.173731
57	0xbf3127b8	-0.6920123
58	0xbf52dc44	-0.8236735
59	0xbfd7acf4	-1.6849656
60	0xbed14cf8	-0.40879035
61	0x3ff41add	1.9070698
62	0xbfdeb807	-1.7399911
63	0xbf56aec0	-0.838604
64	0x3fc5a243	1.5440143
65	0xbf75582e	-0.95837677
66	0xbfae2986	-1.3606422
67	0xbf8c6bdc	-1.0970416
68	0x3f4553d9	0.77081066
69	0x3ff51efa	1.9150078
70	0x3f6af741	0.9178353
71	0x3f24cbbc	0.64373374
72	0x3e1ac6df	0.15114926
73	0xbfc9f263	-1.5777096
74	0xbf57c5e8	-0.84286356
75	0x3ebf631a	0.37380296
76	0x3fb3a6ad	1.403524
77	0xc0008157	-2.0078943
78	0x3f314089	0.692391
79	0xbf86b2d5	-1.0523325
80	0x3fbbba3c	1.4666209
81	0x401bf61c	2.4368963
82	0x3f664659	0.8995109
83	0xbf0f6674	-0.56015706
84	0x3f6a4495	0.915109
85	0x3f4429c3	0.76626223
86	0xbf264ce7	-0.64961094
87	0x3f07e9b8	0.53091
88	0x3f9e462c	1.2365165
89	0x3d790ea8	0.060804993
90	0xbe2b137a	-0.16706648
91	0x3ee03691	0.4379163
92	0x3fd4b8b8	1.6618872
93	0x3f91fc08	1.1405039
94	0x3d492a31	0.049112502
95	0x40238b0d	2.555362
96	0x3f149e28	0.5805383
97	0xbe000668	-0.12502444
98	0x3ef216b0	0.47282934
99	0xbf8d0d53	-1.1019691
100	0xbf9ae5ca	-1.2101376
101	0x3f5e28b7	0.86780876
102	0x3f971f2b	1.1806387
103	0x3fd5aa1b	1.6692537
104	0x3fcc206e	1.5947397
105	0x3e8fb310	0.280663
106	0xbeffe542	-0.49979597
107	0x3f38ec58	0.7223563
108	0xbff88406	-1.941529
109	0xbff6a833	-1.927008
110	0xbf975170	-1.1821728
111	0xbe97f6de	-0.29680532
112	0x3eefacb3	0.46811447
113	0xbe5e9640	-0.21737003
114	0xbfb62730	-1.4230709
115	0x3ffd42e6	1.9786041
116	0xbf8caa2d	-1.0989434
117	0x3ed86cd8	0.4227054
118	0xc009d9db	-2.1539218
119	0x3f972278	1.1807394
120	0x3fe1bc8b	1.7635664
121	0x3f94c739	1.1623298
122	0xbe3492ad	-0.17634077
123	0xbf530fc2	-0.8244592
124	0x3e8f7345	0.2801763
125	0xbe784b56	-0.24247488
126	0xbf82d4ad	-1.0221153
127	0xbf889174	-1.0669389

weight_ih_l0_reverse f4 [128, 100]
0	0x3f8a1fc2	1.0790942
1	0xbe38ae1c	-0.18035167
2	0xbf963757	-1.1735638
3	0xbf87636a	-1.0577214
4	0xbfa20901	-1.2658998
5	0x3fdf3453	1.7437843
6	0x3fe8aef0	1.8178387
7	0xbfbc4c77	-1.4710835
8	0x3f69fa81	0.91397864
9	0xbfadcc23	-1.3577923
10	0xbfa6709b	-1.3003114
11	0x3f9d4545	1.2286764
12	0x3f8b4ef0	1.0883465
13	0x4010906a	2.2588143
14	0x400c8586	2.1956496
15	0xbeadbbc4	-0.33932316
16	0x3f70d31f	0.94072145
17	0xbfedac96	-1.8568294
18	0xc0278346	-2.6173873
19	0xbe869818	-0.26287913
20	0x3fa6edb0	1.3041286
21	0x3f87d1d5	1.0610911
22	0xbfdfee2b	-1.7494558
23	0x3fbde544	1.4835591
24	0xbfbc9ccf	-1.4735354
25	0x3f9d11ea	1.2271092
26	0xbff4a87b	-1.9113916
27	0xbd433086	-0.047653697
28	0xbef8cee8	-0.48595357
29	0x3c9a4f85	0.018836746
30	0xc03bd490	-2.9348488
31	0xbe419dcf	-0.18907855
32	0xbd0e6b10	-0.03477007
33	0xbf6e1044	-0.9299357
34	0x3fcfcf40	1.6235123
35	0x40791ead	3.8924973
36	0x3f11c71c	0.5694444
37	0xc00de926	-2.2173553
38	0xbe766af4	-0.24064237
39	0x3f4eab13	0.8072979
40	0x3fa801bb	1.3125528
41	0xbd8a98f2	-0.06767453
42	0xbf90d7c9	-1.1315852
43	0xbfc75f81	-1.557602
44	0x3f926f24	1.1440167
45	0xc00f2fda	-2.2372956
46	0x3fc8f424	1.5699506
47	0xbfada739	-1.3566657
48	0x3f732380	0.94976044
49	0xbf04ebff	-0.519226
50	0xbeab0364	-0.33401024
51	0x3f42382d	0.7586697
52	0xbfb928a1	-1.4465524
53	0x3ec682e3	0.38771734
54	0xbfd11b6a	-1.6336491
55	0xbe9facd2	-0.3118654
56	0xbfa9a1eb	-1.3252538
57	0x3e8b1941	0.27167705
58	0xbfc52b65	-1.5403868
59	0x3d4a7a46	0.049433015
60	0xbfc3ebc3	-1.5306324
61	0x3fabf0e4	1.3432889
62	0xbff097e8	-1.8796358
63	0xbe369cf5	-0.17833312
64	0x3ea1acc7	0.3157713
65	0xbfea8a73	-1.8323501
66	0xbe34f4ef	-0.1767156
67	0x3f15ebba	0.58562815
68	0x3e4c9674	0.19979268
69	0x3f2ffb51	0.68742853
70	0xc0115ca0	-2.2712784
71	0x3f1087be	0.56457126
72	0x3dbb857a	0.09156318
73	0x3f4088e3	0.7520887
74	0x4013d58f	2.3099096
75	0x3d488a0e	0.048959784
76	0xc04182aa	-3.0236
77	0x3ee89622	0.45427042
78	0xbf55773a	-0.8338505
79	0xbec26dcf	-0.37974402
80	0xbed11195	-0.40833727
81	0x3f9a07f6	1.203368
82	0xc00eb7da	-2.2299714
83	0xbf95e5db	-1.1710771
84	0x3ef6b6d5	0.48186365
85	0x3d7f90b6	0.062393866
86	0xc01e9a75	-2.4781773
87	0xbf339124	-0.7014334
88	0xbfad3d97	-1.3534421
89	0xbf959015	-1.1684595
90	0x3fb01764	1.3757138
91	0x3f3b2b7d	0.7311323
92	0x3ff71571	1.9303418
93	0x3e58ab83	0.21159177
94	0xbe0648db	-0.1311373
95	0xbf52892b	-0.8224055
96	0xbfb36796	-1.4015987
97	0x3f8e7aeb	1.1131262
98	0xc07d3ab0	-3.956707
99	0xbf7cd7cc	-0.9876678
100	0xbf934d90	-1.1508045
101	0xbf21f41d	-0.6326311
102	0xbf80f290	-1.0074024
103	0xbf0a3439	-0.53985935
104	0x3ebb06db	0.36528668
105	0xbf244ff2	-0.64184487
106	0xbf8aeaf4	-1.0852952
107	0xbff67abb	-1.9256204
108	0xbdaa31e9	-0.08310301
109	0xc065d14e	-3.5909
110	0x3e1d3544	0.1535235
111	0xbe8808c1	-0.2656918
112	0x401ca0a7	2.4473054
113	0x3eee2c55	0.46518198
114	0xbfea2956	-1.8293865
115	0xbf2ac947	-0.66713375
116	0xc0233b8c	-2.5505095
117	0x40440162	3.0625844
118	0x3e89adba	0.26890355
119	0xbf215a96	-0.6302885
120	0xbfab5fe4	-1.3388638
121	0xbfa64887	-1.2990884
122	0xbe4450ee	-0.19171497
123	0xbe5ff3ee	-0.21870396
124	0xc083e2af	-4.1214213
125	0xbfa83e4e	-1.3144014
126	0x3e6dcc91	0.23222567
127	0xbfdb93d8	-1.7154493
128	0xbfb6ca98	-1.4280577
129	0x3ed4138b	0.4142116
130	0x40037212	2.0538373
131	0xbf277d40	-0.6542549
132	0xbfe085cb	-1.754083
133	0x3f839357	1.027934
134	0xbf49934b	-0.78740376
135	0x3fbea3ae	1.4893701
136	0x3f585309	0.845017
137	0x3ecc640b	0.39920077
138	0x3f90a365	1.1299864
139	0x3ecbc0b7	0.39795467
140	0x3f09cea5	0.5383094
141	0x3ee68a03	0.4502717
142	0xbf9326de	-1.1496236
143	0xbec9d8eb	-0.39423308
144	0x3f8183f5	1.0118395
145	0x3ed1f5fc	0.41007984
146	0xbf8b8730	-1.0900631
147	0xbff85697	-1.9401425
148	0x3f3dd6c3	0.74155825
149	0xc0223dd8	-2.5350246
150	0x3fc7a85a	1.5598252
151	0xbf06388a	-0.5243002
152	0xbf91dd4c	-1.139566
153	0x3f2dc068	0.67871714
154	0xbfb04216	-1.3770168
155	0x3f09baca	0.5380064
156	0xbe79de5e	-0.24401233
157	0xbeed6c4e	-0.46371692
158	0xbf36dd18	-0.7143111
159	0xbfd3e532	-1.655432
160	0xbecf3d45	-0.40476432
161	0x3f3b21b8	0.73098326
162	0xc010b46f	-2.2610128
163	0xc03f4c65	-2.9890378
164	0xc04209da	-3.0318513
165	0x3f600287	0.87503856
166	0xc0101340	-2.251175
167	0x3eb618e6	0.3556587
168	0xbf9bf299	-1.218341
169	0xbfb56849	-1.417245
170	0xbf01f6c4	-0.5076716
171	0xbf62ad69	-0.8854585
172	0xbe82316b	-0.25428328
173	0xbd9b6eef	-0.07589518
174	0x3f516736	0.8179811
175	0xbf0e9334	-0.55693364
176	0xbfb5240c	-1.4151626
177	0xbedb90ea	-0.42883998
178	0xbea41a44	-0.3205129
179	0xbf1a9705	-0.6038669
180	0xbe9e1b1b	-0.30880055
181	0x3fc20253	1.5156959
182	0x3f8a034b	1.0782255
183	0xbfadba85	-1.3572546
184	0x3d969df2	0.073543444
185	0x3febfa68	1.8435793
186	0xbf872a5f	-1.0559806
187	0x3e1ee83d	0.1551828
188	0x3f1555f4	0.5833428
189	0x40441e49	3.0643485
190	0x3f94c8c5	1.162377
191	0x3e87c874	0.2652012
192	0x3f022776	0.5084146
193	0x3efdb95b	0.49555477
194	0x3f796328	0.97416925
195	0x3ded076b	0.115736805
196	0x3eb094f3	0.3448864
197	0x3f2bdea9	0.6713663
198	0x40490853	3.141133
199	0x3f3c0430	0.7344389
200	0x3fac7479	1.3473045
201	0xbd8d33aa	-0.0689462
202	0x3efd534b	0.4947761
203	0xbf171858	-0.5902152
204	0x3f0eeb4e	0.55827796
205	0xbf4e345b	-0.8054864
206	0x3f9c33c8	1.2203302
207	0x3f42c299	0.7607818
208	0x3e21b3ed	0.15791292
209	0xbfc05b9a	-1.5027955
210	0x3fd0f339	1.6324226
211	0xbf6ce843	-0.92541903
212	0x3fe908ff	1.820587
213	0xbec08b9d	-0.37606516
214	0x3f786f28	0.9704461
215	0xc002d812	-2.044438
216	0xc00115f7	-2.0169656
217	0x405119c3	3.2671974
218	0x3e3509d6	0.17679533
219	0x400aacae	2.1667895
220	0x3fca77ae	1.5817773
221	0x3ec7dd03	0.39035806
222	0xbf3f8542	-0.7481271
223	0x3e9b69b5	0.30354086
224	0xbb4e6a42	-0.003149644
225	0xbf700b27	-0.9376702
226	0x3ffa2f8b	1.9545759
227	0xbf1abfd7	-0.60448974
228	0x3ca53359	0.020166086
229	0xbf9c2535	-1.2198855
230	0x3c0ceb5b	0.008601035
231	0x3fbaf914	1.4607263
232	0x3d04f3a7	0.032458927
233	0x3f2bc5a7	0.6709847
234	0xbf20791a	-0.62684786
235	0x3d2e1f47	0.042510297
236	0xbfd2567c	-1.6432643
237	0xbfd7aa83	-1.6848911
238	0x40213ddb	2.5194004
239	0x3d98aa17	0.07454317
240	0xbfa71567	-1.3053406
241	0x3f3bace9	0.73310715
242	0x3fa3cb18	1.2796354
243	0x400a5ac8	2.1617908
244	0x3d950a95	0.07277409
245	0x3ef73611	0.48283437
246	0x3f3368a0	0.7008152
247	0xbf3df995	-0.74208957
248	0xc0418736	-3.0238776
249	0x3ec5c592	0.38627297
250	0xbd06efdd	-0.032943595
251	0x3f12b9c5	0.5731471
252	0x3f6ff753	0.9373676
253	0xbf8a110a	-1.078645
254	0x3e5c0508	0.21486294
255	0x3eaabd63	0.33347616

weight_hh_l0_reverse f4 [128, 32]
0	0x3f83fa9f	1.0310858
1	0xbf9fba57	-1.2478741
2	0x40034df4	2.051633
3	0xbf7f3e74	-0.9970467
4	0x3db1c560	0.086802244
5	0x3f78c6f3	0.9717857
6	0x3cea75f0	0.02862069
7	0xbfcf0445	-1.6173178
8	0x3f2d4d28	0.67695856
9	0xc00257d7	-2.0366113
10	0x40356eab	2.8348796
11	0x40344815	2.8168995
12	0xbe0285a3	-0.12746291
13	0x3dd93255	0.10605303
14	0xbb80e5d9	-0.00393365
15	0xbf8e85e9	-1.1134616
16	0xc01a2ef4	-2.4091158
17	0x3d8b39cb	0.067981325
18	0xbf5d9f4a	-0.8657118
19	0xbf8de05a	-1.1084092
20	0xc0141b0e	-2.3141513
21	0x3f91ab1d	1.1380345
22	0xbdf78358	-0.12085599
23	0xbf116d0b	-0.5680701
24	0x3ecf609a	0.4050339
25	0xbfd7957d	-1.6842495
26	0x3e1f2d56	0.15544638
27	0xbea7c131	-0.3276458
28	0xbddc7f65	-0.10766486
29	0x3ed10427	0.4082348
30	0x3fe05614	1.7526269
31	0x3f7c9ef5	0.9868005
32	0x3f22d406	0.6360477
33	0xbf4cd268	-0.80008554
34	0xbfec9531	-1.848303
35	0xbeb66126	-0.35620993
36	0xbec41199	-0.38294676
37	0xbf8f2093	-1.1181816
38	0xbf26c469	-0.6514345
39	0xbf8356cf	-1.0260867
40	0xbf568692	-0.8379909
41	0x3f78b24d	0.97147065
42	0xbfc1720e	-1.5112932
43	0x3f86dc9e	1.0536077
44	0xbf3ce853	-0.73792
45	0xbf2f4dd5	-0.6847814
46	0xbf3c79ee	-0.7362355
47	0x3d84763f	0.06467866
48	0x3fc3781f	1.5271033
49	0xc0373d1b	-2.8631046
50	0x3f9a1b94	1.2039666
51	0x3ee9180b	0.45526156
52	0xbe1a6998	-0.15079343
53	0x3fe520cc	1.7900634
54	0x3ef12395	0.4709746
55	0xbf734d50	-0.95039845
56	0x40115045	2.2705243
57	0xbeedc012	-0.464356
58	0x3fd41aae	1.6570642
59	0xbfc2bb74	-1.5213456
60	0xbdf1f36d	-0.11814008
61	0x3f0143a7	0.50493854
62	0x3f0eaf50	0.55736256
63	0xbf792df8	-0.9733577
64	0x3e8e7889	0.27826336
65	0x3e8293b5	0.25503317
66	0x3c675334	0.014118958
67	0xbe8c6bb1	-0.27425912
68	0xbfc4edde	-1.5385091
69	0x3faab573	1.3336624
70	0xbf8577a8	-1.0427141
71	0x401c049a	2.4377809
72	0x3e21c937	0.15799414
73	0xbfaa3763	-1.3298153
74	0x3f787b3a	0.9706303
75	0x3e129b34	0.14317018
76	0x3e913593	0.28361186
77	0xbfc09e00	-1.5048218
78	0xbfbcba27	-1.4744309
79	0xbfe36117	-1.7764004
80	0x400d5996	2.208593
81	0xc01343e8	-2.3010197
82	0xbeb02f18	-0.3441093
83	0x3fdfde4e	1.7489717
84	0xbce45fad	-0.027877653
85	0x4001423f	2.0196683
86	0xbfabc664	-1.3419919
87	0xbfd24dba	-1.642997
88	0xbfe6e57e	-1.8038785
89	0xbf129f8e	-0.5727471
90	0xbf0951e5	-0.53640586
91	0x3f91b7b5	1.1384188
92	0x3eb32d83	0.3499566
93	0xbf766995	-0.96254855
94	0x3f69d570	0.91341305
95	0xbec3d070	-0.38244963
96	0x3de5c2a0	0.112187624
97	0xbfe41bc3	-1.7820972
98	0x40240977	2.5630777
99	0x3e2b7320	0.16743135
100	0x3f6e52e6	0.9309524
101	0xc00e7060	-2.2256088
102	0xbf951eea	-1.1650059
103	0x3fb0448f	1.3770922
104	0xbefbc114	-0.49170744
105	0xbf1f2a8c	-0.62174296
106	0xbf64551d	-0.8919237
107	0x3e8cc01c	0.27490318
108	0xbef62680	-0.48076248
109	0xbee5b27e	-0.4486274
110	0xc022fbf8	-2.546629
111	0xbeeeaab6	-0.46614617
112	0x3e0f286c	0.13980263
113	0xbe87f699	-0.26555327
114	0xbeeca6aa	-0.46220905
115	0x3f0a6228	0.54056025
116	0x400df042	2.2177892
117	0xbd7d69bc	-0.061868414
118	0x4003f552	2.0618482
119	0x3e14c250	0.1452725
120	0x3fe66339	1.799903
121	0xbf686bfe	-0.90789783
122	0x3edf1ce4	0.4357673
123	0x3fc50cdb	1.5394548
124	0xbf8c8cf5	-1.0980517
125	0x3f845d23	1.0340923
126	0x4003ee42	2.061417
127	0xbf869abd	-1.0515972
128	0xc032c179	-2.7930586
129	0xc000db4e	-2.0133853
130	0xbf2b1fe9	-0.66845566
131	0x403016e8	2.751398
132	0xbfb906c8	-1.4455194
133	0xbf8e9ab3	-1.114096
134	0x3f257a5a	0.6463982
135	0x3d7b27da	0.061317302
136	0x3d5fee7c	0.054670796
137	0x3eeb9ed7	0.46019623
138	0xc00b1c93	-2.173619
139	0x3faa160b	1.3287977
140	0x3ffbb5cd	1.9664856
141	0x3f0d1cac	0.55121875
142	0xbfa1c8e1	-1.2639428
143	0x402398d5	2.5562031
144	0xbf4e3067	-0.80542606
145	0xbdd81eb9	-0.10552735
146	0xbfc374f6	-1.5270069
147	0xbf9c1efd	-1.2196957
148	0xbe10f917	-0.1415752
149	0xbfac2b4b	-1.3450712
150	0xbf5e7b20	-0.86906624
151	0x3fc29fce	1.5205019
152	0xc017b242	-2.370255
153	0xbea23500	-0.3168106
154	0x3f8fa805	1.122315
155	0x3e038707	0.12844478
156	0xc037f9d1	-2.8746226
157	0xbf25a9bf	-0.64712137
158	0x3f106d40	0.564167
159	0xbef306f5	-0.47466245
160	0xbee75293	-0.45180187
161	0xbfb63554	-1.4235024
162	0xbfe479fc	-1.7849727
163	0x3ec4fa6e	0.38472313
164	0xbf8b451b	-1.0880464
165	0xbeb5de55	-0.35521188
166	0x3fb4a955	1.4114176
167	0x3e85ecd5	0.2615725
168	0x3efe115a	0.49622613
169	0xbfb4c821	-1.4123574
170	0xbfaba294	-1.340899
171	0x402a206b	2.6582286
172	0xbf56de79	-0.83933216
173	0xc02f4f1a	-2.739203
174	0x401d4f3e	2.4579616
175	0x3fe55b9c	1.7918582
176	0x3f0dd8fe	0.5540923
177	0x3d3b8eb5	0.045790393
178	0xc013692b	-2.303294
179	0x3ff21548	1.8912745
180	0xbf9c4251	-1.2207738
181	0x3e8079db	0.25092968
182	0xbde75ac7	-0.11296611
183	0xbf0b13fd	-0.54327375
184	0xbf872d7e	-1.0560758
185	0x3e78b9b9	0.24289598
186	0xbee20a09	-0.4414828
187	0x3fbf3f08	1.4941111
188	0xbe670736	-0.22561345
189	0xbff89e32	-1.9423277
190	0x3f3105e9	0.69149643
191	0x403df636	2.9681525
192	0x3e609c49	0.21934618
193	0x3f8e591b	1.1120943
194	0xbe11358f	-0.14180587
195	0x4023334e	2.5500064
196	0xbf87b4a8	-1.0602007
197	0xbf80565e	-1.0026357
198	0x3fece85b	1.8508409
199	0xbfa674f5	-1.3004442
200	0xbeb3fdde	-0.35154623
201	0xbef379ae	-0.47553772
202	0x3f5c3b0b	0.8602759
203	0x3fd48980	1.6604462
204	0x3fac3c6d	1.345594
205	0xbfdf98dd	-1.7468525
206	0x3e3d8cd3	0.18510751
207	0x401aeae9	2.4205878
208	0x3fa1a13f	1.2627333
209	0x3d581a8c	0.052759692
210	0xbf7e2c67	-0.992865
211	0x3f0566a0	0.5210972
212	0xbfa3485d	-1.2756459
213	0xbb18ddc7	-0.002332555
214	0x3e841e82	0.25804526
215	0x3e216bf9	0.15763845
216	0xbfd17f05	-1.6366888
217	0x3f74b924	0.95595
218	0x3fff7ce2	1.9959986
219	0x3f868314	1.0508752
220	0xbf409a5f	-0.7523555
221	0x3ea7138b	0.32632098
222	0x3e61fee4	0.2206989
223	0xbfcba6f2	-1.5910323
224	0xbff4d4c9	-1.9127437
225	0x3fbd3a41	1.4783403
226	0xbf700713	-0.93760794
227	0x40408d13	3.0086105
228	0x3de6355e	0.11240648
229	0x3ed9df60	0.42553234
230	0x3f83d324	1.029881
231	0xbee41e61	-0.44554427
232	0x3f757f21	0.9589711
233	0x3e3b62b1	0.18299367
234	0x3e8d7f7d	0.27636328
235	0x4042951c	3.040351
236	0x3f0afc1a	0.54290926
237	0xbe97bad5	-0.2963473
238	0xbf7212f9	-0.945602
239	0x3f852e50	1.0404758
240	0x3e72746f	0.23677228
241	0xbe47f810	-0.19528222
242	0xbfdc8a8b	-1.722978
243	0xbfd2aa89	-1.6458293
244	0xbfeda0cc	-1.8564696
245	0x3eeea39d	0.46609202
246	0x3f2b1f12	0.66844285
247	0xbf7ab370	-0.9793005
248	0xbf1e0592	-0.6172725
249	0x3f5a8e67	0.8537354
250	0x3f05fe56	0.5234121
251	0x3f7761e8	0.9663377
252	0xbf765971	-0.96230227
253	0x3d09b934	0.03362389
254	0x3e952853	0.29132327
255	0x3ecdf932	0.40229183

bias_ih_l0_reverse f4 [128]
0	0xbcd9d6f2	-0.026591752
1	0x3fd386d3	1.652552
2	0x4037acf3	2.869931
3	0x3ef3394e	0.47504658
4	0xbf8810d5	-1.0630137
5	0xbee38948	-0.44440675
6	0xbee2bf8b	-0.4428676
7	0xbf44d6b2	-0.768901
8	0xbfed7b39	-1.855323
9	0xbf2e6655	-0.68124896
10	0xbf4e01cc	-0.8047149
11	0x3f51c76e	0.8194493
12	0x3fa3b3ef	1.2789286
13	0xbfa92b96	-1.3216426
14	0x3f0e2768	0.5552888
15	0x40086420	2.1311111
16	0x3fc54e19	1.5414459
17	0xbf15be93	-0.5849392
18	0x3e9522dd	0.2912816
19	0xbf9ed0d3	-1.2407478
20	0x3fd130e4	1.6343045
21	0x40067a0e	2.1011996
22	0xbfa079de	-1.2537191
23	0x3f34b522	0.70588887
24	0x3c4b4a8b	0.012407909
25	0xbf867054	-1.050303
26	0x3f946bdd	1.1595417
27	0x3f8cf419	1.1011993
28	0x3f2b6ee5	0.66966087
29	0x4013c648	2.3089771
30	0xbf14b8a1	-0.5809422
31	0xbfa03876	-1.251723
32	0xbfb97a34	-1.4490418
33	0xbf401cb0	-0.75043774
34	0x3f9e9027	1.2387742
35	0xbf903f0a	-1.1269238
36	0xbf668dd4	-0.9006016
37	0x3f407ab8	0.75187254
38	0xc0023d05	-2.0349743
39	0x3d80fa4a	0.06297739
40	0x3f34773c	0.7049444
41	0xbe83b8cf	-0.25726935
42	0x3f641289	0.8909078
43	0x3f67f2aa	0.9060465
44	0x3e0e096f	0.13870786
45	0x3f881dbc	1.0634074
46	0x3ebebb96	0.37252492
47	0x3fa3833c	1.2774425
48	0xbf45ea74	-0.7731087
49	0xbfa7b9b9	-1.3103553
50	0x3fc9c468	1.5763063
51	0xbeb71109	-0.35755184
52	0xbeaa9ab4	-0.33321154
53	0x3fb6c5b8	1.4279089
54	0xbfee745e	-1.8629262
55	0x3f9055f8	1.1276236
56	0x3faeee61	1.3666497
57	0xbfb48cb4	-1.4105439
58	0xbfc8f044	-1.5698323
59	0xbe808477	-0.25101063
60	0x3fa68544	1.300942
61	0xbfdd3f24	-1.7284894
62	0x3e2dc73a	0.1697053
63	0x3fa5648c	1.292131
64	0x3f917aea	1.1365635
65	0xbf55c9f8	-0.83511305
66	0x3ff66d41	1.9252092
67	0x3f842e0e	1.0326555
68	0x3f8e1e3b	1.1102976
69	0xbf0feadb	-0.56217736
70	0xbded7493	-0.115945004
71	0x3d77ba21	0.06048024
72	0x3ecac2ea	0.39601833
73	0xbe95726f	-0.29188868
74	0x3dc0f0e3	0.094209455
75	0x40128814	2.2895555
76	0xc02dae7d	-2.713775
77	0xbea5b832	-0.32367092
78	0x3e4b17e0	0.19833326
79	0xbf2d9fa9	-0.6782175
80	0x3eae0cac	0.33994043
81	0x3e802ab6	0.25032586
82	0xbf666c60	-0.9000912
83	0xbdd9dcb8	-0.10637802
84	0x3f18fe60	0.59763145
85	0x40435924	3.0523157
86	0xbffb4d5c	-1.9632983
87	0xbf8c2419	-1.0948516
88	0x3faf346f	1.3687876
89	0xbdb5552c	-0.08854136
90	0xbea573a6	-0.32314795
91	0x3e8a0a55	0.26961008
92	0x3fff91f2	1.9966414
93	0x3f718508	0.94343615
94	0xbf24fc79	-0.6444774
95	0xbf9c8c7e	-1.2230375
96	0x3f91c2ce	1.1387575
97	0x3f2904dd	0.66023046
98	0x3fcf25c2	1.6183398
99	0xbdaabf11	-0.08337224
100	0x3f08eb07	0.53483623
101	0xbf7a5aaf	-0.9779462
102	0xc0177a19	-2.3668272
103	0x3f9360e4	1.1513944
104	0xbf922b2d	-1.1419426
105	0x3d90c78b	0.0706931
106	0x400fe6a4	2.2484522
107	0x3fa7294f	1.3059481
108	0x3f815abe	1.0105817
109	0xbf2ea910	-0.6822672
110	0xbf534e2d	-0.8254116
111	0x3f3b846e	0.73248947
112	0xbfb4628f	-1.4092578
113	0xbfbb857a	-1.4650109
114	0xbf5dffb0	-0.86718273
115	0x3ed89e5e	0.42308325
116	0x3fd3a9c2	1.6536181
117	0x3d9d96ba	0.076947644
118	0x3dd7fc8f	0.105462186
119	0xbebff211	-0.3748937
120	0x3d4aecd7	0.049542274
121	0xbf49b8d9	-0.7879768
122	0xbe7f90f5	-0.2495764
123	0x3fafadc4	1.3724904
124	0xbed58230	-0.41700888
125	0x3e4f1cd1	0.20225836
126	0xc006090e	-2.0943027
127	0x3fe399b0	1.7781277

bias_hh_l0_reverse f4 [128]
0	0x3d0a6c6f	0.033794817
1	0x3fb58c5d	1.418346
2	0x402d9b6d	2.7126114
3	0x3e74f89d	0.23922963
4	0xbf72a38d	-0.9478081
5	0xbe366565	-0.17812116
6	0xbe969917	-0.29413673
7	0xbf0d87d4	-0.5528538
8	0xbfe2cf25	-1.7719465
9	0xbf1c3478	-0.6101756
10	0xbf39e7f6	-0.7261957
11	0x3f36786a	0.7127749
12	0x3fbcde43	1.4755329
13	0xbfb75ef9	-1.4325858
14	0x3f2fb9ca	0.68642867
15	0x4006aa88	2.1041584
16	0x3fb41e3b	1.4071726
17	0xbf160fc7	-0.58617824
18	0x3e22eceb	0.1591069
19	0xbf9b5692	-1.2135794
20	0x3fce1de8	1.6102877
21	0x400e12e5	2.2199032
22	0xbf8af95c	-1.0857348
23	0x3f6e8d9f	0.93184847
24	0xbe2a0e85	-0.16607101
25	0xbf9239b6	-1.1423862
26	0x3f880c5c	1.0628772
27	0x3f9125d9	1.1339675
28	0x3f42eefa	0.761459
29	0x40157372	2.3351712
30	0xbef5be99	-0.47996977
31	0xbfc025b6	-1.5011508
32	0xbfce085c	-1.6096301
33	0xbf4a3dde	-0.7900065
34	0x3f936353	1.1514686
35	0xbf6a5627	-0.9153771
36	0xbf688397	-0.9082579
37	0x3ef1556c	0.47135484
38	0xbfe2995e	-1.7703054
39	0xbe1e6fd2	-0.15472344
40	0x3f66bc33	0.9013092
41	0xbeac05c3	-0.33598146
42	0x3f7c5830	0.98572063
43	0x3f945e32	1.1591246
44	0x3d895983	0.06706526
45	0x3f875cfc	1.0575252
46	0x3efb9ce4	0.49143136
47	0x3f9a5d09	1.2059642
48	0xbf31482e	-0.6925076
49	0xbf99255c	-1.1964526
50	0x3fb9d2cd	1.4517456
51	0xbebd991a	-0.3703087
52	0xbeb37f0b	-0.35057864
53	0x3fb90572	1.4454787
54	0xbff37724	-1.9020734
55	0x3f806743	1.0031513
56	0x3fa68b56	1.3011272
57	0xbfa63eb1	-1.2987882
58	0xbfeb7e2b	-1.8397878
59	0xbeac8570	-0.33695555
60	0x3fb81409	1.4381114
61	0xbfdd4a45	-1.728829
62	0x3e9db4d6	0.3080203
63	0x3f9ebff7	1.2402333
64	0x3fa40ea7	1.2816972
65	0xbf2a1192	-0.6643306
66	0x3fe8c418	1.8184843
67	0x3f846309	1.0342723
68	0x3f9cf559	1.2262374
69	0xbf294bf4	-0.6613152
70	0x3d384e95	0.044996817
71	0xbe262a2f	-0.1622703
72	0x3f17555c	0.59114623
73	0xbedee912	-0.43537194
74	0x3e65e6ca	0.2245132
75	0x40205f97	2.5058343
76	0xc038dbc8	-2.8884144
77	0xbe7a4119	-0.24438895
78	0x3f090ab4	0.53531957
79	0xbf5095fe	-0.8147887
80	0x3e9f0d16	0.3106467
81	0x3ec8f85a	0.39251977
82	0xbf621573	-0.8831398
83	0xbdd6a801	-0.10481263
84	0x3f23b75c	0.6395166
85	0x4049d007	3.153322
86	0xbff5fee8	-1.9218416
87	0xbf7c2918	-0.98500204
88	0x3fb1be6c	1.3886237
89	0x3d8653f6	0.06558983
90	0xbebfefae	-0.3748755
91	0x3d11c004	0.03558351
92	0x400b58f0	2.1773033
93	0x3f6f187a	0.93396723
94	0xbf686a8c	-0.9078758
95	0xbf9b80b5	-1.2148653
96	0x3f8be78a	1.0930035
97	0x3ee2ef6b	0.44323286
98	0x3fd37fa3	1.6523327
99	0xbe177658	-0.14791238
100	0x3ef51043	0.4786397
101	0xbf97e145	-1.1865622
102	0xc014bc3f	-2.3239896
103	0x3fa38bc3	1.2777027
104	0xbf962cd8	-1.1732435
105	0x3c979c47	0.018507136
106	0x400fdad7	2.247732
107	0x3fa46869	1.2844363
108	0x3f66dc3f	0.9017982
109	0xbf68851d	-0.90828115
110	0xbf629e92	-0.8852321
111	0x3f49a55a	0.7876793
112	0xbfaa96f9	-1.3327323
113	0xbfb60819	-1.4221221
114	0xbf6ec2f0	-0.932662
115	0x3f1f092d	0.62123376
116	0x3fbf91d1	1.4966375
117	0x3d64ec56	0.05588945
118	0x3ea220a0	0.31665516
119	0xbe8e0b1f	-0.2774286
120	0x3e52a810	0.20571923
121	0xbf817f91	-1.0117055
122	0xbefadb0e	-0.4899525
123	0x3fda8f14	1.7074914
124	0xbecf253b	-0.40458092
125	0x3eb5b0c1	0.35486415
126	0xbff48e72	-1.9105971
127	0x3ff5cc36	1.9202945

weight_ih_l1 f4 [128, 64]
0	0xc03f3ff4	-2.9882784
1	0xbf6a6387	-0.91558117
2	0xbfd0b605	-1.6305548
3	0x40319b31	2.7750971
4	0xbed60d16	-0.4180686
5	0x3f1edd3d	0.6205633
6	0x400aa92c	2.1665754
7	0x3f1f09c6	0.6212429
8	0x3ec59461	0.38589767
9	0x3f4864b8	0.78278685
10	0xbf947a04	-1.1599736
11	0x3e64a729	0.22329392
12	0xbf5a8b10	-0.8536844
13	0x3ef9fe96	0.48827046
14	0x4059c59c	3.402686
15	0x3ff14671	1.8849622
16	0x3fd487eb	1.6603979
17	0xbf78ea5d	-0.9723261
18	0xc01cb200	-2.4483643
19	0xc0204174	-2.503995
20	0x3f5fed9d	0.87471944
21	0x405b7314	3.4288988
22	0xbe02850b	-0.12746064
23	0xc085303a	-4.162137
24	0x3f1cd4e4	0.61262345
25	0x3f7c7530	0.98616314
26	0xbdc37a36	-0.09544794
27	0xbf984619	-1.1896392
28	0x3ee20779	0.44146326
29	0xbe62c20b	-0.22144334
30	0x407773e2	3.866448
31	0x3ed6d4bb	0.41959175
32	0xbf9c8287	-1.2227334
33	0xbffb19fa	-1.9617302
34	0x402d9dae	2.712749
35	0x3fb1d7ff	1.3894042
36	0x3f6d9dde	0.9281901
37	0x3e99f76d	0.30071583
38	0x4032a525	2.7913296
39	0xbff1d6ce	-1.8893678
40	0x3f090de1	0.535368
41	0x3e2aedc0	0.16692257
42	0xbee8a4bc	-0.45438182
43	0x3fa42ebe	1.2826765
44	0xbd2d7a7a	-0.04235313
45	0x3f0d4b74	0.5519326
46	0x3ed7e0aa	0.42163593
47	0x3f715f73	0.9428627
48	0xbfe35c6b	-1.7762579
49	0x4004f4fe	2.0774531
50	0xbea5b16e	-0.3236193
51	0x3ed8695c	0.42267883
52	0x3f6dcbd5	0.9288915
53	0xbdedc617	-0.11610048
54	0x3ffa53a1	1.9556772
55	0xbfd6d2cd	-1.6783081
56	0x400f1fa3	2.236306
57	0xbf864cb6	-1.049216
58	0xbf967af1	-1.1756269
59	0xbffc3c8a	-1.9705975
60	0xbfcbd1fa	-1.5923455
61	0xbf8db8e3	-1.1072048
62	0xbf1ca59f	-0.6119022
63	0xbe0cebd2	-0.13761833
64	0xbfe820f0	-1.8135052
65	0xc06f9c70	-3.7439232
66	0x3f5bb021	0.85815626
67	0x3f97929b	1.1841615
68	0x3fbf8acb	1.4964231
69	0x3fb61812	1.4226096
70	0xbd9edbda	-0.07756777
71	0x40262cd7	2.5964868
72	0xbf75d253	-0.96024054
73	0xc06cb41d	-3.6984932
74	0xbffdaf59	-1.9819137
75	0x3e26875d	0.16262574
76	0x3fadae02	1.3568728
77	0xbf7d163d	-0.9886206
78	0xbaefe751	-0.0018303191
79	0x3f9e1e63	1.2353023
80	0xc0698cac	-3.649211
81	0xbf857466	-1.0426147
82	0xbfe17fe0	-1.7617149
83	0x3fa05460	1.2525749
84	0x3d01dc7e	0.03170442
85	0x3f910dba	1.1332314
86	0x3f8fd689	1.1237346
87	0xbfa05242	-1.2525103
88	0x3df17c84	0.117913276
89	0x3dd01b8b	0.101615034
90	0x3fbdd016	1.4829128
91	0x3f48394d	0.78212434
92	0x3f12cb67	0.5734162
93	0xc00ff6a5	-2.249429
94	0xbf3f6787	-0.74767345
95	0xbec83ec3	-0.39110383
96	0xbf965144	-1.174355
97	0xbf3b314c	-0.73122096
98	0xbd87645e	-0.066109404
99	0x40253643	2.5814369
100	0x40393f56	2.8944907
101	0x3fc50be4	1.5394254
102	0x3fc078e4	1.5036893
103	0xbfa3a209	-1.2783824
104	0x3f69a40c	0.9126594
105	0x4013ef8d	2.311496
106	0xbfc1f24f	-1.5152072
107	0x3f577fd1	0.8417941
108	0x3f6b67fb	0.91955537
109	0xbf6899b1	-0.90859514
110	0x4006170c	2.0951567
111	0x3ff8cdde	1.9437826
112	0x3f04c72a	0.518664
113	0x400264d1	2.0374033
114	0x3e90f874	0.28314555
115	0x3fa3afe4	1.2788053
116	0xbf74e878	-0.9566722
117	0xbf517a32	-0.8182708
118	0xbdb9e7c0	-0.09077406
119	0x3fdd0ec7	1.7270135
120	0x3f898f58	1.074687
121	0x3f978525	1.1837507
122	0xbefd6b1f	-0.4949579
123	0x3e1a7723	0.1508451
124	0xbf86da94	-1.0535455
125	0xbec7da9c	-0.39033973
126	0x40381898	2.876501
127	0x3fe6f31f	1.8042945
128	0xbeb8405d	-0.35986605
129	0x3ebc05af	0.36723086
130	0xbfea9955	-1.8328043
131	0x3f12d6e7	0.57359165
132	0xbfcb1ff4	-1.5869126
133	0xc01fa3f8	-2.4943829
134	0x3fc2ec5e	1.5228384
135	0xc013c742	-2.3090367
136	0x3db3831f	0.08765244
137	0xbf18f801	-0.59753424
138	0x3f1d4e27	0.61447376
139	0x400e0967	2.2193239
140	0x3fc0f20c	1.5073867
141	0x3c425cb2	0.011862921
142	0xbf050cb0	-0.51972485
143	0xbf2d3934	-0.6766541
144	0x404b9d9d	3.181495
145	0x3f59c28a	0.8506247
146	0x3fcd4110	1.603548
147	0x40891220	4.2834625
148	0x3f84e9bc	1.038383
149	0xbd95ea0f	-0.07320034
150	0xbf8789e9	-1.0588962
151	0xbe3ddf30	-0.1854217
152	0xbe9ab3c7	-0.30215284
153	0x3f84d0fd	1.0376278
154	0x401d22e1	2.4552538
155	0xbf14dd6b	-0.58150357
156	0x3e337666	0.17525634
157	0x3f8a6866	1.081311
158	0x3f931539	1.1490852
159	0xbe4b978b	-0.19882028
160	0x3f77deba	0.9682423
161	0x3e911295	0.2833449
162	0x3fb80c0c	1.4378676
163	0x3f5e78d8	0.8690314
164	0xbcdcf82f	-0.026973812
165	0x3f9ad431	1.2096006
166	0xbf1c9e17	-0.61178726
167	0x3f8fe50f	1.1241778
168	0x3fbf8f35	1.4965578
169	0x3ef29f2b	0.4738706
170	0x3fe08933	1.754187
171	0xbfacab21	-1.3489724
172	0x3f82cea5	1.0219313
173	0x3f02b7da	0.51061785
174	0x3e66f69c	0.22555012
175	0xbf5ad35c	-0.8547876
176	0xc03875ae	-2.8821826
177	0xc00d2df8	-2.2059307
178	0xbecff248	-0.40614533
179	0xbf20791c	-0.626848
180	0x401c45f4	2.4417696
181	0x3f992a6f	1.1966075
182	0x3f58f15b	0.8474328
183	0xbfa7b7fd	-1.3103024
184	0x3f11e4ae	0.5698956
185	0xc01568ec	-2.334529
186	0xbf0fce26	-0.5617393
187	0xbff03337	-1.876563
188	0x3e2138fd	0.15744396
189	0xbf484d32	-0.7824279
190	0x3ee6e07c	0.45093143
191	0xbfc1b21d	-1.5132481
192	0xbfb87cec	-1.4413123
193	0xbf834fba	-1.0258706
194	0xbea14d57	-0.31504318
195	0x3f37c6ec	0.71787906
196	0xbea447ee	-0.32086128
197	0xbfed7d8b	-1.8553938
198	0x3f030b89	0.51189476
199	0xbf648189	-0.89260155
200	0x3eb5f93f	0.35541722
201	0x3f8fee41	1.1244584
202	0x403e3eee	2.972591
203	0x3e978c15	0.29599062
204	0xbfdbe662	-1.7179682
205	0x3f2a348a	0.6648642
206	0x400fce40	2.2469635
207	0xbe46b55f	-0.19405125
208	0x3fc95315	1.572848
209	0xc014f00a	-2.3271508
210	0x3fb8b351	1.4429723
211	0x3fcd8057	1.6054791
212	0x3f7eb563	0.99495524
213	0xbfef3578	-1.8688192
214	0x3f5e0528	0.8672662
215	0x4050edc8	3.264513
216	0x401b304e	2.4248233
217	0x400dea8d	2.2174408
218	0xbe94112b	-0.28919348
219	0x3fbb36e8	1.4626131
220	0xbff75f16	-1.9325893
221	0x40161b2f	2.3454092
222	0xbf51f22e	-0.8201016
223	0x3f272676	0.6529306
224	0xbfac06ac	-1.3439536
225	0x3f171e11	0.5903025
226	0xbf43a46b	-0.76422757
227	0xc034d0ae	-2.8252368
228	0x3f21bdd3	0.63180274
229	0x3f49706a	0.78687155
230	0x3e4e73c4	0.20161349
231	0x404e1ecb	3.2206295
232	0xc007131b	-2.110541
233	0xbf43a33b	-0.76420945
234	0xbf6a263d	-0.91464597
235	0xbfcc1dbf	-1.5946578
236	0x3e8e64e3	0.27811345
237	0x3e09e753	0.1346715
238	0x40062501	2.0960085
239	0x3f9d508b	1.2290205
240	0x3ebc77b7	0.36810085
241	0x3f45ffdc	0.77343535
242	0xbf9b2a61	-1.2122308
243	0xc0a97ed3	-5.2967315
244	0xc02a03ea	-2.656489
245	0x3de921bd	0.11383388
246	0x3e7c47ad	0.24636717
247	0xbe829ec7	-0.25511762
248	0xbf58ecc8	-0.847363
249	0x3f8cd50e	1.1002519
250	0x3f8aaa51	1.0833226
251	0x3f662f18	0.8991561
252	0x3fdde3b2	1.7335112
253	0x3f9a88a1	1.2072946
254	0xc0140768	-2.312952
255	0x3f95e3de	1.1710165
