result/model-morp-sum/model.pt (torch_old, 372972 bytes, 21 tensors)

weight f4 [32, 4]
0	0xbfc346ba	-1.5255959
1	0xbf400f31	-0.7502318
2	0xbf276b4b	-0.6539809
3	0xbfce0399	-1.6094848
4	0xc0274404	-2.6135263
5	0xc0910530	-4.5318832
6	0xbd5d32c4	-0.054003492
7	0xc0207528	-2.5071507
8	0xc0409f38	-3.009718
9	0x3df9e24e	0.12201367
10	0xbf32282c	-0.6959255
11	0xbfb5f67c	-1.4215846
12	0xc0c26ec0	-6.0760193
13	0x40a2f6b9	5.0926175
14	0x40325a52	2.7867627
15	0xbdfcc723	-0.1234267
16	0xbf7fadaa	-0.99874365
17	0x4039a375	2.9006016
18	0x3f06151d	0.52375966
19	0xbf8e2a8c	-1.1106734
20	0xc06d572b	-3.7084453
21	0x40346b29	2.8190405
22	0xbfd6cde3	-1.6781582
23	0x3fae4184	1.3613744
24	0x40d052cc	6.510107
25	0x3ecb3948	0.3969214
26	0xc0d2da29	-6.589131
27	0xbfdfcac1	-1.748375
28	0xc08ffb1a	-4.499402
29	0xbf257580	-0.64632416
30	0x3e09adec	0.13445252
31	0xbf308952	-0.68959534
32	0x3f996a28	1.1985521
33	0x3fb20848	1.3908777
34	0x3fbdcfed	1.4829079
35	0xbf8f4c3e	-1.1195142
36	0x40c122b3	6.0354857
37	0x40e37344	7.1078205
38	0x40bdb1d7	5.927959
39	0x40c18c61	6.048386
40	0xbfc3e954	-1.5305581
41	0x4018ef1e	2.3895946
42	0x3fc834fb	1.5641168
43	0x3e8ca6f2	0.2747112
44	0x408275f6	4.0768995
45	0x3dbf21d9	0.09332628
46	0x3fa8af7d	1.3178555
47	0xbf699c80	-0.91254425
48	0xbe901328	-0.28139615
49	0xbe65edf6	-0.22454056
50	0xbfe0ec27	-1.7572068
51	0xbfcdcd3e	-1.607826
52	0xc00783e5	-2.1174252
53	0xbd5ca9ba	-0.0538728
54	0x3fe06e09	1.753358
55	0x3fa47f6a	1.2851384
56	0x3ff7fd9a	1.9374268
57	0x40695a33	3.6461303
58	0x3fb6b0ab	1.4272665
59	0x408152db	4.041364
60	0x3ff2c775	1.896712
61	0xbe62bab7	-0.22141539
62	0xc06fd637	-3.7474496
63	0x3e1241e8	0.14282954
64	0x3f3f8622	0.74814045
65	0x3cca4bce	0.02469435
66	0xbe51c72c	-0.20486134
67	0x3eb66c59	0.35629538
68	0xc007eaa6	-2.1236968
69	0xbfe579f2	-1.792784
70	0x3fcde212	1.6084616
71	0xc0009ff8	-2.0097637
72	0xbfec8cc9	-1.8480464
73	0xbf8e6182	-1.1123507
74	0xbfed4f41	-1.8539811
75	0xbfdc741c	-1.7222934
76	0xbef8c742	-0.48589522
77	0xbfe030b2	-1.7514861
78	0xbf4470c6	-0.7673458
79	0xc0306643	-2.7562416
80	0xbf8ae46f	-1.0850962
81	0xbe6f378a	-0.2336103
82	0xbfbed98a	-1.4910138
83	0x3f5db90c	0.86610484
84	0x3f0a41f3	0.5400688
85	0x3f083946	0.5321239
86	0xbf48b1e0	-0.78396416
87	0x3f98b664	1.1930661
88	0xbec6d5db	-0.38835034
89	0xbf2be61b	-0.6714799
90	0xbeeb1b05	-0.45919052
91	0x3fa4c1a5	1.2871596
92	0xbf9b9ffc	-1.2158198
93	0xbebe9ace	-0.37227482
94	0xbf5e60cd	-0.86866456
95	0x3fa68f0a	1.3012402
96	0xc0609651	-3.5091746
97	0x40863cfc	4.1949444
98	0x3fc390de	1.5278585
99	0x3f0c6a3d	0.54849607
100	0x3f61cbfa	0.8820187
101	0x3f9b6b32	1.2142088
102	0xbff24095	-1.8925959
103	0x3f4729d7	0.7779822
104	0x3f930319	1.148532
105	0x3fce4abe	1.611656
106	0x3ea407f8	0.3203733
107	0x3d8203a1	0.063483484
108	0xc01f66ea	-2.4906564
109	0xbf8d00ce	-1.101587
110	0xbfc971ff	-1.5737914
111	0xbffb90bf	-1.9653548
112	0x3f403d6b	0.75093716
113	0xbf3527c8	-0.70763826
114	0x3f84efd3	1.0385689
115	0x3f1b8b07	0.60759014
116	0x3eb28253	0.34865054
117	0x3efb322a	0.4906171
118	0x3ef8816a	0.48536235
119	0xbe8da8d6	-0.27667874
120	0x40222ecf	2.534107
121	0xbdd68051	-0.10473693
122	0x3d97dc2a	0.0741504
123	0x4007a6b5	2.11955
124	0xc01e82a2	-2.4767232
125	0x3fbb0487	1.4610757
126	0xbf0d5c02	-0.5521852
127	0xbe61da4a	-0.22055927

weight_ih_l0 f4 [128, 206]
0	0xc039cbd7	-2.9030664
1	0xbf072dd9	-0.5280433
2	0x3f6a4795	0.91515476
3	0xbf472c87	-0.7780232
4	0x3e4f532f	0.20246576
5	0xbfb7b31a	-1.4351532
6	0x3f4113ce	0.75420845
7	0xbe2617cb	-0.16220014
8	0x3f9889e6	1.1917083
9	0xbfa90edc	-1.320766
10	0x3e90fc81	0.28317645
11	0xbfdeaef1	-1.7397138
12	0xbe0a7f9a	-0.13525239
13	0x3e0da9a5	0.13834246
14	0x3f39fdfa	0.7265316
15	0xbf8789ce	-1.058893
16	0xbee02b12	-0.4378286
17	0xbee4810f	-0.44629714
18	0x3fdced39	1.7259895
19	0xbf40c064	-0.75293565
20	0xc01acc68	-2.418726
21	0xbfea4c16	-1.830447
22	0xbe25f371	-0.16206147
23	0x3fa403fa	1.2813714
24	0xc0560341	-3.3439486
25	0x3eacc0bf	0.33740804
26	0xbfeeb07d	-1.864761
27	0xbf4aea18	-0.7926345
28	0xbeb31edb	-0.34984478
29	0xbf5e252a	-0.8677546
30	0xbffe8dc7	-1.9887017
31	0x4001a565	2.02572
32	0xbf9bbeb7	-1.2167577
33	0xbf5b526b	-0.85672635
34	0xc010cf68	-2.262659
35	0xbee8f9ae	-0.4550299
36	0xbf925e3a	-1.1435006
37	0x3f1223c5	0.5708583
38	0x3fb1627e	1.3858182
39	0xbe8c2ee2	-0.2737952
40	0xc001ac36	-2.026136
41	0xc013e477	-2.3108194
42	0x3ecd7901	0.4013138
43	0xbed34e8c	-0.41270864
44	0x3d06c63e	0.032903902
45	0xbf63b9cd	-0.88955384
46	0xc026fd5d	-2.609214
47	0x3db0ef7d	0.08639429
48	0xc000e9a6	-2.0142608
49	0xbf9d7c64	-1.2303586
50	0xc013209b	-2.298865
51	0xbfe15fd3	-1.7607368
52	0xbbb44c91	-0.0055022915
53	0xbfba5390	-1.4556751
54	0xc03acc58	-2.9187222
55	0xbfbd2681	-1.4777375
56	0xc01dcfd8	-2.4658108
57	0x3ec0c701	0.37651828
58	0x3f475bdf	0.7787456
59	0xbf21fe7c	-0.6327894
60	0xbf6c807e	-0.92383564
61	0xbf393f73	-0.7236244
62	0x3fcd5fd3	1.6044868
63	0xbdda081f	-0.1064608
64	0xc032b551	-2.7923167
65	0xbf944153	-1.1582435
66	0xc0902fb7	-4.5058246
67	0xbec37fee	-0.3818354
68	0xbfd09dcd	-1.6298157
69	0xbf3d8302	-0.7402803
70	0x3f4ebf6c	0.80760837
71	0xc063b85f	-3.558128
72	0xbf349ea4	-0.70554566
73	0x3f5b596b	0.85683316
74	0x3f8a7a0f	1.0818499
75	0xbf692a8f	-0.91080564
76	0x3f467ddc	0.77535796
77	0xbf0a7be0	-0.5409527
78	0xbf4643c0	-0.7744713
79	0xbe9aa147	-0.3020117
80	0xbf5b13a2	-0.8557683
81	0x3f337595	0.7010129
82	0xbe44f973	-0.19235782
83	0x3fbc4491	1.4708425
84	0x3f2276dd	0.6346262
85	0xbf01563e	-0.5052222
86	0xbe9b7e72	-0.30369908
87	0x3f74e9fd	0.9566954
88	0x3f357e0f	0.70895475
89	0x3f4acf67	0.7922272
90	0x3f1ba2e2	0.60795414
91	0x3d9ac186	0.07556443
92	0x3f788307	0.9707493
93	0xbf1acef9	-0.60472065
94	0xc013a6fb	-2.3070667
95	0xc05011d9	-3.2510893
96	0xbc3b2c65	-0.011424159
97	0x403cf98a	2.9527307
98	0xbfdbbebb	-1.7167581
99	0xbe658178	-0.2241267
100	0x3f4380b5	0.76368266
101	0x3f408eba	0.75217783
102	0x3d9c3ab3	0.076283835
103	0xbf0be146	-0.54640615
104	0x3fa04c7c	1.2523341
105	0x3d230065	0.039795298
106	0xbff18567	-1.8868836
107	0xbf6f4ddc	-0.9347818
108	0xbd97541a	-0.07389088
109	0xbebb0fe5	-0.36535564
110	0xbdbd1d47	-0.092341
111	0x3f8bebeb	1.0931371
112	0xbfaf13d2	-1.3677924
113	0x3fb42f76	1.4076984
114	0x3f8e3a33	1.1111511
115	0x3ee845f7	0.4536588
116	0xbeec96d2	-0.46208817
117	0xbec344aa	-0.38138324
118	0xbe3a0b45	-0.18168361
119	0xbe0c3066	-0.13690338
120	0x3dce241a	0.100654796
121	0x3f902ceb	1.1263708
122	0x3e1cf153	0.15326433
123	0xbeb95740	-0.3619938
124	0x3efa7787	0.48919317
125	0xbfadf4b4	-1.3590302
126	0x3fa6fa0b	1.3045057
127	0xbf0d855a	-0.55281603
128	0x3fc24c0d	1.5179459
129	0x3f49fcfc	0.7890165
130	0x3ed24f97	0.41076347
131	0x3f412f9c	0.7546327
132	0x3e0543ac	0.13014096
133	0xbe319bcb	-0.17344587
134	0xbf2a75c6	-0.6658596
135	0x3e472978	0.19449413
136	0x3e919317	0.28432533
137	0xbf5d9355	-0.86552936
138	0x3e538d87	0.20659457
139	0xbd73eb32	-0.05955047
140	0xbf8d0fcc	-1.1020446
141	0xbea59070	-0.3233676
142	0x3fbff719	1.4997283
143	0x3d283033	0.04106159
144	0x3e6bb27d	0.23017307
145	0x3df0784e	0.11741696
146	0xbf12c5da	-0.5733315
147	0xbedc7556	-0.4305827
148	0xbe8d1525	-0.27555194
149	0x3f294f73	0.66136855
150	0x3e658495	0.22413857
151	0xbd01e178	-0.031709164
152	0x3ea54787	0.32281134
153	0x3f55e507	0.83552593
154	0xbb94c542	-0.0045401165
155	0xbf2960f0	-0.6616354
156	0x3e8b88cc	0.27252805
157	0xbfad87c4	-1.3557057
158	0x3f6fae26	0.93625104
159	0xbe7c731c	-0.24653286
160	0xbf0e3b55	-0.55559283
161	0x3e94435d	0.28957644
162	0xbf8797ea	-1.0593235
163	0xbe8f14a8	-0.27945447
164	0xbefac613	-0.48979244
165	0xbd33a31a	-0.043856718
166	0xbf5eebde	-0.87078655
167	0x3d766aec	0.060160562
168	0xbf03c95a	-0.51479113
169	0xbf68db63	-0.9095976
170	0xbd88f3b2	-0.06687106
171	0xbeb5c68c	-0.35503042
172	0xbe8f9b1c	-0.28048027
173	0x3f9a33dc	1.2047076
174	0xbdf4012d	-0.11914287
175	0xbf636fe7	-0.88842624
176	0xbf9bd7cf	-1.2175235
177	0xbedcf6a3	-0.4315692
178	0x3edda1e8	0.43287587
179	0xbe8b0149	-0.27149418
180	0x3f876131	1.0576535
181	0x3f61ef2e	0.88255584
182	0x3ee6049b	0.4492539
183	0x3e580308	0.21094906
184	0x3e499c24	0.19688469
185	0x3fece593	1.850756
186	0xbe3bbffe	-0.18334958
187	0xbf3e8b2f	-0.7443113
188	0x3f378be5	0.7169784
189	0x3f0e6efe	0.5563811
190	0x3fed1878	1.8523092
191	0x3f65937d	0.89678174
192	0xbfac47a0	-1.3459358
193	0x3fb58e60	1.4184074
194	0xc0366458	-2.8498745
195	0xbf92124f	-1.1411837
196	0xbf537bd2	-0.8261081
197	0x3fcae436	1.5850894
198	0x3e1061fe	0.14099881
199	0xbf1cb252	-0.61209595
200	0xbf91720e	-1.1362932
201	0x3f8f9235	1.1216494
202	0xbe586b18	-0.21134603
203	0xbeb549de	-0.3540792
204	0x3ecf37c1	0.40472224
205	0xbefc8b59	-0.49325064
206	0xbd8a8c38	-0.06765026
207	0x3f89390b	1.0720533
208	0xbe48eadc	-0.19620842
209	0xbd9566a2	-0.07294966
210	0x3f114384	0.56743646
211	0x3e9dd47a	0.3082617
212	0xbf49e5d2	-0.788663
213	0x3edf9d2c	0.436746
214	0x3ff003cb	1.8751158
215	0x401d3f16	2.4569755
216	0xbedf7823	-0.43646345
217	0xbea6dab4	-0.32588732
218	0x3ecd27b6	0.4006936
219	0x3dd665b4	0.10468617
220	0x3f0c3099	0.54761654
221	0xbea21eb3	-0.31664047
222	0xbed5dea2	-0.41771418
223	0x3f2a395b	0.6649377
224	0xbf77f2d4	-0.968549
225	0xbe87f715	-0.26555696
226	0x3f0e9e7f	0.55710596
227	0xbf684c77	-0.90741676
228	0x3fb769ed	1.4329201
229	0x3fb9d8f9	1.451934
230	0xbff062f3	-1.8780197
231	0x3e529092	0.20562962
232	0xbe05f676	-0.13082299
233	0x3ecca9de	0.39973348
234	0xbf6652af	-0.89969915
235	0x3eacdb6b	0.33761153
236	0x3fde909c	1.7387881
237	0x3e9e50e9	0.30921105
238	0xbf0a26f5	-0.53965694
239	0x3fe7e2fe	1.8116148
240	0xbf28c42d	-0.6592434
241	0xbf987338	-1.1910162
242	0xbf6f9398	-0.93584585
243	0xbe8a5ce8	-0.27024007
244	0x3ec72677	0.38896534
245	0x3f9dcd5a	1.2328293
246	0xbf84045d	-1.0313832
247	0x3ef8c53f	0.48587987
248	0x3fce20ce	1.6103761
249	0xbedff632	-0.4374252
250	0x3f2bd111	0.67115885
251	0xbe83867f	-0.2568855
252	0xbf3b06bd	-0.73057157
253	0xbef84570	-0.48490477
254	0x3fa6263d	1.2980419
255	0xbefc1296	-0.4923293

weight_hh_l0 f4 [128, 32]
0	0xc04e97eb	-3.2280223
1	0x3eeffa59	0.46870688
2	0xc00fbaf7	-2.2457864
3	0x3f8fd256	1.1236064
4	0xbd4b4fc9	-0.049636636
5	0x3f5904a2	0.84772694
6	0x3ecfd47c	0.405918
7	0xbf06d4c5	-0.5266841
8	0x3e86eaf5	0.26351133
9	0x3ea5d1e3	0.32386693
10	0xc03f473a	-2.9887223
11	0x3f0bcabf	0.5460624
12	0x3f72cf65	0.9484771
13	0x3eb22707	0.347954
14	0x3f9d935a	1.2310593
15	0xc00375e7	-2.0540712
16	0x3f255854	0.64587903
17	0xbf8bad15	-1.0912195
18	0xbf13e778	-0.5777507
19	0xbf1a44c7	-0.60261196
20	0xbf87dd71	-1.0614454
21	0xbf16dc86	-0.5893024
22	0x3ff0fcc8	1.8827143
23	0xc026de12	-2.607304
24	0xbfcd674c	-1.6047149
25	0x3fb3eb85	1.405625
26	0x3fb150c4	1.3852773
27	0x3ce4a1d5	0.027909199
28	0x3fe95a60	1.8230705
29	0x3fb31050	1.3989353
30	0xbffa6f18	-1.9565153
31	0x3fb3c717	1.4045132
32	0xbe95a902	-0.29230505
33	0xbf5d16d1	-0.8636294
34	0xbf16bdd9	-0.58883435
35	0x3fdf54b7	1.7447728
36	0xbf677f04	-0.90428185
37	0x3e83bc35	0.25729528
38	0x40027ac6	2.0387435
39	0xbf1cf434	-0.61310124
40	0x3f265fcd	0.6498993
41	0x3ef52eef	0.4788737
42	0x3e0716a1	0.13192226
43	0x3ff22787	1.8918313
44	0x3faf5911	1.3699056
45	0x3efa417a	0.4887808
46	0x3fc18dfa	1.5121453
47	0xbff991a1	-1.9497567
48	0xbbfaecbd	-0.007657616
49	0xbf14566b	-0.57944363
50	0xbf9d3c0c	-1.228395
51	0xbf5779fa	-0.84170496
52	0xbf57aa2a	-0.84244025
53	0x3f134450	0.5752611
54	0x3eb4e13a	0.35328084
55	0xbed933ed	-0.4242243
56	0x3fa7f9ee	1.3123147
57	0x3fb295b9	1.3951942
58	0x3f435b62	0.76311314
59	0x3f6e7e2b	0.9316127
60	0x3efe4535	0.49662176
61	0x3f379563	0.7171232
62	0x3f3190bf	0.6936149
63	0x3f028e20	0.50998116
64	0xbfad2306	-1.3526313
65	0xbff0a559	-1.880046
66	0xbf90cd3e	-1.1312635
67	0x3fd5dbdf	1.6707724
68	0xbee65d27	-0.44992945
69	0x40044886	2.0669265
70	0x3f43af19	0.7643905
71	0xbea6df00	-0.3259201
72	0xbdcc79e5	-0.09984187
73	0xbfa7244a	-1.305795
74	0xbe93d1a2	-0.28870875
75	0x3f937116	1.1518886
76	0x3f56ba9e	0.83878505
77	0x3f7852ea	0.97001517
78	0x3f6540f9	0.89552265
79	0xbf636712	-0.8882915
80	0x3f86ab61	1.0521051
81	0xbfd13136	-1.6343143
82	0xbf885a89	-1.0652629
83	0xbf8209cb	-1.0159239
84	0xbfea01f7	-1.828185
85	0xbf2578c9	-0.6463743
86	0x3f904616	1.1271389
87	0xbea4787b	-0.3212317
88	0xbe110469	-0.14161839
89	0x3f62c605	0.88583404
90	0x3e66b52e	0.22530052
91	0x3d3c7b2d	0.046015907
92	0x3f5f1130	0.871356
93	0x3e2fe5b2	0.17177466
94	0xbfae7916	-1.3630702
95	0x3fa8189d	1.3132511
96	0xc005ece1	-2.092583
97	0xc004ac48	-2.0730152
98	0xbf6b16cd	-0.91831666
99	0x3f3b73b6	0.73223436
100	0xbfa3f5af	-1.2809352
101	0x3fa95b5c	1.3231006
102	0x3fe8a25f	1.8174552
103	0xbf3273f9	-0.6970821
104	0x3f5d1dfe	0.8637389
105	0xbfbbbc79	-1.4666892
106	0xbf8193f8	-1.0123281
107	0x3fc850bd	1.5649639
108	0x3fb45515	1.4088465
109	0x3fb959ec	1.4480567
110	0x3f8e9a03	1.1140751
111	0xbfc89fec	-1.5673804
112	0xbb6a5e80	-0.0035761893
113	0xbfb9dace	-1.4519899
114	0xbefa2312	-0.48854882
115	0xbfe81478	-1.8131247
116	0xbf806797	-1.0031613
117	0x3ed49e9a	0.41527253
118	0x4011cb31	2.2780268
119	0xbff1a7ad	-1.8879296
120	0xbe6ab8b4	-0.22922021
121	0x3f4cb723	0.79966944
122	0x3f989b1f	1.1922339
123	0xbdae6464	-0.08515242
124	0x3f82e469	1.0225955
125	0x3edd971d	0.43279353
126	0xc00ac50b	-2.1682765
127	0x3fac2d29	1.3451282
128	0xbf3d50ea	-0.7395159
129	0xbf9661bc	-1.1748576
130	0xbfd412e6	-1.6568267
131	0x3f2abe6b	0.66696805
132	0x3fe43480	1.7828522
133	0x3f3f3916	0.7469648
134	0x3f07f308	0.5310521
135	0x3e1580ef	0.14599966
136	0xbd5004da	-0.050785877
137	0xbf6c9b5b	-0.92424554
138	0xbf8363ab	-1.0264791
139	0x3eb461bd	0.35230818
140	0x3f19012a	0.597674
141	0xbf803092	-1.0014822
142	0x3fb2a5c0	1.3956833
143	0xc0733438	-3.8000622
144	0x3b9d248f	0.004795618
145	0x3eb19f0d	0.3469166
146	0xbefda893	-0.49542674
147	0xbeacad5f	-0.33726022
148	0xbf468c26	-0.775576
149	0x3f9e187c	1.2351222
150	0x3f294873	0.66126174
151	0xbea3423a	-0.31886464
152	0xbfc2ca67	-1.5218018
153	0x4060e50d	3.5139802
154	0x3d37556e	0.044759206
155	0x3d95126d	0.07278905
156	0x3f04e386	0.51909673
157	0x3f3c95a7	0.7366585
158	0x3f06fcea	0.52729666
159	0x3f4036c7	0.75083584
160	0xbf8b62ca	-1.0889523
161	0xbf1a23d2	-0.6021091
162	0xbf88212c	-1.0635123
163	0xbdcb45e6	-0.099254414
164	0xbeab4900	-0.33454132
165	0x3f568eed	0.8381184
166	0x3f9089af	1.1292018
167	0x3f2a566f	0.6653814
168	0xbee661b9	-0.4499643
169	0xbf0abcb8	-0.5419421
170	0xbf3b5032	-0.73169243
171	0x3f1c010b	0.6093909
172	0x3fb651b8	1.4243689
173	0x3f57d71d	0.8431261
174	0x3eeec851	0.46637204
175	0x3db2d4a3	0.087319635
176	0xbf1c2570	-0.60994625
177	0xbf8bde9f	-1.0927314
178	0x3f5d9396	0.86553323
179	0xbf3cced3	-0.7375309
180	0x3d54d23c	0.051958308
181	0xbe9197f3	-0.2843624
182	0x3f962cca	1.1732419
183	0xbeaef2c5	-0.34169593
184	0x3d97ee8b	0.07418545
185	0xbbd9fd28	-0.006652493
186	0x3da50eca	0.080594614
187	0x3e798c0e	0.24369833
188	0x3fa1a191	1.2627431
189	0x3fb9b1ca	1.4507382
190	0xbf21bfbb	-0.6318318
191	0x3ebaee0e	0.36509746
192	0x3fc14dd4	1.5101876
193	0x3f38e3a4	0.7222235
194	0xbf198f34	-0.59984136
195	0x3ec8a0f0	0.39185286
196	0xbf4817f6	-0.7816156
197	0x3d3d64e5	0.0462388
198	0xbe64b925	-0.22336252
199	0x3d2502e1	0.04028595
200	0x3f58041c	0.8438127
201	0x3f10f276	0.56619966
202	0xbf999d1d	-1.2001072
203	0xbef9e9bb	-0.48811135
204	0xbe603c67	-0.21898042
205	0x3f535ab9	0.82560307
206	0x3dc72f2e	0.09725796
207	0x3efa75e5	0.4891807
208	0x3f06fd3c	0.52730155
209	0x3db828a9	0.0899213
210	0xbf0168ff	-0.50550836
211	0xbf16214f	-0.58644575
212	0x3e810203	0.25196847
213	0x3f94ed22	1.1634867
214	0xbf21bc47	-0.63177913
215	0x3f148a2c	0.58023334
216	0x3ec59a2d	0.3859419
217	0xbf1978da	-0.5995003
218	0xbf12d9f2	-0.5736381
219	0xbe38d5d5	-0.1805032
220	0xbf603082	-0.8757402
221	0x3f3628d8	0.7115607
222	0x3fa0bc9d	1.255756
223	0x3f700f42	0.9377328
224	0xbe254930	-0.161412
225	0xbea412ea	-0.3204568
226	0x3f3eea75	0.74576503
227	0x3ef4e770	0.47832823
228	0x3fe64586	1.7989967
229	0xbefdd689	-0.4957774
230	0x3e7eb3a0	0.24873209
231	0xbdfcd77b	-0.12345787
232	0x3c890462	0.016725723
233	0x3f5a5cca	0.85297835
234	0x3f831cc0	1.0243149
235	0xbe80c768	-0.25152135
236	0x3d50e984	0.051003948
237	0xbeb0a63e	-0.34501833
238	0x3e10d45a	0.14143506
239	0xbe427709	-0.18990721
240	0xbed3a4a7	-0.41336557
241	0x3d43da6f	0.047815736
242	0xbd36ad7a	-0.044599034
243	0xbe2ffb08	-0.17185605
244	0xbe05c2c4	-0.13062578
245	0x3cdf8324	0.027284212
246	0x3df7d159	0.12100477
247	0x3ea5340b	0.32266268
248	0xbf1c7d10	-0.6112833
249	0xbd967603	-0.07346728
250	0xbf01de28	-0.5072961
251	0xbfa7c812	-1.3107932
252	0xbf029259	-0.5100456
253	0xbf81bd4b	-1.0135893
254	0x3efd6153	0.49488315
255	0xbe21c32e	-0.15797111

bias_ih_l0 f4 [128]
0	0x3f29cbc6	0.6632656
1	0x3f9b37eb	1.212644
2	0x3f0e40f7	0.5556788
3	0x3fce69bc	1.6126018
4	0x3e627ec5	0.22118671
5	0x3fee0bce	1.8597353
6	0x3ebabda5	0.36472812
7	0x3f4f1cc2	0.80903256
8	0x3fe14087	1.7597817
9	0x3ed6ec4a	0.4197715
10	0xbee5c290	-0.44875002
11	0x3e857160	0.2606306
12	0xbf565092	-0.8371669
13	0xbea26ffe	-0.31726068
14	0xbe29047b	-0.16505615
15	0xbf856840	-1.042244
16	0xbef494c8	-0.4776976
17	0x3f327b91	0.697198
18	0xbe965276	-0.29359788
19	0x3f8c4c7e	1.0960844
20	0xbf17084b	-0.5899703
21	0xbe6c6191	-0.23084094
22	0x3fa728b2	1.3059294
23	0x3eb29872	0.34881932
24	0x3fa4ba97	1.2869443
25	0x3eba903c	0.36438167
26	0xbf73eba8	-0.9528146
27	0xbeb33e78	-0.35008597
28	0xbfb43717	-1.4079312
29	0xbff22331	-1.891699
30	0xbe0ade0b	-0.13561265
31	0x3ee4e28d	0.44704095
32	0x3f9ab6e6	1.2087066
33	0xbe42d9e8	-0.19028437
34	0xc006ec16	-2.1081595
35	0x3f8319cc	1.0242248
36	0x3ca9f562	0.02074689
37	0xbfc2f0ff	-1.5229796
38	0x3f838193	1.0273918
39	0x3e8d9ca3	0.27658567
40	0x3f9c9306	1.2232368
41	0xc005a374	-2.0881014
42	0xbf48bb32	-0.7841064
43	0xbf1533cb	-0.58282155
44	0xbf70b856	-0.94031274
45	0x3f07821b	0.529329
46	0xbf9aec83	-1.2103428
47	0x3d7116a2	0.058859475
48	0x3dd9d98c	0.10637197
49	0xbb94a1d6	-0.004535894
50	0x3f97a6a9	1.1847736
51	0xbf07b8f7	-0.5301661
52	0x3ca22196	0.019791406
53	0xbe4924e5	-0.1964298
54	0x3fdd7d14	1.7303796
55	0xbf9e31c9	-1.2358943
56	0xbf9ba034	-1.2158265
57	0x3f9a6b8f	1.2064074
58	0xbf3d1d1b	-0.73872536
59	0xbf327b95	-0.6971982
60	0x3f51503b	0.81763047
61	0xbec88896	-0.39166707
62	0xbfa99ff4	-1.3251939
63	0x3f6ecd3d	0.9328192
64	0xbf0cad62	-0.5495206
65	0xbfb3694c	-1.4016509
66	0xbfa485c1	-1.2853318
67	0x3fa0b0c6	1.2553947
68	0xbfc0fbb7	-1.5076817
69	0x3f9946aa	1.197469
70	0x3fc6650c	1.5499587
71	0x3d2e8cf0	0.042614877
72	0x3f6a20f3	0.91456527
73	0xbfa88eeb	-1.3168615
74	0x3e3fe635	0.18740161
75	0x3e89a5e6	0.26884383
76	0x3f0e4046	0.55566823
77	0x3fc7baea	1.5603917
78	0x3f8a5567	1.0807313
79	0xbf863614	-1.0485253
80	0x3f2caf87	0.67455333
81	0xbfb04fe2	-1.3774378
82	0x3df36053	0.11883607
83	0xbf7c104f	-0.98462385
84	0x3f5e8af4	0.86930776
85	0x3f262de6	0.64913785
86	0x3f9b283d	1.2121655
87	0xbf527de2	-0.8222333
88	0x3e916120	0.28394413
89	0x3f9f9dd8	1.2470045
90	0x3e7fefb8	0.24993789
91	0xbebcd443	-0.36880693
92	0x3f9bd5e1	1.2174646
93	0x3fc2ad61	1.5209161
94	0xbf6dd8d3	-0.9290897
95	0x3eefea37	0.4685838
96	0xbea72b8c	-0.3265041
97	0x3f97e037	1.18653
98	0xbfbb2009	-1.4619151
99	0x405270f7	3.2881448
100	0x3f922b38	1.1419439
101	0xbfde4bfa	-1.7366936
102	0xbf6e9a74	-0.93204427
103	0xbf320b11	-0.69548136
104	0x403da8fa	2.9634385
105	0xbfced503	-1.6158756
106	0xbf925cc1	-1.1434556
107	0x3eae6db9	0.34068087
108	0xc0021f04	-2.033143
109	0xbe53c746	-0.20681486
110	0xbe814e23	-0.25254926
111	0x3de165b0	0.110057235
112	0xbf304d48	-0.6886792
113	0xbf8337e0	-1.0251427
114	0xbfce924d	-1.6138397
115	0xbec228bf	-0.37921712
116	0xbf222aea	-0.6334673
117	0xbfeaddbc	-1.8348918
118	0xbf154bd4	-0.5831883
119	0xbfb4f389	-1.4136821
120	0xbe1c4c97	-0.15263592
121	0xbf44618f	-0.7671136
122	0xbc3ee120	-0.011650354
123	0xbfa01011	-1.2504903
124	0xbf43cb46	-0.76482046
125	0x3e597b22	0.21238378
126	0xbf0d5fc3	-0.55224246
127	0x3f0680de	0.52540386

bias_hh_l0 f4 [128]
0	0x3f40f2aa	0.75370276
1	0x3fac9912	1.3484213
2	0x3f311eb4	0.69187474
3	0x3fd1bda1	1.6385995
4	0x3ea8f66b	0.33000502
5	0x4006cf1f	2.1063917
6	0x3eb335c0	0.35001945
7	0x3f382ec8	0.7194638
8	0x3fed1bcb	1.8524107
9	0x3e848ca5	0.25888553
10	0xbeca56ad	-0.39519253
11	0x3e5b2dd8	0.21404207
12	0xbf657ea4	-0.89646363
13	0xbef9042a	-0.4863599
14	0x3e1af10e	0.15131018
15	0xbf946c4b	-1.1595548
16	0xbf347778	-0.70494795
17	0x3f5b3da9	0.8564096
18	0xbefe731e	-0.49697202
19	0x3f556e11	0.83371073
20	0xbf4d73bd	-0.8025473
21	0xbe065151	-0.13116957
22	0x3fac8b5f	1.3480033
23	0x3ec798a2	0.38983637
24	0x3f9f5932	1.2449095
25	0x3f226988	0.6344228
26	0xbf580feb	-0.8439929
27	0xbe9b3b45	-0.30318657
28	0xbfb541bd	-1.4160687
29	0xc005362d	-2.0814316
30	0xbe554292	-0.20826176
31	0x3eca2020	0.39477634
32	0x3fb116ed	1.3835121
33	0xbee522cd	-0.44753113
34	0xc003f03d	-2.061538
35	0x3f852252	1.0401099
36	0x3e0b9ceb	0.13634078
37	0xbfc250d7	-1.518092
38	0x3f88fdba	1.0702431
39	0x3eaf86ef	0.34282634
40	0x3f941cda	1.1571305
41	0xc0008dea	-2.0086617
42	0xbf5860cc	-0.845227
43	0xbf1596cd	-0.5843323
44	0xbf54705a	-0.82983935
45	0x3f3358d0	0.7005739
46	0xbf9f4fe6	-1.2446258
47	0x3e7b3ece	0.24535677
48	0x3ed13c3d	0.4086627
49	0x3da0dbf0	0.0785445
50	0x3f8dde52	1.1083472
51	0xbf00fc49	-0.50384957
52	0xbd3a5e73	-0.04550023
53	0xbe863801	-0.26214603
54	0x3fbf5b36	1.494971
55	0xbf89e2b3	-1.0772308
56	0xbf9b443d	-1.21302
57	0x3f85d43e	1.0455396
58	0xbf52cddf	-0.82345384
59	0xbf3bf34e	-0.7341813
60	0x3f30ba9d	0.6903475
61	0xbf0a606a	-0.54053366
62	0xbfab142a	-1.3365529
63	0x3f80f6f6	1.0075366
64	0xbf18e1e8	-0.59719706
65	0xbfa99ad9	-1.3250381
66	0xbf9d4354	-1.2286172
67	0x3fa1dfab	1.2646383
68	0xbfc149a2	-1.5100596
69	0x3f88fea8	1.0702715
70	0x3fca5f54	1.5810342
71	0xbe295748	-0.16537201
72	0x3f975be7	1.1824921
73	0xbfa8c466	-1.3184936
74	0x3d961e00	0.07329941
75	0x3e7e4214	0.24829894
76	0x3f3b4eb6	0.7316698
77	0x3fe35a76	1.7761981
78	0x3f669641	0.9007302
79	0xbf6cb635	-0.92465526
80	0x3efbe031	0.49194482
81	0xbfba3e61	-1.4550287
82	0x3b6b5c82	0.0035913293
83	0xbf535b80	-0.8256149
84	0x3f8f309a	1.1186707
85	0x3edf28d4	0.43585837
86	0x3fadafbb	1.3569254
87	0xbf33daa7	-0.7025551
88	0x3ee7d15b	0.45276913
89	0x3f78cb88	0.97185564
90	0x3e9fef54	0.3123728
91	0xbefe9ed9	-0.49730566
92	0x3fa8750a	1.3160717
93	0x3fc203d4	1.5157418
94	0xbf8a8152	-1.0820715
95	0x3f166178	0.58742476
96	0xbec56083	-0.38550195
97	0x3f6c74df	0.9236583
98	0xbfb3bbe8	-1.404172
99	0x405199df	3.2750165
100	0x3fa64416	1.2989528
101	0xbfe11517	-1.7584561
102	0xbf91b172	-1.1382277
103	0xbf2a5bfa	-0.66546595
104	0x40385a16	2.8804984
105	0xbfcce75e	-1.6008108
106	0xbf6b7552	-0.9197589
107	0x3eef5d5a	0.4675091
108	0xc00a92d2	-2.1652112
109	0xbe442a50	-0.19156766
110	0xbeff6629	-0.4988263
111	0x3ca929ce	0.020649817
112	0xbf478777	-0.7794108
113	0xbf9016ff	-1.1257018
114	0xbfba5aaa	-1.4558918
115	0xbf2b3a61	-0.66885954
116	0xbf1e3837	-0.6180453
117	0xbfbde1a1	-1.4834481
118	0xbf107516	-0.5642866
119	0xbfcf43c6	-1.6192558
120	0xbe89cfa6	-0.26916236
121	0xbf3935bb	-0.7234761
122	0x3e0be0a6	0.13659915
123	0xbf9160a4	-1.1357617
124	0xbf1dc1a9	-0.61623627
125	0x3ea9c844	0.33160603
126	0xbebd8d09	-0.37021664
127	0x3ed38a55	0.41316476

weight_ih_l0_reverse f4 [128, 206]
0	0xbfc3c12b	-1.5293325
1	0xbf27d5a9	-0.65560395
2	0xbffdf06c	-1.9838996
3	0x3ed05e10	0.40696764
4	0x3fcc9b6a	1.5984929
5	0xbf935c18	-1.151248
6	0x3d8206b9	0.063489385
7	0x3f5487f4	0.8301995
8	0x3fea2c66	1.8294799
9	0x3f0940a1	0.5361424
10	0xbd0fd6c9	-0.035116944
11	0x3f030010	0.5117197
12	0xbef7dee4	-0.4841224
13	0xbe1503c8	-0.14552224
14	0xbfa8e104	-1.3193669
15	0x3f88c1d7	1.0684155
16	0xbe772e53	-0.24138765
17	0x3fa50b92	1.2894156
18	0x3f6c382c	0.9227321
19	0xbf62bc5f	-0.8856868
20	0xbfbc6672	-1.4718764
21	0x3f571bd7	0.84026855
22	0x3d6fd242	0.058550127
23	0xbf32df29	-0.69871765
24	0xbf92a2b0	-1.1455898
25	0x3f06c68a	0.52646697
26	0x3dfcddaa	0.123469666
27	0xbf0da2e2	-0.55326664
28	0xbf66f3a0	-0.9021549
29	0xbebe1423	-0.37124738
30	0x3fa88e68	1.3168459
31	0xbeabab47	-0.33529112
32	0x3d6417e7	0.055686858
33	0xbeb34248	-0.35011506
34	0xbe9c4bf4	-0.30526698
35	0xbddd8ca2	-0.10817839
36	0x3d0031eb	0.031297605
37	0xbe8a38ac	-0.26996362
38	0xbf993772	-1.1970046
39	0x3f91e630	1.1398373
40	0xbdab8de2	-0.083766714
41	0xbd0bc712	-0.034125395
42	0x3f704e00	0.9386902
43	0xbf9ff517	-1.249667
44	0xbf2f4d48	-0.68477297
45	0xbf3e96ba	-0.7444874
46	0xbf480615	-0.7813428
47	0xbf9bfe03	-1.2186893
48	0xbe7a7339	-0.24458016
49	0xbf326492	-0.6968471
50	0x3fb52b51	1.4153844
51	0x3f025de7	0.50924534
52	0x40071532	2.1106687
53	0x3f5c3ff6	0.86035097
54	0x3ebc2f70	0.36754942
55	0xbfc3a8d1	-1.5285894
56	0xbf53ca41	-0.8273049
57	0x40146e28	2.3192234
58	0xbfabe401	-1.3428956
59	0x3ef540bc	0.4790095
60	0xbf684852	-0.9073535
61	0xbe8387e1	-0.25689605
62	0xbfb00aff	-1.3753356
63	0xbd888621	-0.06666208
64	0xbf825cf5	-1.0184618
65	0xbfbef2a3	-1.4917797
66	0xbf6b30ec	-0.91871524
67	0x3f0638c6	0.5243038
68	0x3eafeddd	0.34361163
69	0x3fa932c9	1.3218623
70	0x3f3b38b4	0.731334
71	0x3e755e5d	0.23961778
72	0x3e5d9fa8	0.21642935
73	0xbfe3d281	-1.7798616
74	0x3ed052d3	0.4068819
75	0x3ff4d971	1.9128858
76	0x3ff70603	1.929871
77	0x3f4fbcb9	0.8114734
78	0xbf260278	-0.64847517
79	0x3e53eaf1	0.20695092
80	0xbf8ba16e	-1.090864
81	0x3f9263d2	1.1436713
82	0x3f8ba3a7	1.0909318
83	0x3f28b498	0.65900564
84	0xbfc54eac	-1.5414634
85	0xbf291cf9	-0.66059834
86	0x3fdd754a	1.7301419
87	0x3f887c84	1.0662999
88	0xbe981120	-0.29700565
89	0xbeb10246	-0.34572047
90	0x3f3cea1b	0.73794717
91	0x3f0f3897	0.55945724
92	0x3f20b1c8	0.6277127
93	0xbf41cbb3	-0.75701445
94	0xbcde10ab	-0.027107557
95	0xbece8bf6	-0.40341157
96	0x3ef9aa27	0.48762628
97	0xbfabb8d6	-1.3415782
98	0xbf530641	-0.8243142
99	0x3ee60ae6	0.4493019
100	0x3e871342	0.2638188
101	0xc0192754	-2.3930254
102	0xbebf5496	-0.3736922
103	0xbd9487dc	-0.072524756
104	0x3f80ae94	1.0053277
105	0x3f4e5854	0.8060353
106	0x3fda59d7	1.7058667
107	0x3f987843	1.1911701
108	0xbecb7295	-0.39735857
109	0xbf555504	-0.8333285
110	0xbd0770d3	-0.033066582
111	0x3f1ffca5	0.6249488
112	0x3f857d21	1.0428811
113	0x3ecdc785	0.40191284
114	0xbf98f70c	-1.1950393
115	0xbe68fad4	-0.22751933
116	0xbe0ad5fc	-0.13558191
117	0x3ebe814c	0.3720802
118	0x3e1d3462	0.15352014
119	0x3e687152	0.22699478
120	0xbe708728	-0.23489058
121	0xbe646ddd	-0.22307535
122	0x3f4fa76e	0.8111485
123	0xbfee5ee7	-1.8622712
124	0x3f1d2c70	0.6139593
125	0xc0004a8d	-2.0045502
126	0x3f941ccd	1.1571289
127	0xbf03ae1f	-0.5143756
128	0xbe61ca31	-0.22049786
129	0x3daac5c6	0.083385035
130	0x3faa4d00	1.3304749
131	0x40162cd6	2.3464866
132	0x3f0b4576	0.54402864
133	0x3fb894a8	1.4420366
134	0x3f4eff58	0.80858374
135	0xbf7ca45d	-0.986883
136	0xbf31759d	-0.6932009
137	0x3eaa2f7c	0.33239353
138	0x3f1c7a46	0.61124074
139	0x3edc0e94	0.42979872
140	0xbf9c7e84	-1.222611
141	0xbf7dc3ad	-0.991267
142	0xbed1583c	-0.4088763
143	0x3fe3fb4a	1.7811062
144	0x3d15567a	0.036459424
145	0x3de5de77	0.112240724
146	0x3fb49959	1.4109298
147	0x3f7d4a8a	0.9894186
148	0x3fb2c4cf	1.3966311
149	0x3ed43786	0.4144861
150	0x3f16dcff	0.58930963
151	0x3e79e9b8	0.24405563
152	0x3f4a77ee	0.7908925
153	0x3faa1aac	1.328939
154	0x3f080b94	0.53142667
155	0x3db91781	0.09037686
156	0xbf4b158f	-0.7932977
157	0xbec4cc0c	-0.38436925
158	0xbea7b862	-0.3275786
159	0x3f860539	1.0470344
160	0x3fe6b7b6	1.8024814
161	0xbe77309c	-0.24139637
162	0xbe98ce9e	-0.29845136
163	0x3f68f634	0.91000676
164	0x3ea92fbb	0.33044228
165	0xbf50f07f	-0.8161697
166	0x3f366649	0.71249825
167	0xbf011dc9	-0.50436074
168	0xbf196bd9	-0.5993019
169	0x3f0d6973	0.5523903
170	0x3e7a2c6f	0.24431013
171	0x3e03bd61	0.12865211
172	0x3ece7733	0.40325317
173	0xbf7fc532	-0.9991027
174	0x3e479d16	0.19493517
175	0xbf8a4d5c	-1.0804858
176	0x3f897972	1.0740187
177	0x3f2d3f61	0.67674834
178	0x3f8a84a3	1.0821728
179	0x3f0153e6	0.50518644
180	0xbe28fd88	-0.16502964
181	0xbfa06787	-1.2531594
182	0xbe965c03	-0.29367074
183	0x3f2aa14d	0.66652375
184	0x3fc3f4e8	1.5309114
185	0x3f6a42b1	0.91508013
186	0xbef8bbe9	-0.48580864
187	0x4010892c	2.2583723
188	0xbf03083b	-0.51184434
189	0x3fc85da7	1.565358
190	0x3f0668f6	0.5250391
191	0x3ef38c42	0.47567946
192	0x3f7dfaba	0.99210703
193	0x3e601fe6	0.21887168
194	0x3fd93953	1.6970619
195	0x3f7e9236	0.9944185
196	0x3f0eb0b2	0.55738366
197	0xc01a2fb3	-2.4091613
198	0xbf7a45e5	-0.977629
199	0x3d86ba21	0.0657847
200	0x40049562	2.0716176
201	0x4035dc1e	2.84156
202	0x3e5565bf	0.20839594
203	0x40120f3a	2.2821794
204	0x3f8ea027	1.1142625
205	0x3ea791c0	0.32728386
206	0xc03711dc	-2.860465
207	0x3f23cd27	0.6398491
208	0x3e590d35	0.21196444
209	0xbf743f10	-0.95408726
210	0xbf3f6b9b	-0.7477357
211	0x3e908086	0.28223056
212	0x3f2f002b	0.6835963
213	0x401384e1	2.3049853
214	0xbd239291	-0.0399347
215	0x40006374	2.0060701
216	0xbeba0cbd	-0.36337844
217	0xbfc59438	-1.5435858
218	0xbf189c2d	-0.59613305
219	0xbe9a9061	-0.30188277
220	0xbebf161e	-0.37321562
221	0x3ebbf157	0.36707565
222	0xbe8fd396	-0.28091115
223	0x3f9bc957	1.2170819
224	0xbff47db2	-1.9100859
225	0xbf5b5439	-0.8567539
226	0x3f96275d	1.1730763
227	0xbfc635b7	-1.5485142
228	0x3ecdfa47	0.4023001
229	0xbf3e6dd8	-0.7438636
230	0xbed89b76	-0.42306107
231	0x3f68fa24	0.91006684
232	0x404c4f29	3.1923316
233	0x3d1c1e9d	0.038115133
234	0x3f851589	1.0397197
235	0xbe926754	-0.28594458
236	0x3f834662	1.0255854
237	0x40289397	2.6340082
238	0xbac936b4	-0.0015351386
239	0x3fc0b747	1.5055932
240	0xbee256d8	-0.44206882
241	0xbecd7062	-0.40124804
242	0xbf093582	-0.5359727
243	0xbfb9fbeb	-1.4530004
244	0xbece86f2	-0.4033733
245	0xbfcc8024	-1.5976605
246	0xbfb74a55	-1.4319559
247	0xbfdc7063	-1.7221798
248	0xbfc15ee2	-1.5107081
249	0x3fc66918	1.5500822
250	0xbf673a70	-0.90323544
251	0xbf41bce6	-0.7567886
252	0x3d6d156e	0.057881765
253	0x3ded9449	0.11600549
254	0x3f5bbffa	0.8583981
255	0x3fdc3ae1	1.7205468

weight_hh_l0_reverse f4 [128, 32]
0	0x3fd75659	1.6823226
1	0xbff0005e	-1.8750112
2	0xbf01c8b9	-0.50696903
3	0x3f1c6e89	0.61106163
4	0x3e92cdeb	0.28672728
5	0xbfa00499	-1.2501403
6	0x3fa339d4	1.2752023
7	0x3f05ce36	0.5226778
8	0xbe20568d	-0.15658017
9	0x3f450e4f	0.7697496
10	0xbf82cea6	-1.0219314
11	0xbfc2b168	-1.521039
12	0x3ed9ec59	0.4256313
13	0x3ffb6c1f	1.9642371
14	0xbea34b05	-0.31893173
15	0xbda402bc	-0.08008334
16	0xbfeab28a	-1.8335736
17	0x3f9f7fba	1.2460854
18	0xbfd0e76e	-1.6320627
19	0xbf16d8b5	-0.5892442
20	0xbf11896a	-0.568503
21	0x3eaa9069	0.333133
22	0x3e2f12c1	0.17096998
23	0xbf11743f	-0.56818
24	0x3e214eca	0.15752712
25	0x3f809b5c	1.0047412
26	0xc01449ed	-2.317012
27	0x3fc31697	1.5241269
28	0x3e5f0be6	0.21781883
29	0x3f67a9be	0.9049338
30	0xbf0bb345	-0.5457042
31	0x3f8788c2	1.058861
32	0xbea310e1	-0.31848815
33	0xbcfeb011	-0.031089814
34	0xbf8be8c3	-1.0930408
35	0xbfdb8e8d	-1.7152878
36	0xbe118330	-0.142102
37	0x3f346e41	0.70480734
38	0xbed31d87	-0.41233465
39	0x3d0dea02	0.034646995
40	0xbf6bd850	-0.9212694
41	0x3ea26d02	0.3172379
42	0x3ded6498	0.11591452
43	0x3d8b092d	0.067888595
44	0x3dab4442	0.083626285
45	0xbdce1953	-0.10063424
46	0x3f61bea9	0.8818155
47	0xbef62e6f	-0.480823
48	0x3f213cc7	0.62983364
49	0xbec9369b	-0.39299473
50	0xbf800a52	-1.000315
51	0xbf819b01	-1.0125428
52	0xbf167bf2	-0.58782876
53	0xbf02e2b7	-0.5112719
54	0xbbbc93a3	-0.0057549044
55	0x3ea80f95	0.32824388
56	0x3e8b7e9d	0.27245036
57	0x3d864f87	0.065581374
58	0xbde9bcb9	-0.11412949
59	0x3e1fcf28	0.15606368
60	0xbf51a84d	-0.8189743
61	0xbdef7437	-0.11692088
62	0x3e7deee3	0.2479816
63	0x3f1d67e1	0.6148663
64	0xbf3e7de1	-0.74410826
65	0x3e848307	0.25881216
66	0x3fbaa689	1.4582072
67	0x3f30291d	0.68812734
68	0x3f2d93cf	0.67803663
69	0x3e8d1d75	0.27561536
70	0xbe0b1bb1	-0.13584782
71	0xbea1974b	-0.3156074
72	0x3f2e5513	0.6809856
73	0xbf933f82	-1.1503756
74	0xbef253fc	-0.473297
75	0xbf44c3ec	-0.76861453
76	0xbf414cf6	-0.7550806
77	0x3fa9be96	1.3261287
78	0x3e38ac87	0.18034564
79	0x3fbf2928	1.4934435
80	0xbeb313a6	-0.34975928
81	0x3f805059	1.002452
82	0xbe4d5f15	-0.20055802
83	0xbdeb66d3	-0.114942215
84	0xbfae41d7	-1.3613843
85	0xbf333b63	-0.7001249
86	0xbee3009c	-0.44336402
87	0x3f0eeee1	0.5583325
88	0xbf795126	-0.9738945
89	0xbe5f20e4	-0.2178989
90	0xbf094dfa	-0.5363461
91	0x3eca6976	0.39533585
92	0xbf71fa1d	-0.9452227
93	0xbdd22cd4	-0.102624565
94	0x3e4bdbef	0.19908117
95	0xbd9d7baa	-0.07689603
96	0x3f09d524	0.5384085
97	0xbdc3788f	-0.09544479
98	0x3f8ef6de	1.1169088
99	0xbf56087f	-0.83606714
100	0xbc08598d	-0.008322132
101	0x3f14f38a	0.5818411
102	0xbf0f6b92	-0.56023514
103	0xbec65930	-0.3873992
104	0x401589e3	2.336541
105	0x3f3b5be5	0.73187095
106	0x3e258dff	0.16167448
107	0x3f7b1432	0.9807769
108	0xbe492a68	-0.19645083
109	0x3faa8e84	1.3324742
110	0xbfe3cf06	-1.7797554
111	0xbde68673	-0.11256113
112	0x3f329e67	0.6977295
113	0xbfca7537	-1.5817021
114	0x3f6b4e2e	0.9191617
115	0x3f466890	0.775033
116	0xbf665fc3	-0.8998987
117	0x3df10cf2	0.11770047
118	0x3f4032c0	0.7507744
119	0x3f021c57	0.50824493
120	0xbeb77fc6	-0.3583967
121	0xbfdd8dd9	-1.7308913
122	0x3f4d3069	0.80151993
123	0xbe6f9af4	-0.23398954
124	0x3e64d39b	0.22346346
125	0x3fbe5024	1.4868207
126	0x3ecb55d3	0.39713916
127	0xbf3f6563	-0.7476408
128	0x3f1c3799	0.61022335
129	0xbef7aa49	-0.48372105
130	0x3f6d7ee0	0.9277172
131	0x3f74172e	0.9534787
132	0xbef392fb	-0.47573075
133	0xbfb15f28	-1.3857164
134	0xbfb08e6b	-1.3793463
135	0x3f966eb3	1.1752533
136	0x3e04d0d5	0.12970288
137	0xbf7ab508	-0.9793248
138	0xbf8295e4	-1.0201993
139	0xbf272c50	-0.6530199
140	0x3e679023	0.22613578
141	0x3f8eff53	1.1171669
142	0x3f46c68f	0.77646726
143	0x3fac1b4e	1.3445833
144	0xbfc29540	-1.5201797
145	0x3faf2816	1.3684108
146	0xbf57f1e8	-0.84353495
147	0x3f1b7cbb	0.607372
148	0xbfa56c67	-1.2923707
149	0xbfcee29e	-1.6162908
150	0xbe2067fb	-0.15664665
151	0xbf75be91	-0.95993906
152	0xbf7871cf	-0.9704866
153	0x3fa481bf	1.2852095
154	0xbed566db	-0.41680035
155	0xbfcd0297	-1.6016415
156	0x3f1cb2de	0.6121043
157	0x3f858cb3	1.0433563
158	0xbf0fa83a	-0.5611607
159	0xbf93437c	-1.150497
160	0xbe226515	-0.15858872
161	0x3f142132	0.5786315
162	0x3fb738d6	1.431422
163	0x3f2ffb30	0.68742657
164	0x3fd01c5f	1.6258658
165	0xbc0ff698	-0.00878682
166	0x3e6a119b	0.22858278
167	0x3fba2d28	1.454503
168	0x3fc37c74	1.5272355
169	0xbf0a0ce8	-0.53925943
170	0xbf4ea2d9	-0.80717236
171	0xc008af88	-2.1357136
172	0xbf91afe5	-1.1381804
173	0xbed421ae	-0.41431946
174	0xbf0708ff	-0.527481
175	0x3fc076c3	1.5036243
176	0xbf064a59	-0.52457196
177	0x3ec3f85e	0.38275427
178	0xc020799f	-2.5074232
179	0xbf29f31c	-0.6638658
180	0xbef3df43	-0.47631273
181	0xbf3b8f45	-0.73265487
182	0x3ed6cc37	0.4195268
183	0xbe28f479	-0.16499509
184	0xbf5b1d89	-0.8559194
185	0x3ffb5b1d	1.963718
186	0xbf64c041	-0.89355856
187	0x3f312508	0.6919713
188	0xbff0c9ff	-1.8811644
189	0x3ed78469	0.42093208
190	0x3e24528f	0.16047119
191	0xbe52bff5	-0.20581038
192	0x3f86d0d7	1.0532483
193	0x3e5f2374	0.21790868
194	0x3fa3bca1	1.279194
195	0x3fcb86e2	1.5900538
196	0x402d41a0	2.7071304
197	0xbf83c69e	-1.0294988
198	0xc002922c	-2.0401716
199	0x3f883fdf	1.0644492
200	0xbd57eddd	-0.05271708
201	0xc0143f2b	-2.3163555
202	0xc017491b	-2.363837
203	0xc010b539	-2.261061
204	0x3e913a72	0.28364903
205	0x40461f0a	3.0956445
206	0xbedaacec	-0.42710054
207	0x40595acc	3.3961668
208	0xc022c7f5	-2.5434544
209	0x400950e7	2.145563
210	0xc015bd99	-2.3396971
211	0xbf175df1	-0.5912772
212	0xc01f3fbc	-2.488265
213	0xbfb4b23b	-1.4116892
214	0x3fe19d68	1.7626162
215	0xbec5281b	-0.3850716
216	0xbfdfafbc	-1.7475505
217	0x3f585095	0.8449796
218	0xbfbf9045	-1.4965903
219	0x3e248e93	0.16070013
220	0xbf67d0ca	-0.9055296
221	0x3fe97cbb	1.824119
222	0x3e8b7d67	0.27244112
223	0xbfa30a6c	-1.2737556
224	0x3eb855d6	0.36002988
225	0xbe8d89be	-0.2764415
226	0xbf3dfb40	-0.742115
227	0x3f816404	1.0108647
228	0x3f4175c0	0.755703
229	0x3ea16288	0.31520486
230	0x3f4b6af2	0.7946006
231	0xbfb98b8a	-1.4495709
232	0x3d86e521	0.065866716
233	0xbd3098b3	-0.043114375
234	0xbfa618f3	-1.2976364
235	0xbff3a6ec	-1.9035316
236	0x3f410883	0.7540361
237	0xbeaeba0c	-0.34126318
238	0xbf74f20f	-0.9568185
239	0x3ddc2a4e	0.107502565
240	0xbf213554	-0.62972
241	0x3fac7a2a	1.3474782
242	0xbff823e5	-1.9385954
243	0xbd4c7f41	-0.049926046
244	0xbe256ad9	-0.1615404
245	0x3d90a158	0.07062024
246	0x3f6143d1	0.87994105
247	0x3d807b95	0.062735714
248	0x3e1cee5a	0.15325299
249	0x3e7ea974	0.24869329
250	0xbf2bc529	-0.6709772
251	0x3e48439a	0.19557038
252	0xbc8559b0	-0.016278118
253	0xbf5cae95	-0.8620389
254	0xbc239b96	-0.009985825
255	0xbdc4cad7	-0.09609001

bias_ih_l0_reverse f4 [128]
0	0xbf615e7f	-0.88034815
1	0xbd862528	-0.06550056
2	0x3f49b0e7	0.78785557
3	0xbe5262db	-0.20545523
4	0x3fc46012	1.5341818
5	0x3e30a812	0.17251614
6	0x3ef44f77	0.47716877
7	0x3ee9fcdd	0.45700732
8	0xbda74102	-0.08166696
9	0xbfc584d6	-1.5431163
10	0xbf4925cb	-0.7857329
11	0xbf071292	-0.5276271
12	0xbe835ec8	-0.2565825
13	0x3f8afd10	1.0858479
14	0xbf20a86f	-0.6275701
15	0x3fcc61b9	1.5967323
16	0x3fa08f02	1.2543643
17	0x3f40cd53	0.753133
18	0xbe881bc8	-0.26583695
19	0x3eb7f46f	0.35928676
20	0x3fcdbf93	1.6074089
21	0x3f9eab42	1.2396014
22	0x3e38b836	0.18039021
23	0xbf9ceccf	-1.2259768
24	0x3f903f0e	1.1269243
25	0x3ec95426	0.39322013
26	0xc0047dbb	-2.070174
27	0x3f52fb5f	0.8241481
28	0x3e5509a0	0.20804453
29	0x3ef763c9	0.48318318
30	0x3f036610	0.5132761
31	0x3f1f546d	0.622382
32	0xbf6ae5a3	-0.9175665
33	0x3fa44e46	1.2836387
34	0x3ebd5a9d	0.36983195
35	0x3e96d10a	0.2945636
36	0xbe6563b0	-0.22401309
37	0x3f38e949	0.72230965
38	0x3d136841	0.035988096
39	0x3f38a93a	0.7213322
40	0x3d1efb09	0.038813625
41	0xbf94de13	-1.1630272
42	0x3f8e5aa6	1.1121414
43	0xbf6d054d	-0.92586213
44	0xbfbf9235	-1.4966494
45	0x3f519140	0.8186226
46	0xbeb6b5aa	-0.35685474
47	0x3fabd259	1.3423568
48	0x3f05d2a9	0.52274567
49	0xbfb04791	-1.377184
50	0xbe0bb98f	-0.13645004
51	0x3f96bf0f	1.1777056
52	0x3f2cfe87	0.6757588
53	0x3facd847	1.3503503
54	0xbedc438b	-0.4302028
55	0x3f35d0fb	0.71022004
56	0xbf57fcda	-0.84370196
57	0x3f790db3	0.9728653
58	0x3e27f0fb	0.1640052
59	0x3e34c591	0.1765349
60	0xbeaa5d94	-0.3327452
61	0xbe639bbc	-0.22227377
62	0x3fad4272	1.3535903
63	0xbf9f54c8	-1.2447748
64	0x40044ff1	2.0673792
65	0x3dcba6af	0.09943902
66	0xbc12cd68	-0.0089601055
67	0x3e77f1f3	0.2421339
68	0x3fa2b1c7	1.2710503
69	0xbf779b0a	-0.96720946
70	0xbf8487cd	-1.0353943
71	0x3fe341a7	1.775441
72	0x3f29bd49	0.6630445
73	0xbf647ab1	-0.8924971
74	0xbf1113dd	-0.56670934
75	0xbf8135f8	-1.0094595
76	0x3fd6e35e	1.6788137
77	0x3f9c4632	1.2208922
78	0xbf24517a	-0.64186823
79	0x4005c848	2.0903492
80	0xbf2d7865	-0.6776183
81	0x3f76c0a9	0.96387726
82	0xbf636bca	-0.8883635
83	0x3f656563	0.8960783
84	0xbfdd460e	-1.7287004
85	0xbf704003	-0.93847674
86	0x3de1c029	0.1102298
87	0xbf4f90d3	-0.8108036
88	0xbfcdc533	-1.6075805
89	0x3f33230e	0.69975364
90	0xbf69ca96	-0.91324747
91	0xbfa09c80	-1.254776
92	0xbf92fc77	-1.1483296
93	0x3f802970	1.0012646
94	0xbf6faf62	-0.9362699
95	0xbfd65c95	-1.6747004
96	0xbff4acf7	-1.9115285
97	0xbfb03cf3	-1.37686
98	0xbe976d53	-0.29575595
99	0xbfc283f6	-1.5196521
100	0xbe85994a	-0.26093513
101	0xbf8c78fc	-1.0974422
102	0xbd2627b0	-0.040565193
103	0x3d952324	0.07282093
104	0xbf7154a9	-0.94269806
105	0x3fe9c8e6	1.8264434
106	0xbf2abdcc	-0.6669586
107	0xbf88de99	-1.0692931
108	0xbf38ac68	-0.7213807
109	0x3f09ba52	0.5379993
110	0xbf86546a	-1.0494511
111	0x400f67ca	2.2407098
112	0xbfb3c810	-1.4045429
113	0xbdec0c71	-0.115258105
114	0xbfdcb794	-1.7243524
115	0xbd7cc798	-0.061713785
116	0x4052623b	3.2872455
117	0x40c9a76d	6.3016877
118	0xbf3b8aa6	-0.73258436
119	0xbf948467	-1.1602906
120	0xc00a1b17	-2.1579034
121	0xc01b1214	-2.4229784
122	0x3f80493f	1.0022353
123	0xbf89d9da	-1.0769608
124	0xbfe6ce14	-1.803164
125	0xbf2d2d1a	-0.67646945
126	0x3fbafb76	1.460799
127	0x3bd4fedd	0.0065001086

bias_hh_l0_reverse f4 [128]
0	0xbf813360	-1.0093803
1	0xbda09184	-0.07840255
2	0x3f621940	0.8831978
3	0xbdcab8cf	-0.09898531
4	0x3fc59643	1.5436481
5	0x3e48e743	0.1961947
6	0x3f10e512	0.56599534
7	0x3ec43b27	0.3832638
8	0xbe7c9cf4	-0.24669248
9	0xbfdf95af	-1.7467555
10	0xbf72298d	-0.9459465
11	0xbea750ef	-0.32678935
12	0xbdec2121	-0.11529756
13	0x3f51d4ae	0.8196515
14	0xbec5e69f	-0.38652512
15	0x3fc61be0	1.5477257
16	0x3fa684aa	1.3009236
17	0x3f0ff63c	0.562351
18	0xbed5cfdd	-0.4176015
19	0x3ea8360c	0.32853734
20	0x3fc75450	1.5572605
21	0x3f937559	1.1520187
22	0x3e8b6e13	0.27232417
23	0xbf8793a4	-1.0591931
24	0x3fa754d1	1.3072759
25	0x3ea55575	0.3229176
26	0xc0003974	-2.0035067
27	0x3f7392da	0.9514595
28	0x3e8e6a81	0.2781563
29	0x3eff71f9	0.49891642
30	0x3ef249d2	0.47321945
31	0x3f004a6a	0.50113547
32	0xbf51f270	-0.82010555
33	0x3f83789a	1.027118
34	0x3f00b714	0.50279355
35	0x3d121a45	0.035669584
36	0xbec18207	-0.37794515
37	0x3f6ceb6c	0.92546725
38	0x3ce59b9d	0.028028304
39	0x3f00b2ea	0.50273
40	0xbdf6d639	-0.120525785
41	0xbfa40806	-1.2814949
42	0x3f83b957	1.0290936
43	0xbf5ada34	-0.854892
44	0xbfa13865	-1.2595335
45	0x3f26bc54	0.65131116
46	0xbed2549a	-0.4108017
47	0x3f8cb77f	1.0993499
48	0x3f585531	0.8450499
49	0xbf945fa1	-1.1591684
50	0xbd8847ad	-0.06654296
51	0x3faa6539	1.3312141
52	0x3f2e03dc	0.6797464
53	0x3fd77b94	1.6834588
54	0xbf1d39ad	-0.6141613
55	0x3f579e21	0.8422566
56	0xbf4c703c	-0.79858756
57	0x3f7d8e4e	0.99045265
58	0x3e0079ee	0.12546512
59	0x3e9215b3	0.2853218
60	0xbe2aaf26	-0.16668376
61	0xbe8d7fa0	-0.27636433
62	0x3fa81566	1.313153
63	0xbf9b087d	-1.2111965
64	0x3fe4534b	1.7837919
65	0xbca22289	-0.019791858
66	0x3da70796	0.08155744
67	0x3ec48128	0.38379788
68	0x3f9a37bd	1.204826
69	0xbf8e578b	-1.1120466
70	0xbf7cc543	-0.987385
71	0x3fea971a	1.8327363
72	0x3ef36078	0.47534537
73	0xbf8e924c	-1.1138396
74	0xbef2bea2	-0.47411066
75	0xbf67eaeb	-0.9059283
76	0x3fcf0b8a	1.6175396
77	0x3fb93ea3	1.447224
78	0xbf59b44f	-0.85040754
79	0x4006b426	2.1047454
80	0xbf1874a9	-0.5955301
81	0x3f687912	0.9080974
82	0xbf679f6c	-0.90477633
83	0x3f77f7c7	0.96862453
84	0xbfbbe663	-1.4679683
85	0xbf861c3b	-1.0477365
86	0x3ea7869d	0.3271989
87	0xbf470fd4	-0.77758527
88	0xbfe0b495	-1.7555109
89	0x3f1b6624	0.6070273
90	0xbf4c77d2	-0.7987033
91	0xbfa834e1	-1.3141137
92	0xbf93921e	-1.1528966
93	0x3f368845	0.7130168
94	0xbf8e24c0	-1.1104965
95	0xbff1e7ba	-1.8898842
96	0xbfe7829e	-1.8086736
97	0xbfba7a1d	-1.4568516
98	0xbe66e99d	-0.22550054
99	0xbfc2314a	-1.5171292
100	0xbee12e3e	-0.43980592
101	0xbf8971e7	-1.0737885
102	0xbe12a6b8	-0.1432141
103	0xbd21d55f	-0.039510127
104	0xbf96b42f	-1.1773738
105	0x3fee3b33	1.8611816
106	0xbf5d7638	-0.8650851
107	0xbf8ccb03	-1.0999454
108	0xbf43d6bf	-0.7649955
109	0x3f222b67	0.63347477
110	0xbf83361f	-1.0250891
111	0x400396e9	2.0560858
112	0xbfb0f0b7	-1.382346
113	0xbe87a09a	-0.26489717
114	0xbfdfa15e	-1.747112
115	0xbdfdb1fc	-0.123874635
116	0x40552a92	3.3307233
117	0x40c57483	6.1704726
118	0xbf41277c	-0.75450873
119	0xbfa2e29a	-1.2725403
120	0xc00104b9	-2.0159132
121	0xc01a5df4	-2.4119844
122	0x3f4a88b2	0.7911483
123	0xbf6e370d	-0.9305275
124	0xbff4870d	-1.9103714
125	0xbf4dae0f	-0.8034372
126	0x3fc635a2	1.5485117
127	0xbd5b8129	-0.053589974

weight_ih_l1 f4 [128, 64]
0	0xbec7a159	-0.38990286
1	0xbf2c813c	-0.67384696
2	0xbfbdd73d	-1.483131
3	0xbeda423d	-0.4262866
4	0xbe97b3d9	-0.296294
5	0x3e8affb6	0.27148217
6	0x4003299e	2.049415
7	0x3e6644fb	0.22487251
8	0x3eb4db50	0.35323572
9	0x3db04222	0.08606364
10	0xbf4b94a7	-0.795237
11	0xbe20619d	-0.15662237
12	0x3fc6c422	1.5528605
13	0x3fbcc2dd	1.4746968
14	0x3f71e0a0	0.94483376
15	0xc027a144	-2.6192179
16	0x3f100be9	0.56268173
17	0xbeb8d41b	-0.36099324
18	0xc015d382	-2.3410344
19	0xbe2b5c06	-0.16734323
20	0x3f722450	0.9458666
21	0x3fa8c4e0	1.3185081
22	0xbc70a8dd	-0.014688698
23	0x3ef60817	0.48053047
24	0x3d385912	0.04500682
25	0x3f65aca6	0.89716566
26	0xbf1c2b1e	-0.6100329
27	0xbf973bb0	-1.181509
28	0x3f91c87e	1.138931
29	0x3f8f5970	1.1199169
30	0xbf00cf66	-0.50316465
31	0xbe6446c9	-0.22292627
32	0x3fb4fa06	1.4138801
33	0x400f559f	2.239601
34	0x3f63addb	0.8893716
35	0x3f034173	0.5127174
36	0x3e8323db	0.25613293
37	0xbf2281db	-0.63479394
38	0xbe9b35f8	-0.30314612
39	0x3f64da15	0.89395267
40	0x3fab6b94	1.3392205
41	0xbf941435	-1.1568667
42	0xbcd99f14	-0.026565112
43	0xbfe3523b	-1.775947
44	0x3f2d6b68	0.67742014
45	0xbd018001	-0.031616215
46	0xbf838386	-1.0274513
47	0xbfef2c3d	-1.8685375
48	0xbc9bda72	-0.019025061
49	0x3f2ac7bd	0.66711026
50	0xc0157903	-2.335511
51	0xbf6c6f8e	-0.9235772
52	0x3e074a1b	0.13211863
53	0x3ec3f088	0.38269448
54	0x3fc7cb83	1.5608982
55	0xbf06bb20	-0.5262928
56	0xbfcdb5fc	-1.6071162
57	0x3fa4061c	1.2814364
58	0xbffc8985	-1.9729468
59	0x3f77843a	0.96686137
60	0xbe7a4936	-0.2444199
61	0x3fafe4de	1.374172
62	0x3edba2f4	0.4289776
63	0xbe62b7a8	-0.22140372
64	0x3f1ca8b5	0.61194927
65	0xbe98368a	-0.2972911
66	0x3e964de0	0.2935629
67	0xbf1b0dfb	-0.6056821
68	0xc00eb40c	-2.2297392
69	0xbe7ad6e5	-0.24496038
70	0xbe499dce	-0.19689104
71	0x3fb04014	1.3769555
72	0xbec9b987	-0.3939936
73	0x3f02f54a	0.5115553
74	0x3d0a698b	0.03379206
75	0x3e6dde57	0.23229347
76	0x3d97f5aa	0.074199036
77	0x3e5d7556	0.21626791
78	0x3f0f2c62	0.559271
79	0xbfec88dd	-1.8479267
80	0x3fe30d60	1.7738457
81	0x3e4014e7	0.18757974
82	0x3fbcb1d4	1.4741769
83	0x3fd2bb3d	1.646339
84	0x3f7f9a4e	0.99844825
85	0x3f2f6b15	0.6852277
86	0x4019b83f	2.4018705
87	0x3f391a00	0.723053
88	0xbe45242a	-0.19252077
89	0xbe3bc09a	-0.1833519
90	0x40394efa	2.8954453
91	0x3fb1111a	1.3833344
92	0xbf850f88	-1.0395365
93	0xbf5b65a8	-0.8570199
94	0xbf80a199	-1.0049316
95	0x3f1f219a	0.62160647
96	0x3e3ad4ad	0.18245192
97	0xbe867ac3	-0.26265535
98	0x3fa927ef	1.3215312
99	0x40112681	2.267975
100	0x3e31c98c	0.1736204
101	0xbe1d2879	-0.1534747
102	0xbf47d01c	-0.78051925
103	0x3e046c49	0.12931933
104	0x404bec21	3.1862872
105	0x3f8144d9	1.0099136
106	0xc02828c7	-2.6274889
107	0xbfb2774e	-1.3942659
108	0xbf303789	-0.6883474
109	0x400dd4ac	2.2161055
110	0xbe851caa	-0.2599843
111	0x3f8c7988	1.0974588
112	0xbf12357c	-0.5711286
113	0x3fc2863a	1.5197213
114	0xbff71bf7	-1.9305409
115	0xbee9e177	-0.4567983
116	0x3ff26529	1.8937122
117	0xc099a913	-4.801889
118	0xbf2d26f1	-0.67637545
119	0xbf0810a6	-0.53150403
120	0xbea5c7f7	-0.32379124
121	0x3f6ff697	0.9373564
122	0x3fb85e58	1.4403791
123	0xbc0469db	-0.008081879
124	0xbf195f1f	-0.5991077
125	0x3f432af1	0.762374
126	0x3f6ce4ce	0.9253663
127	0x3fae0928	1.3596544
128	0x3dd3e289	0.103459425
129	0x3f6f4cb2	0.934764
130	0xbf3e5d93	-0.7436153
131	0xbf079884	-0.52967095
132	0xc00ed5b7	-2.231794
133	0x3f2a890e	0.6661538
134	0x3fbad73e	1.4596937
135	0xbee17624	-0.44035447
136	0xbfae0799	-1.3596069
137	0xbf0d8aaf	-0.5528974
138	0xbfb64b63	-1.4241756
139	0xbf31a1f8	-0.6938777
140	0x3d788025	0.060669083
141	0x3f4b9eaa	0.7953898
142	0x3f00195a	0.50038683
143	0x3c046add	0.008082119
144	0xbf0fcd0d	-0.5617226
145	0xbf622401	-0.8833619
146	0xbfd82654	-1.6886697
147	0x3eb40be3	0.3516532
148	0x3f59dc64	0.85101914
149	0xbfa9f133	-1.3276733
150	0x3e5f8c54	0.21830875
151	0x3e644922	0.22293523
152	0xbf24279b	-0.64122933
153	0x3f19c3ad	0.600642
154	0x3f0892a3	0.5334875
155	0xbe306ba6	-0.17228565
156	0xbf161806	-0.58630407
157	0xbe2e5c13	-0.17027311
158	0xbf881a6d	-1.0633065
159	0xbe5aaf47	-0.21355926
160	0x3e8bc014	0.2729498
161	0xbdd0d1a0	-0.10196233
162	0xbe80bce9	-0.25144127
163	0xbf93e93f	-1.1555556
164	0xbe5374d5	-0.20650037
165	0xbebf33e5	-0.3734428
166	0x3f04b1e3	0.51833934
167	0x3f1fdc6c	0.6244571
168	0xbe28d84f	-0.16488765
169	0x3faac37a	1.3340905
170	0xbd0c9bb2	-0.03432817
171	0x3ed9cce0	0.4253912
172	0x3eb57a03	0.3544465
173	0xbe304a8e	-0.1721594
174	0xbf0b842d	-0.5449856
175	0xbff1ed94	-1.8900628
176	0x3e25363a	0.16133967
177	0xbf49144d	-0.785466
178	0x3ee97f4b	0.4560493
179	0x3fe8c77d	1.8185879
180	0x4015a9b7	2.3384836
181	0xbf844221	-1.0332681
182	0x3fa87fff	1.3164061
183	0xbec4eeec	-0.38463533
184	0xbfe2d4bb	-1.772117
185	0x3f028444	0.5098307
186	0xbf5634ca	-0.836743
187	0xbc3fbecc	-0.011703204
188	0xbe8a2bfb	-0.2698668
189	0xbfe223cc	-1.7667174
190	0x3e24efb2	0.16107062
191	0x3d8fccb7	0.07021468
192	0xbea9d962	-0.33173662
193	0x3f1a3ce2	0.6024915
194	0xbc8518fe	-0.016247269
195	0xbc5d3fdc	-0.013503995
196	0xbe501f93	-0.20324545
197	0xbf024902	-0.5089265
198	0x3dbefe73	0.09325876
199	0x3e12d917	0.14340626
200	0x3f6eb385	0.93242675
201	0x3ce260df	0.027634082
202	0x3e547815	0.20748933
203	0xbf20bd27	-0.62788624
204	0xbfc273d7	-1.5191602
205	0x3f8b7767	1.0895814
206	0x3f8420f9	1.0322562
207	0xbf5e02e6	-0.8672317
208	0xbee68853	-0.45025882
209	0xbff1bc06	-1.8885505
210	0xc015cc63	-2.3405998
211	0xc0446624	-3.0687342
212	0xbd85366c	-0.06504521
213	0x3eee6265	0.46559444
214	0x3fb4abb8	1.4114904
215	0x3fc2ebaf	1.5228175
216	0x3f5af6f3	0.85533065
217	0xbf63115d	-0.8869837
218	0xbf9355c3	-1.1510547
219	0xbfc5b59e	-1.544605
220	0x3f00d308	0.5032201
221	0x3f9c5c20	1.2215614
222	0x3f4ae846	0.7926067
223	0x3e65fcb6	0.22459683
224	0x3ff9fd95	1.9530512
225	0x3f391e71	0.72312075
226	0x3eb69909	0.35663632
227	0xbfb9e0a2	-1.4521677
228	0x3f46c38e	0.7764214
229	0xbfebdd91	-1.8426992
230	0xbf97b7e1	-1.185299
231	0x3ef4499f	0.47712418
232	0x3d046b3c	0.03232883
233	0xbe04093c	-0.12894148
234	0xbf14852b	-0.580157
235	0xbf2bf913	-0.6717693
236	0x400e9fe6	2.2285094
237	0x3fda467a	1.7052758
238	0xbe5232af	-0.20527147
239	0xc0463e82	-3.0975652
240	0xbef432a9	-0.476949
241	0x3eb9364a	0.36174232
242	0xbf298dcb	-0.66231984
243	0x3fa2d986	1.2722633
244	0x3f1b5ddf	0.6069011
245	0x3ec76cc3	0.38950166
246	0x3f1f6aa9	0.62272125
247	0xbc366dd2	-0.011134582
248	0xbec65cab	-0.38742575
249	0x3fac13a2	1.3443491
250	0x3f390e6c	0.7228763
251	0xbf0057b0	-0.501338
252	0x3fd40ae4	1.6565824
253	0xbe18c0dd	-0.14917322
254	0x3f9d01fd	1.2266232
255	0xc065c851	-3.5903513
