result/model-morp-sum/model.pt (torch_old, 269028 bytes, 21 tensors)

weight f4 [32, 4]
000000 ba 46 c3 bf 31 0f 40 bf 4b 6b 27 bf 99 03 ce bf
       -1.5255959 -0.7502318 -0.6539809 -1.6094848
000010 75 d7 ad c0 4e 6a bb bf da 85 82 be 3c e5 c7 be
       -5.432551 -1.4641817 -0.25492746 -0.3904208
000020 61 19 fe c0 1b 8d 12 41 7a 97 fb 40 55 65 9f 40
       -7.940598 9.15945 7.862241 4.9811196
000030 26 68 18 40 52 61 3a 41 7a 5a 3c 40 21 a3 09 41
       2.3813567 11.64876 2.9430223 8.602326
000040 09 5d 27 3f 55 2d 8b 40 ff d7 f4 3e 25 71 2e 40
       0.65376335 4.3492837 0.47821042 2.7256558
000050 75 03 14 40 8c f8 bb 40 73 35 03 c0 62 ce da 40
       2.312711 5.87409 -2.0501373 6.837693
000060 73 ca 47 40 a0 69 0c c0 2c 92 f0 c0 03 9d 97 c0
       3.1217315 -2.1939468 -7.5178432 -4.7379165
000070 12 89 ed bf 0d 99 ad 40 e5 d8 70 3e 64 9c 97 40
       -1.8557456 5.424933 0.23520239 4.7378407
000080 a4 2d c9 c0 b7 b5 cb 40 7a 89 62 40 69 00 be 40
       -6.2868214 6.365932 3.539641 5.93755
000090 01 78 22 41 18 c9 00 bf 16 5c 04 41 be 0a 17 c0
       10.154298 -0.50306845 8.272482 -2.3600307
0000a0 ef 53 94 40 ac f6 2d 41 d2 18 c8 bf 82 16 0f 41
       4.635246 10.872723 -1.5632575 8.942995
0000b0 4e 78 26 40 ba 3c 53 40 bd 61 c2 3f 5a 12 79 40
       2.6010928 3.3005815 1.5186077 3.891745
0000c0 18 ad b3 3f df 26 1a 41 4a 99 73 40 8a 53 d7 40
       1.4037199 9.63449 3.806231 6.7289476
0000d0 88 10 24 40 c8 10 f2 40 f0 1d 79 40 64 ae f6 40
       2.563509 7.5645485 3.8924522 7.708788
0000e0 5c 6f 56 3f 9b 8e dd 3e b8 4d 9c 40 b0 68 fa bf
       0.8376367 0.43272862 4.884487 -1.9563198
0000f0 c8 43 c6 40 8f 85 5d 3c b7 8b 04 3f 3a 85 27 be
       6.195774 0.013520612 0.5177569 -0.16359416
000100 d5 37 de 3f 6d 52 ef 3e ca fa 0a 3e 47 8d 8a be
       1.7360789 0.46742573 0.13572231 -0.2706091
000110 34 b2 ae 3f eb af 19 41 79 7d 3b 40 52 c2 d9 40
       1.3648133 9.605449 2.9295332 6.8049707
000120 ba 2f 51 c0 00 b4 da 40 d2 0e 1d 40 39 fa 8c 40
       -3.268538 6.8344727 2.4540296 4.4055448
000130 4c 7c 03 40 b3 d0 04 c0 21 51 19 bf 79 78 1b c0
       2.0544615 -2.075238 -0.5988942 -2.429228
000140 c5 86 2c bf 08 32 91 3f 11 67 06 3f c7 cf c1 3f
       -0.6739314 1.1343393 0.52501017 1.5141534
000150 28 3f 0b c0 26 f3 16 3f 7e 37 d0 3e 3c ec d9 3f
       -2.1757298 0.58964765 0.40667337 1.7025218
000160 af cf f0 3f 5d 57 0a c0 84 2a 9c bf 9a 3f 4c 3f
       1.881338 -2.1615822 -1.2200475 0.7978455
000170 73 38 71 bf 05 95 f3 3f ce 0e b1 3f 5e 73 89 40
       -0.9422676 1.9029852 1.3832643 4.295333
000180 75 7c 10 3f 5d a5 4c 40 b9 d8 04 40 e5 ef 66 3e
       0.56439906 3.197593 2.0757277 0.2255245
000190 48 00 a7 3f b6 65 af 40 d5 cd c4 3f 60 62 c0 40
       1.3046961 5.481166 1.5375315 6.0120087
0001a0 01 69 02 40 25 cc db 3f db 5e b9 3f 7e a7 29 3f
       2.037659 1.7171675 1.4482073 0.662712
0001b0 36 4f 12 c0 d5 ef 80 3e ab a5 e1 bf 19 15 a8 3d
       -2.2860847 0.25182977 -1.7628683 0.08207149
0001c0 ea fd 33 3f 7c c6 d8 be d3 f4 c0 3f 8d fb 4d 3f
       0.7030932 -0.42338932 1.5074714 0.8046196
0001d0 05 25 03 3f 71 46 eb 3e c6 aa 16 3f 60 38 77 be
       0.5122836 0.4595218 0.5885433 -0.24142599
0001e0 f8 98 13 40 a7 11 4c be b2 90 4a bd 4e ed 02 40
       2.3062115 -0.19928609 -0.0494544 2.045734
0001f0 f0 1e e1 bf 3e 2e 3e 40 0d c7 4c 3e 62 1a 8e 3f
       -1.7587566 2.9715724 0.19997807 1.1101801

weight_ih_l0 f4 [128, 105]
000000 cf 1c 24 40 25 ef ac be ab 85 f3 3f 5c ad 85 bf
       2.5642583 -0.33776203 1.9025167 -1.044353
000010 1a 5e d7 bf eb 5d 4d bf 85 65 5d 3f e0 bb 09 3f
       -1.6825593 -0.8022143 0.8648303 0.538023
000020 02 36 a4 3f ce 54 66 3f 15 9a 62 40 c7 c6 3b bf
       1.2828982 0.8997315 3.5406544 -0.73350185
000030 81 7b bf 3f c8 e3 15 40 12 78 b4 3f 0d dc 22 c0
       1.4959565 2.3420277 1.4099143 -2.5446808
000040 62 06 fc be 24 f5 33 40 b6 7d 06 3f b3 7c dc 3f
       -0.4922362 2.8118372 0.5253557 1.7225555
000050 e9 dd 3f bf 17 76 9e 3f d4 a6 d6 be 30 1f 58 3f
       -0.74947983 1.2379788 -0.41924155 0.8442259
000060 64 1e 1e bf bb f7 df 3e 4c 27 2f bf f4 39 33 40
       -0.6176512 0.4374369 -0.6841934 2.8004122
000070 60 50 77 3f 85 75 30 40 58 b7 a4 3f d1 1b 01 3f
       0.9660702 2.7571728 1.2868452 0.5043307
000080 a6 0b 5f c0 3a 8e 4f be 0c ca ae bf d3 bb 13 40
       -3.485086 -0.20269099 -1.365541 2.3083389
000090 82 ad d2 3f c7 ec c5 bf a0 46 51 bd 78 65 22 3d
       1.64592 -1.5462884 -0.051092744 0.03964755
0000a0 aa d6 29 c0 54 98 4c 40 af 76 24 bd 89 2d 6d 3e
       -2.653727 3.1967974 -0.040152248 0.23161902
0000b0 1b ac 11 40 80 b7 86 bf 61 0b b0 be 0e 2e c8 bf
       2.2761295 -1.052475 -0.3438368 -1.5639055
0000c0 39 d6 9b 3f 34 1d b5 bf 81 39 b5 bf 30 f1 73 3f
       1.217475 -1.4149537 -1.4158174 0.952899
0000d0 b3 aa c5 bf 52 02 c1 3d 25 d8 c4 bf 69 d1 af bf
       -1.5442718 0.09424271 -1.5378462 -1.3735782
0000e0 28 75 dc be 08 94 89 3e 18 32 f3 bd ba 09 12 be
       -0.43058133 0.2687075 -0.11874789 -0.14261523
0000f0 d0 73 26 3f 74 9a a4 3d 0e 43 43 3f a4 50 fa 3e
       0.65020466 0.08037272 0.7627419 0.4888965
000100 17 fc 18 bf 77 7a f3 3c 3b c6 90 bf 5b 35 5c 40
       -0.5975966 0.029721482 -1.1310495 3.4407566
000110 a0 80 56 bf 60 fe a5 bf 19 bd b7 bf 79 66 ad bf
       -0.83790016 -1.2968254 -1.4354583 -1.3546897
000120 30 e9 05 bf 29 f3 7f 3f f0 cb 0f 40 60 9a 71 bd
       -0.5230894 0.9998041 2.2468224 -0.058985114
000130 da da a6 3f 8b 38 c9 bf fd a5 fb 3f c9 21 31 40
       1.3035538 -1.572038 1.9660031 2.767687
000140 98 7d 0d 40 08 b3 5f 3d 03 f0 65 3f 09 27 a9 bf
       2.2107906 0.054614097 0.89819354 -1.3215038
000150 7c 80 7e 3f 72 7b 25 40 38 d6 e4 3e f7 ca 04 40
       0.994148 2.5856595 0.44694686 2.074888
000160 40 b1 e7 3e 2d 27 38 3f 6e 45 75 3f 73 79 5f 40
       0.4525242 0.7193478 0.95809066 3.4917877
000170 ec d7 a5 3f 54 3b 88 3d e6 8d e1 bf c1 0b b1 be
       1.2956519 0.06651941 -1.7621429 -0.3457928
000180 ce 14 b6 be 38 2e 64 3f 2c 72 db 3f 2c 99 3e 40
       -0.35562748 0.89133024 1.7144217 2.9780989
000190 f1 41 9a 3f 3a 83 77 3c 3f 29 e0 be d5 fa 7e bf
       1.2051374 0.01510697 -0.43781468 -0.9960149
0001a0 3f a2 3a 3f 4a 16 df 3f 7c a4 47 40 da 7c 22 3e
       0.7290382 1.7428677 3.1194143 0.1586794
0001b0 bd 9b e5 3e 07 0d 4a bf 9b 67 a1 bf 2d 36 85 bf
       0.4484538 -0.7892613 -1.2609743 -1.0407158
0001c0 22 0d fb bf e2 48 28 40 4b 98 8a be 66 2d cf bf
       -1.9613383 2.6294484 -0.27069315 -1.618573
0001d0 3c 10 0e c0 50 9f 3d c0 5d 7d 46 c0 35 4e 79 be
       -2.2197409 -2.9628487 -3.1014016 -0.2434624
0001e0 0d 61 64 c0 62 0a db bf 25 28 c9 bd 61 d2 2c bf
       -3.5684235 -1.7112544 -0.0982211 -0.6750851
0001f0 51 66 1b 40 55 a0 23 c0 f6 2e 98 c0 28 b2 68 3f
       2.42812 -2.556661 -4.7557325 0.90896845
000200 da f8 51 be 48 cf 26 3e 4c 04 5e 3e ee 69 21 40
       -0.20505086 0.16290009 0.21681327 2.5220904
000210 92 f8 c8 3f fb e5 17 40 67 64 54 40 4e 4c 87 3f
       1.5700858 2.373412 3.318628 1.0570161
000220 37 fb ce be d6 78 71 3f a8 9e 03 3c 73 f5 a8 bd
       -0.40426037 0.94325006 0.008033432 -0.08249941
000230 51 51 5c be 6c 8d 6e 3f 57 75 b9 3f fc 14 03 bf
       -0.21515395 0.9318454 1.4488934 -0.51203895
000240 cc 5b 04 40 f8 51 a5 bf b8 4f 58 40 6f 2f ab bf
       2.0681028 -1.291564 3.3798656 -1.337385
000250 57 ff 2d 3e 04 39 03 3e 7f 7e 23 c0 b3 e5 32 3f
       0.16991936 0.12814718 -2.5545957 0.69881743
000260 6a dd 21 3e 4d 34 9e bf a3 32 09 3f 78 04 13 3d
       0.15807119 -1.2359711 0.5359289 0.035892934
000270 b2 aa 2b bf c8 2e 33 3e 6c e2 64 3f c3 ce e3 3f
       -0.67057335 0.17498314 0.8940799 1.7797474
000280 64 c8 79 bf 42 cf 41 3f 5c 54 e0 3e c2 9e 13 c0
       -0.97571397 0.75706875 0.4381436 -2.3065648
000290 bb 12 64 bf 0a 22 b9 3d 7d c0 cd be 15 67 86 40
       -0.8909108 0.090396956 -0.4018592 4.2000833
0002a0 31 1f 9a 3f fa 26 76 c0 ba 7a 47 40 c6 b7 41 3f
       1.2040769 -3.846129 3.1168656 0.7567104
0002b0 78 bb bb 3e a2 1a f4 3e f6 e6 3e bf 48 ac af bf
       0.36666465 0.4767657 -0.7457117 -1.3724451
0002c0 f9 3c 43 3f a0 09 0f c0 5f 2a 11 3f 0d 47 55 3f
       0.7626491 -2.2349625 0.5670528 0.8331154
0002d0 42 ec 06 bc 34 51 99 be b8 c9 a7 3d 88 60 3c 3b
       -0.008235039 -0.29944766 0.08192772 0.002874406
0002e0 0c 4c b7 3f 2b 4b 99 3f 07 f0 e2 bd e5 64 a6 3f
       1.4320083 1.1976064 -0.11080938 1.299954
0002f0 4a af 6c 3f 34 bd 09 40 9b 47 fb bf ba 44 32 3e
       0.9245497 2.152173 -1.9631227 0.1740903
000300 fb 8f 6e c0 fe 58 21 3d 6c c6 0d bc 7b 08 d2 3f
       -3.7275379 0.03939151 -0.0086532645 1.6408838
000310 df 3c 1d 40 3c ad 39 40 c1 01 24 3f e6 18 81 3f
       2.4568403 2.9011984 0.64065176 1.0085723
000320 a2 46 51 bf 1f 61 27 c0 f8 3a 40 3f b4 36 27 c0
       -0.817484 -2.6153028 0.7508998 -2.6127138
000330 d6 ec 6a bf 0d 70 81 3f 8a da 1b c0 78 6b 45 c0
       -0.9176763 1.011232 -2.4352136 -3.0846844
000340 c7 ff 3e c0 fd 96 71 be 9a df 76 40 a2 95 6f 3e
       -2.9843614 -0.23592754 3.8573976 0.23396924
000350 71 eb 8e bf 88 24 50 bf ec 40 b2 bf 14 c7 8a 3e
       -1.1165601 -0.8130574 -1.3926063 0.2710501
000360 b2 29 dc bc 02 70 3e c0 f5 7c 15 c0 df 0a 4b c0
       -0.02687535 -2.9755864 -2.3357518 -3.1725385
000370 d2 0d f0 be 86 54 96 3f 06 4c 51 3f 06 21 a0 40
       -0.46885544 1.1744545 0.8175663 5.004031
000380 0e 4e 58 bf 32 84 19 40 5d 1c 0b 40 91 86 6d bf
       -0.844941 2.3986936 2.1736062 -0.9278346
000390 c6 0a 86 3f 9c 22 07 40 49 d8 6f bf 92 1c 64 3f
       1.0472038 2.1114874 -0.936894 0.89106095
0003a0 40 8d f6 bf 1e 99 25 c0 f6 d6 07 c0 25 14 7f 3f
       -1.9261856 -2.5874705 -2.1224952 0.99640113
0003b0 47 c3 5d c0 a7 69 22 3e 37 df 35 c0 4c 38 10 40
       -3.4650438 0.15860616 -2.841749 2.253436
0003c0 b6 58 05 3f ca e1 69 bf 18 a8 4b bf 38 61 02 bf
       0.5208849 -0.9136015 -0.79553366 -0.50929594
0003d0 4c 06 7a bd 4f 6d 56 40 c6 f5 df 3f ac 8b 7e 3e
       -0.06104116 3.3504217 1.7496879 0.24857968
0003e0 d6 13 b1 be 85 9c 4e 3e 40 5e ec 3f 37 85 3e bf
       -0.34585446 0.20176895 1.8466263 -0.7442202
0003f0 3f 26 f8 be 79 b2 b2 bf ce 25 be 3f 8f 1c 07 40
       -0.4846668 -1.3960716 1.4855287 2.111118

weight_hh_l0 f4 [128, 32]
000000 df 1b 89 3e 70 75 57 3f 4a 22 40 c0 83 62 7b bf
       0.26779076 0.8416357 -3.0020928 -0.9819719
000010 f7 82 ab bd b5 1f 6b bf 0a 76 23 bf 19 5f 53 3e
       -0.08374589 -0.91845256 -0.6385199 0.20641746
000020 d2 0d 1c 40 92 85 31 40 53 76 04 40 f9 98 6a 3f
       2.4383435 2.7737775 2.069722 0.9163967
000030 6a bf 17 3f d5 33 ac bf bc 4b 6a c0 35 4c 63 40
       0.5927645 -1.3453318 -3.6608725 3.5515263
000040 ff 33 3f 40 47 77 87 bf b6 a2 fe 3f 16 ae 16 3f
       2.9875486 -1.0583276 1.9893405 0.58859384
000050 aa b8 18 bf c2 e2 ce 3f f7 d6 13 40 a2 f3 02 c0
       -0.59656775 1.6162951 2.3099954 -2.0461202
000060 e6 68 f3 3f 04 a1 01 c0 59 c9 74 bf fe 98 1f 40
       1.9016387 -2.0254526 -0.9561973 2.493713
000070 3f fc 9d 3f d8 ec d1 bf e2 aa 0b c0 3a 0a d9 3f
       1.2342604 -1.6400404 -2.1823049 1.6956246
000080 a4 fc 39 3f 5d 0e b4 be 8a 10 2b 40 3c d5 72 bf
       0.72651124 -0.35167208 2.6728845 -0.9485662
000090 f6 ad 90 3f 72 2c 08 40 70 97 ab 3f c4 7b 8e 3e
       1.1303089 2.1277127 1.340559 0.278288
0000a0 fa 92 02 c0 a1 8c 50 be da f3 00 c0 51 2d 45 c0
       -2.0402207 -0.20366146 -2.0148835 -3.080891
0000b0 55 20 2c 40 cf 55 88 3f e5 a6 9d 3f 3e b0 82 bf
       2.6894734 1.0651187 1.2316557 -1.0210035
0000c0 e5 e0 f0 bf 37 8c ff bf e8 d5 40 c0 d6 91 22 bd
       -1.8818632 -1.9964665 -3.0130558 -0.03968986
0000d0 95 04 8c 3f cc c7 0e c0 40 b6 b5 be 82 15 2f bf
       1.0938898 -2.2309446 -0.35490608 -0.68392193
0000e0 3a ca 2e bf b2 d0 95 3c c7 b3 0b 3e a5 1d cc bf
       -0.68277323 0.01828799 0.13642798 -1.5946547
0000f0 ad 81 3d 3f af 30 06 40 e4 46 bb 3d 7e af 8c bf
       0.74025995 2.0967214 0.09144381 -1.0991056
000100 e6 4f 81 40 b7 ef 2f 40 84 7e b2 bf 8c 87 bf bf
       4.041003 2.749006 -1.394486 -1.4963241
000110 8c 48 b1 bf 65 25 4e c0 11 7c 85 c0 a1 1b ae 40
       -1.3850265 -3.2210324 -4.171395 5.4408727
000120 64 24 83 3f 8d 18 ac 3f 78 cc 18 40 de 4c c1 3e
       1.024548 1.3444992 2.3874798 0.37753958
000130 91 1d 90 c0 26 9b 8a c0 24 c4 8e c0 23 50 d1 bf
       -4.503609 -4.331439 -4.461443 -1.6352581
000140 59 4b d0 3f 1e a9 08 bf 52 9e 95 3f 9d ff 7f 40
       1.6272994 -0.5338305 1.168894 3.9999764
000150 ec 07 11 40 fe 36 d5 3f e5 0b a5 40 1a 3d 0e c0
       2.2661085 1.6657407 5.157702 -2.2224793
000160 69 8f ff be 20 57 06 c0 2f ca 61 c0 d5 89 25 40
       -0.499141 -2.0990677 -3.5279653 2.5865376
000170 32 99 87 3f 4b 19 61 c0 4e c6 87 bf cc 3d 82 40
       1.0593626 -3.5171688 -1.0607393 4.0700436
000180 a3 72 75 bf 65 7e 22 bf ba 81 1b c0 a3 29 37 c0
       -0.95878047 -0.6347411 -2.429793 -2.8619163
000190 e3 ff 4d bf 69 da 78 c0 09 ee 32 c0 ba ad 40 40
       -0.8046858 -3.8883307 -2.7957785 3.0106034
0001a0 6a ef 87 be 32 cb 75 40 d6 3b 63 bc a9 56 fd 3f
       -0.26549846 3.840527 -0.0138692465 1.9792072
0001b0 0a 0b e5 3f 22 74 f1 be 75 a2 56 3e db 3b 2e 3f
       1.7893994 -0.47158915 0.2096041 0.6806008
0001c0 ea 05 47 40 65 89 38 3e 4a eb 1b c0 22 c3 97 3d
       3.109736 0.18021162 -2.436236 0.074102655
0001d0 21 91 8d 3f 24 a9 04 40 3c 9b 00 40 1f bd 04 c0
       1.1059915 2.0728235 2.0094748 -2.074043
0001e0 00 8a 5e 40 55 de 0d c0 6d 73 26 bf 6f 78 83 40
       3.4771729 -2.216695 -0.65019876 4.1084514
0001f0 3b b1 56 3f f9 ab 3b c0 5c 21 18 c0 d3 7e 9b 3e
       0.8386418 -2.9323714 -2.377036 0.30370197
000200 60 d5 9d 3f 6c c7 7d 3f 05 89 b8 40 a5 8c ab 3f
       1.2330742 0.9913242 5.766726 1.3402296
000210 9f b0 88 3f 43 e8 74 3f c3 5d 5c 40 b4 b5 c8 bf
       1.06789 0.95666903 3.4432228 -1.5680451
000220 82 22 3d be c0 85 bc bf 84 13 f8 bf a3 58 9f c0
       -0.18470195 -1.4728317 -1.9380956 -4.97957
000230 d9 78 d1 bf 16 9e dd 3f 5f ef f0 3f b2 90 cf bf
       -1.6365005 1.7313869 1.882305 -1.6216033
000240 f7 ab 6e c0 a9 b0 00 c0 3c 79 9d c0 25 cd 4c c0
       -3.729246 -2.0107825 -4.921049 -3.200021
000250 5b cd 22 c0 93 fe b4 c0 55 b8 5d c0 dc f4 23 c0
       -2.543784 -5.656076 -3.4643757 -2.56182
000260 69 62 4c c0 03 a3 25 40 a1 79 54 3f 68 ed 9a c0
       -3.1935065 2.5880744 0.8299809 -4.8414803
000270 ab 4b bc 3f 74 4b e2 3f 5a 29 73 40 f5 97 a1 c0
       1.4710592 1.7679276 3.799399 -5.0497994
000280 76 89 2e 3f e7 94 c3 bf 3b 79 4a c0 b5 35 06 c0
       0.681785 -1.5279816 -3.1636493 -2.097028
000290 44 67 00 40 a6 73 2f bc 04 39 05 c0 fd c5 33 bf
       2.0063028 -0.010708725 -2.081605 -0.7022398
0002a0 33 ae 15 40 c4 6d ce 3f 9b 09 75 be 0c 0d b7 3e
       2.3387573 1.6127248 -0.23929445 0.3575214
0002b0 3e 00 73 3f eb 49 a6 bf 16 96 b7 c0 8a c9 d4 3f
       0.94922245 -1.2991308 -5.737071 1.6624005
0002c0 15 c6 02 40 e1 b1 8b 3f 77 41 d0 3e 2e 6c de 3d
       2.04334 1.0913659 0.40674946 0.108604774
0002d0 26 d0 05 40 0e 53 bd 40 c9 df 42 40 c6 a7 15 c0
       2.0908294 5.9163885 3.0449088 -2.338365
0002e0 45 55 6a 3f d8 49 c1 bf 5b d1 90 bf 5d 0b 0d 40
       0.9153636 -1.510066 -1.131389 2.2038186
0002f0 4f 1f 58 40 44 43 11 40 18 a9 d5 bf 22 f4 82 40
       3.376911 2.2697306 -1.6692228 4.0923014
000300 42 0b 18 3e a9 14 18 c0 8e ac 0d c0 e7 6e c3 bd
       0.14848045 -2.376261 -2.213657 -0.09542637
000310 48 54 36 40 31 dc d9 3f d5 44 80 3f fb cd 81 bf
       2.8488941 1.7020322 1.0021006 -1.0140985
000320 af 22 66 40 aa 01 a8 3f b9 a7 5c 40 e5 41 4f 3f
       3.595867 1.3125508 3.447737 0.8095992
000330 c1 2e db 3f 41 09 7c be 3c b9 26 c0 4a 66 c1 3f
       1.7123643 -0.24612905 -2.6050558 1.5109341
000340 31 0d a2 3f f9 80 3a 3f 96 bb c3 3f cf ec 00 40
       1.2660276 0.72853047 1.5291622 2.0144536
000350 72 4e af 3f 79 93 87 3f 3c bb 9f 40 19 53 36 40
       1.3695815 1.059188 4.9916058 2.8488219
000360 8c ac 3b 40 02 05 48 c0 22 85 2a 3e 22 9f 2d 40
       2.9324064 -3.1253057 0.16652349 2.7128377
000370 90 fd f0 bf 0e bd 3c c0 da 39 c8 bf 4d 82 0e 40
       -1.8827381 -2.949039 -1.5642655 2.226703
000380 b6 ed c2 be 42 67 ba 3f 0b c4 6f bf 72 03 2f c0
       -0.38071984 1.4562762 -0.9365851 -2.7345853
000390 d3 3d cc bf 0a f0 a6 be 9d 72 a8 bf a9 21 76 40
       -1.5956367 -0.3260501 -1.3159977 3.8458045
0003a0 bf fd 13 c0 9d b9 00 c0 ee 31 c0 3d f6 a7 8c bf
       -2.3123624 -2.011329 0.09384523 -1.0988758
0003b0 f6 c9 94 c0 2c 43 21 c0 4a 38 22 3f 9d 03 63 be
       -4.6496534 -2.5197248 0.6336714 -0.22169347
0003c0 08 c1 64 bf 6c fc 16 40 d6 a1 73 40 c0 63 d9 bd
       -0.8935704 2.3591566 3.8067527 -0.10614729
0003d0 3a fb 16 40 45 12 3d 40 87 c4 83 bf 5f f0 0a c0
       2.3590837 2.95424 -1.029435 -2.170921
0003e0 9c cf a5 bf 3b 5b 28 c0 2e dc 28 c0 02 19 3c bf
       -1.2953982 -2.6305683 -2.6384387 -0.7347566
0003f0 63 74 6c bd 46 0a 43 c0 1e f9 10 bd bc c8 ac bf
       -0.057728183 -3.047502 -0.035393827 -1.3498759

bias_ih_l0 f4 [128]
000000 4e 4f 3e 40 34 f3 7d 3d 22 2f 04 40 0b da 38 3f
       2.9735904 0.061999515 2.0653768 0.7220771
000010 5f 35 0a c0 a0 6d cd 3f 06 8b 86 3e 3c 89 a5 be
       -2.1595075 1.604908 0.2627794 -0.32331264
000020 ee ec 1b 3e 1e 0d 87 be fc b2 06 40 aa 9c 18 3f
       0.152271 -0.26377195 2.1046743 0.5961405
000030 93 1f 0b 3d 7f 2c 0d 3f dd a1 04 be 84 00 a9 3f
       0.03396566 0.5514602 -0.12952371 1.3203282
000040 10 13 83 40 97 0d de bf 8a 7d e7 bf a7 29 b8 bf
       4.096077 -1.7347897 -1.8085186 -1.4387711
000050 fa 2d 6f 40 5f 1a 2d 40 ec c4 84 3f d5 e9 ac bf
       3.7371812 2.7047346 1.0372596 -1.350886
000060 46 38 5a 40 29 9b ce 3f f4 2c 1d 40 f3 ef 9e 40
       3.4096847 1.6141101 2.4558687 4.9667907
000070 06 71 80 bf a9 37 50 40 b3 50 91 40 cb d3 7b 40
       -1.0034492 3.2533972 4.541101 3.9348018
000080 f0 d1 0f c0 a3 01 31 c0 da 79 3e c0 99 4b 53 bf
       -2.2471886 -2.765725 -2.9761872 -0.8253723
000090 36 43 ae be 5f 04 c7 3d 45 72 9c 3f a1 f7 87 40
       -0.34035653 0.097176306 1.2222372 4.248978
0000a0 2e 65 17 bf bc 20 03 c0 b4 04 12 bf 56 45 8e 40
       -0.5913876 -2.048873 -0.57038426 4.445964
0000b0 b5 10 22 c0 30 45 00 3f d0 be 95 3f da c8 98 bf
       -2.5322697 0.5010557 1.1698856 -1.1936295
0000c0 5e a4 25 3f 37 bf aa 3f 5c 1e af bf 51 f2 89 bf
       0.6470393 1.3339604 -1.368114 -1.0777074
0000d0 11 b6 3b 3f 9f 6f 43 40 4d df 49 3f e0 26 50 c0
       0.73324686 3.0536878 0.78856355 -3.2523727
0000e0 61 73 06 40 d1 1f 97 bf ca 84 3e c0 18 ea 76 40
       2.1007922 -1.1806585 -2.9768548 3.858038
0000f0 db e1 a2 3e 66 39 30 be b1 6c 8e 40 f2 c6 36 bf
       0.3181294 -0.17209396 4.450768 -0.71397316
000100 b0 ba b1 c0 9a aa a7 bf a6 65 6b c0 6a cf 48 c0
       -5.554039 -1.3098938 -3.6780791 -3.1376595
000110 bb 18 3b 3f 47 b9 ce bf 0a fd 1f c0 8e 70 1a 40
       0.7308461 -1.6150292 -2.4998193 2.4131198
000120 f3 4d 5c 40 2f 3d c2 3f f3 93 05 40 7e 90 34 40
       3.4422576 1.5174922 2.087155 2.821319
000130 03 00 cc bf 7d 50 23 c0 09 5c 08 bf a1 9f 2a 40
       -1.5937504 -2.5517876 -0.53265435 2.665993
000140 70 89 64 40 c0 14 c4 3f 3d 3b 86 3f be 45 96 3f
       3.5708885 1.5318832 1.0486828 1.1740034
000150 a0 43 40 40 8d a3 6c 40 f8 70 78 40 6f 14 cc 3f
       3.0041275 3.6974823 3.881895 1.5943736
000160 ed f7 82 40 ad fb 40 be 3a c8 2e be 2d 62 89 40
       4.0927644 -0.18846007 -0.17068568 4.2932343
000170 8f 33 74 3d cc ca da bf 47 82 9f c0 fc 7c 62 40
       0.059619483 -1.7093139 -4.984653 3.5388784
000180 37 cd 71 40 b6 5a 91 be 0a 63 8d 40 21 45 f5 3f
       3.7781503 -0.2838952 4.4183397 1.9161721
000190 c1 d8 9d bf 2c c1 fa 3f fc d5 31 3f 1e 09 9b 3f
       -1.2331773 1.9590201 0.6946714 1.2112157
0001a0 5c 16 0d c0 9a 42 57 bf 72 17 60 40 33 4c 7d 40
       -2.2044897 -0.84086 3.501431 3.9577758
0001b0 b8 1d 1e 40 57 aa 45 40 19 53 04 bf 65 61 0b bf
       2.470564 3.0885217 -0.51689297 -0.5444549
0001c0 95 0f 8a 40 3e 66 9d 3e c4 64 85 40 42 b9 5e 3f
       4.314402 0.30742067 4.1685505 0.8700143
0001d0 ff 2e 1e 40 50 d3 84 40 18 be 2e 40 1d e5 9a bf
       2.4716184 4.150795 2.7303524 -1.210117
0001e0 72 c4 8b 3f 8e 77 c7 bf ce 16 f6 3c 58 3c 96 40
       1.0919325 -1.558336 0.030040171 4.694866
0001f0 cb 5d 9f bf e4 03 d7 be 21 1c b4 40 8e 12 b1 3f
       -1.2450498 -0.41995156 5.6284337 1.3833787

bias_hh_l0 f4 [128]
000000 53 d5 48 40 fb e6 4c 3c 4f 52 06 40 47 8c 54 3f
       3.1380203 0.012506242 2.0987737 0.83026546
000010 8c 46 07 c0 f8 51 d6 3f f3 be 61 3e 67 aa c3 be
       -2.1136808 1.6743765 0.22045498 -0.38215944
000020 d2 58 1e 3e 72 b0 ca be ef f7 ec 3f 94 fe f2 3e
       0.1546357 -0.39587742 1.8513163 0.47459853
000030 d9 a5 33 3d 21 e8 0d 3f 50 cd ad be 28 05 a0 3f
       0.043859337 0.55432326 -0.33945704 1.2501574
000040 21 98 81 40 ad d5 ef bf 41 62 03 c0 0d bf c8 bf
       4.0498204 -1.8737084 -2.052872 -1.5683304
000050 45 a3 77 40 0c e4 26 40 43 b8 92 3f a1 67 94 bf
       3.8693402 2.6076689 1.1462482 -1.1594125
000060 ce 41 60 40 6e d3 c7 3f 38 2b 1b 40 d6 32 a1 40
       3.5040164 1.5611398 2.4245129 5.0374556
000070 7e 6e 6a bf d1 f1 50 40 8f 08 90 40 69 36 72 40
       -0.9157485 3.2647593 4.5010448 3.784571
000080 dd cb 0b c0 9c c0 25 c0 b6 48 36 c0 b5 0d 36 bf
       -2.1843178 -2.589881 -2.848188 -0.71114665
000090 21 ac 65 be 93 a9 c7 bd 5d c8 93 3f 7f b1 89 40
       -0.22428943 -0.097491406 1.1545521 4.302917
0000a0 68 59 1a bf 8e ab 0d c0 a3 dd 0f bf 1b ea 96 40
       -0.60292673 -2.2135959 -0.56197566 4.7160773
0000b0 d2 91 0d c0 fd 1a 10 3f 96 f3 89 3f 29 7a b3 bf
       -2.2120252 0.5629118 1.0777462 -1.4021655
0000c0 86 74 71 3f 29 9b b2 3f ad eb c0 bf 1d ef 8d bf
       0.94318426 1.3953601 -1.5071923 -1.1088597
0000d0 48 64 21 3f bc 09 47 40 ec 55 73 3f 6f 13 65 c0
       0.6304364 3.1099691 0.9505298 -3.5793111
0000e0 dd 70 08 40 0e b1 9d bf 10 a1 35 c0 5c dd 7a 40
       2.1318886 -1.2319658 -2.8379555 3.9197607
0000f0 58 08 5c 3e 74 f6 d2 bb 01 42 88 40 fa 64 38 bf
       0.21487558 -0.006438071 4.258057 -0.7202908
000100 47 4b b1 c0 e4 8d 82 bf 50 37 73 c0 18 5c 44 c0
       -5.540439 -1.0199552 -3.800251 -3.068121
000110 17 85 7f 3f c9 9c c1 bf 51 05 1d c0 83 08 18 40
       0.99812454 -1.5125972 -2.4534495 2.3755195
000120 9e 3b 4a 40 13 af d0 3f 08 22 02 40 7b 66 36 40
       3.1598887 1.6303428 2.033327 2.850005
000130 d0 3b d7 bf d5 d5 2a c0 bb 28 cc be 77 8e 34 40
       -1.6815128 -2.6693013 -0.39874825 2.8211954
000140 f5 be 74 40 36 79 d8 3f 6d a8 3e 3f 72 9d 9c 3f
       3.824155 1.6911991 0.7447575 1.2235548
000150 a5 63 37 40 6d 1b 78 40 67 1c 6d 40 9b 32 b5 3f
       2.8654568 3.876674 3.7048585 1.4156069
000160 65 06 81 40 24 9c ac be aa b4 6e be 30 ac 8a 40
       4.0320306 -0.33712876 -0.23311105 4.333519
000170 dd 64 51 3d 6f 05 d9 bf f7 79 a3 c0 ae 6c 59 40
       0.05112158 -1.6954783 -5.1086383 3.3972583
000180 e2 99 71 40 e8 18 86 be 61 c6 8c 40 f7 0c e3 3f
       3.7750173 -0.26190877 4.399216 1.7738332
000190 cd f4 b4 bf 9b c5 e3 3f 2b 8d 3d 3f 99 c5 86 3f
       -1.4137207 1.7794679 0.7404353 1.0529052
0001a0 b6 9f 14 c0 94 fd 84 bf ef 0a 54 40 30 6a 7d 40
       -2.322248 -1.0389886 3.3131673 3.9596062
0001b0 a8 5d 21 40 2b 20 3c 40 55 eb 0b bf 93 f7 18 bf
       2.5213413 2.9394634 -0.54655963 -0.5975277
0001c0 c1 5e 8d 40 c6 9b 3b 3e 9a 96 7b 40 25 89 51 3f
       4.4178166 0.18321142 3.931067 0.8184989
0001d0 cc 90 18 40 85 be 89 40 f2 ab 20 40 bf f7 9f bf
       2.3838377 4.304507 2.5104947 -1.2497481
0001e0 31 15 72 3f 81 24 e2 bf a7 60 8f 3e 61 f9 98 40
       0.94563586 -1.766739 0.28003427 4.7804418
0001f0 c6 de 9b bf d3 5d fa be 64 74 b3 40 a3 c1 be 3f
       -1.217736 -0.48899707 5.607958 1.4902843

weight_ih_l0_reverse f4 [128, 105]
000000 23 d2 32 3f 83 9b b1 3d c7 5f 87 3d 43 2e 0b c0
       0.69851893 0.0867224 0.06610065 -2.1746986
000010 34 c4 cb be cf 65 3d c0 ea 2e 55 bf 89 5f bb bf
       -0.3979813 -2.959339 -0.8327471 -1.463853
000020 7e ed 15 40 c4 9d 90 3e 08 f9 47 3f 0e 33 81 bf
       2.3426204 0.28245366 0.78114367 -1.0093706
000030 91 c7 68 3f d6 9b 02 40 ee 1d fa 3f 0d b8 06 c0
       0.90929514 2.0407615 1.9540384 -2.1049836
000040 00 ca 25 bf 88 d0 a8 3e e3 8f a5 3b cb 6e a6 3e
       -0.6476135 0.32971597 0.005052553 0.32506403
000050 01 41 2c c0 33 ba 65 be 3b 7c e2 bf e5 ad fb bf
       -2.6914675 -0.2243431 -1.7694162 -1.9662443
000060 d8 7b b5 bf ed 37 11 bf f5 06 6f 3f 99 9c d8 3f
       -1.4178419 -0.5672596 0.9336999 1.692279
000070 d2 6e a8 3f 87 7e c2 bd 4b bc 22 bf 71 a5 d1 bf
       1.315882 -0.094967894 -0.6356856 -1.6378614
000080 fd 9c 37 bf 3c 98 07 3f 32 c6 2f c0 e5 2d ec 3e
       -0.7172392 0.52966666 -2.746472 0.46128765
000090 62 fe 5d 3f 1e 0d 6b c0 24 58 bb 3f 17 56 6e 3e
       0.8671628 -3.6726756 1.4636273 0.23275028
0000a0 18 20 1e c0 e7 91 16 3f 0b 9e 53 bf cf b6 e4 be
       -2.4707088 0.5881638 -0.8266303 -0.44670722
0000b0 ea 8c b5 be 0b ac 94 be df b4 2f c0 5f d6 20 c0
       -0.3545907 -0.29037508 -2.7454145 -2.5130842
0000c0 55 98 87 bf b9 cd 39 c0 12 09 da be c3 41 b8 bf
       -1.0593363 -2.9031813 -0.42585045 -1.4395069
0000d0 5f e9 40 bf 97 52 cc bf 42 d7 e0 bf 8c a2 82 3e
       -0.75356096 -1.5962704 -1.7565691 0.25514638
0000e0 36 c2 67 c0 79 6b df 3e 9e 08 10 c0 c1 a1 69 c0
       -3.6212287 0.43636683 -2.250526 -3.6504977
0000f0 7d 24 ab bf 99 8c 0b 3f 35 cb 00 c0 0d ee 02 3f
       -1.337051 0.5451141 -2.0124028 0.51144487
000100 2b 77 fa bf 19 dd 1c 40 f0 df 8c bd bf b6 4c bf
       -1.9567617 2.4509947 -0.0687865 -0.7996635
000110 8e 19 13 c0 4a 91 d9 3e ac a4 af bf bf 10 7a c0
       -2.2984347 0.4249366 -1.3722129 -3.907272
000120 30 a3 f0 bf 4a be c3 bf 04 cf 6d 3f 28 f0 ac be
       -1.8799801 -1.5292447 0.92894006 -0.33776975
000130 f2 59 73 3f 79 c4 d1 bf 82 f7 1a c0 d0 54 69 bf
       0.9505912 -1.6388084 -2.4213567 -0.9114504
000140 ba a0 15 40 42 6a ac be 45 fb db be 03 8a 59 3c
       2.337935 -0.33674818 -0.4296514 0.013277533
000150 48 68 05 c0 a7 68 f7 bf 2b 01 9d 3e 98 dd 49 3f
       -2.0844898 -1.9328812 0.30664954 0.7885375
000160 51 70 16 bf 1f ca 05 40 d6 13 96 bf 10 4c f9 3f
       -0.5876513 2.0904615 -1.1724803 1.9476337
000170 00 41 ae 3f 8f ed 26 c0 f7 9d d2 be 27 0f 02 bf
       1.3613586 -2.6082494 -0.41136143 -0.5080437
000180 4e 0b 66 bf 8b 9e c7 bf 2d 00 67 bf 56 be 85 3f
       -0.89861 -1.5595258 -0.90234643 1.0448711
000190 01 15 d5 be 7c 9d de 3f 79 00 a0 3f 13 6b 0a 40
       -0.41617587 1.739181 1.2500144 2.1627853
0001a0 cf c9 60 3f d9 3d 37 40 1a af c5 3d 92 29 02 3f
       0.87807935 2.86315 0.096525386 0.5084468
0001b0 b1 c7 91 bf 74 6c dc bf 12 90 0b c0 6c e4 b0 bf
       -1.1389066 -1.7220597 -2.1806684 -1.3819709
0001c0 ea be 29 3e e2 64 57 bf a5 16 1a bf 1b b3 d2 3c
       0.16576734 -0.8413831 -0.601908 0.02572017
0001d0 29 d0 1b 40 35 43 f0 3f a5 b9 b1 3f 47 b5 1f 40
       2.43458 1.877051 1.3884779 2.4954393
0001e0 91 8b 30 c0 9c 91 18 3f 6d 38 a3 3e e9 b2 85 3e
       -2.7585185 0.5959718 0.31878987 0.2611306
0001f0 fe ed 38 3f 92 79 2f 3f be f4 a4 bf 04 38 07 40
       0.7223815 0.68544877 -1.2887189 2.112794
000200 f0 94 24 be 5f ec 33 c0 0b 13 9c bf 00 3d 5f bf
       -0.1607244 -2.811302 -1.2193311 -0.87202454
000210 e2 9b b0 3f f5 6c 3e bf 49 5b 73 3f 13 c1 71 40
       1.3797572 -0.74385005 0.95061165 3.7774093
000220 3f 8e a3 bd d0 2a 8d bf c9 e3 87 3d 74 67 68 c0
       -0.07986116 -1.102869 0.066352434 -3.6313143
000230 3e f2 a1 3f c9 74 4d 3f a6 8d 1d 3f 4f ad 06 40
       1.2652051 0.80256325 0.61544263 2.104328
000240 9c e7 58 40 f5 88 07 c0 bb 55 f5 bd 3c db 01 3f
       3.3891363 -2.1177342 -0.119792424 0.5072515
000250 b2 18 70 3f 32 3a 35 40 e0 db 4f 40 34 9e b2 be
       0.9378768 2.831677 3.247795 -0.34886324
000260 27 e4 86 bf aa 61 35 40 84 7c d6 3f 1d d4 8c 3e
       -1.0538377 2.834086 1.6756749 0.2750558
000270 bd bf c0 3f fb c1 1b bf 5b 99 62 bf 87 f3 96 c0
       1.5058514 -0.60842866 -0.8851525 -4.7172275
000280 49 c7 7d bf c7 2c 95 bf 49 56 94 3f 46 d6 c6 3e
       -0.9913221 -1.165429 1.1588832 0.38835353
000290 da 85 9a bd 2c 5e 2a c0 39 d8 13 3f 62 f3 a6 3e
       -0.075450614 -2.6619978 0.57751805 0.3260756
0002a0 f7 ea 09 3f 46 24 15 40 ad fc c3 3f 5e 15 04 c0
       0.5387415 2.330339 1.5311486 -2.0638041
0002b0 20 5b cf 3f a1 bc 4d be ef e9 c5 3f 08 53 31 3f
       1.6199684 -0.20091487 1.5462016 0.6926732
0002c0 fd 1a f9 3f 2b 63 77 bf 3c 23 2a 40 ff be b2 3f
       1.9461361 -0.96635693 2.6584005 1.3964537
0002d0 ca ae 7d bf 10 63 ab bf 4c 16 04 be 43 25 6e 3f
       -0.9909483 -1.3389606 -0.1289913 0.93025607
0002e0 28 ee 51 40 35 df a0 3f e5 91 f9 bf a2 69 ce bf
       3.280161 1.2568117 -1.9497648 -1.6125987
0002f0 c6 3a 90 bf dc ff 41 40 7e b4 8c 3f 6b 4c f1 be
       -1.1267936 3.0312414 1.0992582 -0.47128615
000300 49 c3 da 3f a4 6b 06 40 f9 a8 91 bf 3c ea 24 40
       1.7090846 2.1003199 -1.1379691 2.5767965
000310 ca 34 f7 3e 2b e5 67 bf 77 55 31 40 b5 68 28 c0
       0.48282462 -0.9058406 2.7708414 -2.6313908
000320 31 6b 3e 3e d8 0d 76 40 4b f6 e2 3f a1 39 8c 3f
       0.18595578 3.844595 1.7731413 1.0955087
000330 54 d0 84 be c4 61 4b be f0 dd d4 be cb 6f 75 3f
       -0.25940192 -0.19861513 -0.41575575 0.9587371
000340 fd 6b 59 3e 6c 1d b9 3e 51 6a 83 3f 5a 2c 04 40
       0.212326 0.3615526 1.026682 2.065207
000350 ac 8a 14 40 ba 75 dd 3f 31 50 17 bf 08 29 b7 bf
       2.3209639 1.7301552 -0.5910674 -1.4309397
000360 09 a9 99 bf 74 8b 03 c0 4b c5 ce 3e cb 79 d7 3f
       -1.200471 -2.0553865 0.40384898 1.6834043
000370 ab 5a 79 3e ea 79 1d bf ba 68 75 bf 38 48 b9 c0
       0.24350993 -0.6151415 -0.95862925 -5.790066
000380 58 a9 a6 bd 10 ed 22 3f bd cd 54 c0 66 18 4c bf
       -0.081377685 0.6364298 -3.3250573 -0.7972473
000390 b4 5b 5a 3e a9 36 74 c0 d4 cb 5b c0 16 b8 f5 3f
       0.21324044 -3.8158362 -3.4343157 1.9196804
0003a0 22 fe 3b 3e 38 35 69 3e 28 c0 5e 40 33 0b ae bf
       0.18358663 0.22774208 3.4804783 -1.3597168
0003b0 7c e3 73 40 1c 73 aa bf b4 b7 ef 3f 70 34 b8 3f
       3.8107595 -1.3316379 1.8727937 1.4391003
0003c0 96 14 08 3f 94 20 d7 3f 76 e5 52 3d 19 02 0f c0
       0.5315641 1.6806817 0.051488362 -2.234503
0003d0 00 e4 c4 bf 8f 05 34 c0 5c da 2b bf c2 3f 3b 3f
       -1.538208 -2.8128393 -0.67130065 0.7314416
0003e0 35 51 26 3f 30 a1 0e 40 42 d7 82 3f 21 41 cc 3f
       0.6496766 2.228588 1.0221941 1.5957376
0003f0 d4 0b ce 3f 54 aa 52 3f 49 56 5d bf 4a 85 b0 3f
       1.609736 0.8229115 -0.86459786 1.3790677

weight_hh_l0_reverse f4 [128, 32]
000000 90 80 00 be 10 b0 6d 3e 3a 11 30 3f 9f 56 8d 3f
       -0.12549043 0.23211694 0.68776286 1.104206
000010 ea 0b 21 3f 0b 2e 54 3f 95 89 1c 40 3e c8 ea bf
       0.62908804 0.82882756 2.4458973 -1.8342359
000020 11 4b d3 bf bd 5a 80 3e 77 0f bd bf 7f 41 84 3f
       -1.6507283 0.25069228 -1.4770344 1.0332488
000030 f6 22 72 3f 03 6f b9 3f b1 36 b8 3d c5 db 32 3f
       0.94584596 1.4487003 0.089948066 0.6986659
000040 c1 1a 68 bf 29 29 cd 3f 81 4f 1c bf 6e b0 73 3e
       -0.90665823 1.6028186 -0.61058813 0.23797771
000050 20 1d 47 3f ea 3c a7 bf 7b bd 06 bf 82 51 52 be
       0.77778816 -1.3065464 -0.52632874 -0.20538905
000060 23 14 22 3f e6 2b b7 3f ff 4e 5a bf 11 5f d7 bf
       0.63311976 1.4310272 -0.8527679 -1.6825887
000070 4a 24 e0 be 5a 11 36 40 a0 e1 9d bf fb bf bc 3e
       -0.43777686 2.844809 -1.233448 0.3686522
000080 9c 13 23 bf 97 89 c2 bf 03 11 88 3f 33 64 aa 3f
       -0.63701797 -1.5198239 1.0630192 1.3311828
000090 8b 07 58 bf a5 69 54 3f 30 2c 29 c0 33 5c 24 3f
       -0.8438651 0.829737 -2.643322 0.64203185
0000a0 5e 95 a3 3f 55 1f 9f 40 af 12 9a 3e d6 48 00 c0
       1.2779958 4.9725747 0.3009238 -2.0044456
0000b0 d1 a0 28 c0 2b 3d 7d 3f 17 41 9f 3f 01 e0 32 40
       -2.6348155 0.9892146 1.2441739 2.794922
0000c0 5e dc 0a bf a6 c1 ea bf ed d5 42 c0 8d 5b 47 3f
       -0.54242504 -1.8340347 -3.044307 0.7787407
0000d0 0e a5 dd 3e 3c 9b 8b bf ad 6e 33 40 51 2a 5f bd
       0.4328999 -1.0906749 2.80363 -0.054483715
0000e0 9b a6 3c 40 09 4c 04 c0 7a 60 2f 3f 16 aa 0a 40
       2.9476688 -2.0671408 0.68506587 2.1666312
0000f0 f6 14 39 40 ca e0 31 40 50 ae cf bf 63 48 1c 3e
       2.8919044 2.779345 -1.6225071 0.15261988
000100 71 cb e7 bf a2 8d 2c c0 d7 18 e3 bf f2 ee 21 c0
       -1.810896 -2.6961446 -1.7741956 -2.530209
000110 f7 09 f9 3f 92 05 6d c0 d6 a3 7f 40 68 3a 5b bf
       1.9456166 -3.703465 3.9943748 -0.85635996
000120 b8 cb a0 bf c3 08 3b 3e 9c 5c 65 bf 2e 94 f6 be
       -1.256217 0.18265061 -0.89594436 -0.48159927
000130 e8 82 07 c0 5e 74 c7 be 47 4e 71 3f 27 a5 a0 be
       -2.117365 -0.3895597 0.94260067 -0.31376
000140 27 f8 11 40 a1 87 fe 3f 77 2b 2e 3f 11 6f d0 40
       2.280771 1.9885141 0.6803507 6.513558
000150 2b c3 8c 40 1f 18 22 3f ac 55 b4 bf d7 33 25 c0
       4.398824 0.63318056 -1.4088645 -2.581289
000160 c7 67 f0 3e 3c 43 2d c0 e1 e8 5c 40 c8 6b 46 c0
       0.46954176 -2.7072287 3.4517138 -3.1003284
000170 7b d2 8c bf 55 e2 c6 be 92 10 a1 bf 71 ae 28 be
       -1.1001734 -0.38844553 -1.2583182 -0.16472794
000180 8e 72 8c bf a0 dc 99 bf 14 e0 04 bf 6e c6 0e 3f
       -1.0972459 -1.2020454 -0.51904416 0.5577153
000190 05 2b 49 c0 a1 85 db be 8b 8b 9a bf e4 67 7e 3f
       -3.1432507 -0.42875388 -1.2073835 0.99377275
0001a0 a5 dd 05 c0 45 23 78 3e 86 8b 9a be 1a b7 85 3f
       -2.091653 0.24232204 -0.30184573 1.0446503
0001b0 5d 16 14 3f 59 b2 78 3f b9 85 31 c0 2e a2 25 3f
       0.57846624 0.97147137 -2.7737868 0.6470059
0001c0 74 05 9a bf 2d 04 d4 3d fa a2 68 3f f3 33 af be
       -1.2032914 0.10352359 0.9087368 -0.34219322
0001d0 e0 6d a9 be 99 eb 62 3f 70 66 54 be 3a dc 10 3f
       -0.3309164 0.88640743 -0.20742202 0.5658604
0001e0 61 c6 42 3f 58 3b ff 3f 96 08 b4 bf be a3 10 40
       0.7608395 1.9939985 -1.406512 2.259994
0001f0 09 52 30 3f 45 4d 25 3f 97 de ac bf 78 5b 89 bd
       0.68875176 0.6457103 -1.3505429 -0.067068994
000200 83 89 84 bf 6e 58 b2 bf ed fc 05 c0 12 f8 cf bf
       -1.0354465 -1.3933237 -2.0935624 -1.624758
000210 ad 45 dc 3f 3a 4d 23 bf 41 48 d7 bc c9 f3 58 bf
       1.7208763 -0.63789713 -0.02627957 -0.84746987
000220 05 0d e5 3d 0c 6a ed bf b7 66 e3 3f a5 82 bb bf
       0.11184124 -1.8547988 1.7765721 -1.4649245
000230 ce be ab 3f d7 83 47 3d d5 5a e1 bf e8 df bd bf
       1.3417604 0.048709717 -1.7605845 -1.4833956
000240 c2 c7 dc bf 78 16 50 c0 4f 8a 31 bf 76 51 4b c0
       -1.7248461 -3.2513714 -0.6935167 -3.176847
000250 93 7d 09 c0 89 68 da bd 84 57 ed be fa 60 7f bd
       -2.1482894 -0.1066447 -0.46355832 -0.062348343
000260 5d 1c 93 c0 0a bd 39 40 ac b0 fd be 44 eb 1b c0
       -4.5972123 2.902163 -0.49548852 -2.4362345
000270 f8 f5 61 3f 59 cb 0b c0 fe 61 b4 3e 8a 7d 3b 40
       0.88265944 -2.1842864 0.35231012 2.9295373
000280 f0 50 26 bd e7 c5 38 40 c7 71 ae 3f fc 27 28 3f
       -0.04060453 2.887079 1.3628472 0.6568601
000290 51 4a 86 c0 23 a2 e4 3f 6d 54 cc bf 8f dd ba 3f
       -4.196572 1.786198 -1.5963265 1.4598864
0002a0 74 fd b0 bf ff aa 92 3f 97 0d aa bf 96 50 72 ba
       -1.3827348 1.1458434 -1.3285397 -0.00092435756
0002b0 15 8d fc 3f c2 1c 89 3e 23 a8 15 c0 b9 4f 43 bf
       1.9730555 0.26779753 -2.3383873 -0.7629352
0002c0 d1 cc 47 40 f9 c7 35 bf 09 24 1c bf 6b 85 e3 be
       3.121876 -0.7100826 -0.60992485 -0.44437727
0002d0 e4 04 21 40 f2 31 a3 c0 7b ac 17 3f 0e 1d 2c 40
       2.5159235 -5.099847 0.5924756 2.6892734
0002e0 fc e2 14 40 90 38 f2 bc c1 55 2f c0 06 4a 61 40
       2.326354 -0.029567987 -2.739609 3.520143
0002f0 86 c2 c2 3f 36 b0 d7 bf 67 0c ef bf e6 14 ce be
       1.5215614 -1.685065 -1.867566 -0.4025032
000300 ba 2d 9f bf 80 39 c8 3e db 39 e8 3f 38 db 93 3e
       -1.243583 0.3910637 1.8142656 0.28878188
000310 7d 63 fb bf 62 50 02 bf 55 14 f2 bf 41 43 d6 3f
       -1.9639736 -0.50903904 -1.8912455 1.6739274
000320 39 e3 ce bf f9 19 55 40 44 80 11 bf 54 d3 3f 3f
       -1.6163093 3.3297102 -0.5683634 0.74931836
000330 aa 04 db 3f 36 d0 39 bf 6d 90 87 be 44 dc 11 40
       1.7110798 -0.7258333 -0.26477376 2.279069
000340 b2 8a 0b c0 03 f0 d7 3d 05 ce 39 be 48 83 97 bd
       -2.1803403 0.105438255 -0.18144996 -0.07398087
000350 dd cc e5 3f e5 39 3d c0 7c 16 70 3f 42 67 39 40
       1.7953144 -2.9566586 0.9378431 2.8969274
000360 0a 24 39 3f 5d d5 ce 3f eb c8 4f c0 af 77 bd bd
       0.72320616 1.6158863 -3.246638 -0.092513435
000370 44 54 9c 3e 20 0f 6e 3f c1 98 fd bf ca 86 ea bf
       0.3053304 0.9299183 -1.9812242 -1.8322384
000380 d5 36 5b bf 33 b7 ac 3f a6 a5 2c 40 9f 47 a8 3f
       -0.8563054 1.3493408 2.6976104 1.3146857
000390 5d 09 05 c0 80 d3 2c 40 a3 12 bb bf 64 a8 2d 40
       -2.0786965 2.700409 -1.4615062 2.7134027
0003a0 23 58 02 c0 64 dc 5f 40 61 cd ed 3e d5 d3 3f bf
       -2.0366294 3.4978266 0.46445754 -0.74932605
0003b0 b1 71 c6 be 30 21 47 40 84 ef b6 3f cd ba b7 3f
       -0.38758615 3.1114006 1.4291844 1.4353882
0003c0 bc c3 5e bf 92 99 5c c0 29 b6 c5 be e3 b9 be be
       -0.87017417 -3.4468732 -0.3861554 -0.37251195
0003d0 24 3e 4b 3f 88 17 21 c0 c9 b8 79 40 8a a1 c2 3f
       0.79391694 -2.5170612 3.9019034 1.5205548
0003e0 81 58 65 3f 16 fb 04 40 24 23 9c bf 1f a7 58 40
       0.8958817 2.077825 -1.2198224 3.3852003
0003f0 f6 cb 91 40 e1 70 5a 40 f8 a8 0f c0 72 b9 2b bf
       4.5561476 3.4131396 -2.244688 -0.6707984

bias_ih_l0_reverse f4 [128]
000000 8e c3 2f 3f 7b 85 83 40 61 48 45 c0 af 2e 8f 3f
       0.6865777 4.110044 -3.0825427 1.1186122
000010 f7 9c dc 3e 32 06 0c 40 96 7f 8f 3f a8 46 89 40
       0.43088505 2.1878781 1.1210811 4.289875
000020 a3 71 bc bf 9c be ae 3e 2e d0 79 3c fe 31 9c bf
       -1.4722179 0.34129798 0.015247388 -1.2202756
000030 63 25 22 3f 4e b2 be 3f ff f0 c6 bf b9 37 fe 3f
       0.633383 1.4898164 -1.5542296 1.9860755
000040 9e 33 61 bf 81 59 9c 3f 57 16 84 3f f3 72 8d 3f
       -0.87969387 1.2214814 1.0319318 1.1050705
000050 b6 31 44 c0 4f e1 cd 3f 7b a4 38 40 5e ff 72 bf
       -3.065534 1.6084384 2.885039 -0.9492091
000060 01 28 01 40 12 a4 25 c0 c0 f8 06 c0 df 89 cc 3f
       2.0180666 -2.588139 -2.1089325 1.5979575
000070 35 4b 3a 40 e0 49 01 40 6c c4 b2 3f 6b 5d 0f 40
       2.9108403 2.020134 1.3966193 2.2400768
000080 fd 45 91 40 60 da a0 40 34 5a 11 40 c7 ba 5d 40
       4.5397935 5.026657 2.2711306 3.464525
000090 f8 ff 11 3f 75 51 21 c0 1d 25 42 bf 56 3c 86 40
       0.570312 -2.5205967 -0.7583788 4.194865
0000a0 3c 61 66 bf 11 4d 5b bf fc f9 e7 bf b7 d6 cf bf
       -0.8999212 -0.8566447 -1.8123164 -1.6237401
0000b0 ea 6c 5a bf ab 56 70 bc 44 44 4d bf f6 b4 da bf
       -0.8532244 -0.014669101 -0.8018229 -1.7086475
0000c0 f9 68 17 40 8f 81 3c 40 7d 07 cd bf 89 ca 25 3f
       2.365782 2.9454076 -1.601791 0.6476217
0000d0 b9 2a d5 bf 46 51 9f 3f 3c f8 f6 3f 87 4b 1c 40
       -1.6653663 1.2446678 1.9294505 2.4421098
0000e0 de 20 96 bf 36 e3 c8 bf ca d4 0f 40 9a b5 4e 3e
       -1.172878 -1.5694339 2.2473626 0.20186463
0000f0 67 26 96 40 34 12 c8 bf 26 b1 11 c0 f4 22 33 40
       4.692188 -1.5630555 -2.2764373 2.7990084
000100 cb 5a 80 bf 53 06 d8 bf 3d 59 99 3f 92 28 bc 3f
       -1.0027708 -1.687693 1.1980358 1.4699881
000110 2f 34 0a c0 67 89 29 40 9a 36 00 c0 d0 8a a2 40
       -2.159435 2.6490114 -2.0033326 5.079445
000120 e3 d4 f3 bf b0 b6 a8 bf 6b 9e 2f 40 a8 b3 b5 3f
       -1.9049343 -1.3180752 2.744044 1.4195452
000130 24 e4 0b 40 a8 84 8a 40 1b 71 c9 be 62 65 22 c0
       2.1857996 4.3286934 -0.39344105 -2.537438
000140 0a 6b 61 bf 14 21 4c c0 37 0b 2d 3e c0 19 53 40
       -0.88053954 -3.189519 0.1689881 3.2984467
000150 e8 7d da 3f 36 7b a6 bf f1 77 1c 40 7f 2b 3d 3f
       1.7069674 -1.3006351 2.4448206 0.73894495
000160 a1 b0 05 40 60 d6 03 40 19 55 33 c0 57 95 80 40
       2.0889056 2.0599594 -2.802069 4.01823
000170 5e 73 00 40 d5 f9 c4 3f 4c 6b 01 3f e6 91 37 c0
       2.0070415 1.5388743 0.5055435 -2.86828
000180 2b 87 51 3f b5 47 65 40 b5 0a 83 bf a8 41 21 40
       0.81846875 3.5825016 -1.0237643 2.5196323
000190 55 7a 08 40 d0 01 08 bf 96 d4 27 40 7c 7f a8 40
       2.1324666 -0.53127766 2.6223502 5.265562
0001a0 5f 6c 52 3e aa 54 9a bf 03 8d 8e 40 d9 6f b1 3e
       0.20549153 -1.2057087 4.4547133 0.34655645
0001b0 cf 10 a2 3f 4d 92 66 40 d3 99 49 bf ad 94 56 3f
       1.266138 3.6026795 -0.7875034 0.8382061
0001c0 8b a9 0a bf d9 95 76 3f f5 6b b7 bf 24 a0 38 40
       -0.5416495 0.963224 -1.4329821 2.8847742
0001d0 23 83 dc be 94 3d 34 bf 84 da 61 3f 65 64 fd bf
       -0.430688 -0.7040646 0.88224053 -1.9796263
0001e0 4e 32 5b 3f 5e 72 bb bf 31 bc 55 be 1a 21 12 40
       0.85623634 -1.4644277 -0.2087257 2.2832704
0001f0 ac 37 e7 3f 9b 12 5c 3f 68 b9 d8 be c3 a1 b8 be
       1.8063865 0.8596589 -0.42328954 -0.36060914

bias_hh_l0_reverse f4 [128]
000000 6d a2 11 3f 23 9a 80 40 e2 0e 44 c0 b1 09 86 3f
       0.5688847 4.0188155 -3.0634084 1.0471708
000010 30 9e 37 3e 2a e2 02 40 fe df 8a 3f a1 5d 85 40
       0.17931437 2.045054 1.0849607 4.1676793
000020 e0 c3 b6 bf 1f 52 fa 3e cf 86 df bd af cd 86 bf
       -1.4278526 0.48890778 -0.109143846 -1.053152
000030 63 f0 4f 3f db 07 aa 3f 0c 57 b0 bf 88 52 01 40
       0.81226176 1.3283647 -1.3776565 2.0206623
000040 4f 42 86 bf a9 5f 7a 3f a4 40 88 3f 47 94 76 3f
       -1.0488986 0.97802216 1.0644727 0.96320003
000050 f7 3a 50 c0 20 5f ce 3f ce 06 44 40 07 41 50 bf
       -3.253599 1.612278 3.0629153 -0.81349224
000060 e2 ef 01 40 4a f5 22 c0 c2 cf 04 c0 d3 9e c6 3f
       2.0302663 -2.5462213 -2.0751805 1.5517219
000070 eb 00 3e 40 b1 1e 00 40 7d 4b be 3f c9 f3 17 40
       2.968806 2.0018733 1.4866787 2.3742545
000080 ad ee 8f 40 21 6d 9a 40 a8 11 0c 40 d8 22 5b 40
       4.497885 4.8258214 2.1885777 3.4240017
000090 24 40 48 3f 2c 73 22 c0 05 f8 03 bf b4 d9 80 40
       0.7822287 -2.5382795 -0.5155032 4.026575
0000a0 a6 8b 35 bf 3e f0 83 bf 06 d3 c8 bf 2d 92 c2 bf
       -0.7091621 -1.0307691 -1.5689399 -1.5200859
0000b0 91 99 4f bf 34 6d 8c 3e c9 09 27 bf 44 37 d1 bf
       -0.810937 0.27427065 -0.65249306 -1.6344991
0000c0 92 36 18 40 a7 28 45 40 a9 f9 cc bf ea 38 d3 3e
       2.3783307 3.0806062 -1.601369 0.4125436
0000d0 c3 7e c4 bf 89 d0 7a 3f 48 1a d8 3f 43 bd 1b 40
       -1.5351185 0.9797445 1.688302 2.4334266
0000e0 da cb b0 bf 9f 06 d2 bf b9 e1 0b 40 1b 86 5e 3e
       -1.381221 -1.6408271 2.185652 0.21730845
0000f0 90 e0 96 40 05 a6 d3 bf 57 60 04 c0 fa 96 38 40
       4.7149124 -1.653504 -2.06838 2.8842149
000100 66 e3 93 bf 6b 7b c3 bf e7 cd 96 3f 4e 25 db 3f
       -1.1553771 -1.5272039 1.1781586 1.712076
000110 d5 14 04 c0 95 de 31 40 c3 3d f2 bf f3 38 a3 40
       -2.0637715 2.7792103 -1.8925098 5.100702
000120 b0 52 08 c0 17 a6 a3 bf 1e 8d 3b 40 2b d6 d9 3f
       -2.1300468 -1.2785062 2.930488 1.7018484
000130 cd 99 f3 3f 15 e7 83 40 9e 32 f6 be ce 92 25 c0
       1.9031311 4.1219583 -0.48085493 -2.5870852
000140 47 18 42 bf 12 34 47 c0 0c 7e ad 3e 7e 97 49 40
       -0.75818294 -3.1125531 0.3388523 3.1498713
000150 3c 99 d0 3f fe 1e c1 bf b0 ea 13 40 67 e0 2a 3f
       1.6296763 -1.5087583 2.3111992 0.6674866
000160 4f 74 01 40 3d bc 0c 40 49 cd 3a c0 51 74 7a 40
       2.022724 2.1989892 -2.9187796 3.9133494
000170 72 9b 0d 40 02 cb db 3f c2 9f ed 3e 51 d4 2c c0
       2.2126126 1.7171328 0.46410948 -2.7004588
000180 3a d6 62 3f cb b0 67 40 05 2a 93 bf 7c 27 23 40
       0.88608134 3.6201656 -1.1497198 2.549285
000190 ae bd 0a 40 81 56 a6 be d7 2e 1f 40 d3 f7 ab 40
       2.1678271 -0.32487872 2.4872339 5.374002
0001a0 cc b1 05 3e 21 6d 9b bf 21 a2 8b 40 5f 5e aa 3e
       0.13056105 -1.2142678 4.363541 0.33275124
0001b0 47 40 93 3f 29 57 64 40 e3 1b 4a bf 5c cb 31 3f
       1.1503991 3.5678198 -0.789488 0.69450927
0001c0 31 13 1a bf cf 56 38 3f e7 1e b2 bf b4 1c 3f 40
       -0.60185534 0.7200746 -1.3915681 2.986127
0001d0 9c 1c 04 bf 5b eb 75 bf c7 7a 92 3f ce 77 00 c0
       -0.51606154 -0.9606225 1.1443719 -2.0073123
0001e0 96 9f 35 3f 22 62 dc bf 41 36 58 be 1b fe 0e 40
       0.70946634 -1.7217448 -0.21114446 2.2342594
0001f0 15 42 ec 3f 8f ae 6a 3f de 48 0e bf 6c 3a 76 be
       1.8457667 0.91672605 -0.55579937 -0.24045724

weight_ih_l1 f4 [128, 64]
000000 17 d4 e8 bf 6d 12 e1 3f 7f c9 5e 3f 83 36 21 bf
       -1.8189725 1.7583748 0.8702621 -0.62973803
000010 92 d7 d5 3f d5 f4 f2 bf b6 36 63 3f 38 33 b3 3f
       1.6706412 -1.8980967 0.8875536 1.4000006
000020 54 29 ae 40 f2 5a b7 bf 9b 42 a3 3d 52 23 92 40
       5.442545 -1.4324629 0.07971688 4.5668116
000030 ff 39 f6 3f aa 95 24 3f c2 58 83 c0 73 fb 90 be
       1.9236449 0.6429087 -4.1045847 -0.2831684
000040 a9 91 01 c0 85 ca 28 40 72 da 45 bf bf 2d bf 3d
       -2.0245154 2.6373608 -0.77286446 0.09334897
000050 28 9d 9e 40 cc 57 39 40 d0 dc 32 40 62 09 92 c0
       4.956684 2.8959837 2.7947273 -4.5636454
000060 f8 1a 41 3c a1 81 78 40 bf 7e 3a 3f d8 38 2d 40
       0.011786215 3.882912 0.7284965 2.7065945
000070 0c 38 3c 40 dd 02 d8 be f7 a9 d8 bf 0b f5 69 3f
       2.9409208 -0.42189685 -1.6926869 0.9138953
000080 7a 67 0b 40 c1 2b ff bf c0 46 25 c0 4b 9e 82 40
       2.1781907 -1.9935228 -2.5824432 4.081823
000090 a3 b3 47 c0 7b ec 5b bf 4a 28 96 3f 54 d4 43 c0
       -3.1203392 -0.85907716 1.1731045 -3.0598345
0000a0 42 6a b1 bd ae e6 5b 3f d8 3a f6 3f 0e 27 6a 40
       -0.08662845 0.85898864 1.9236708 3.6586337
0000b0 d7 ab d2 be 86 12 02 c0 19 c4 03 c0 2c 5f a0 c0
       -0.41146728 -2.0323806 -2.0588439 -5.0116177
0000c0 f3 cd 58 bf 96 af 38 c0 2e ac 84 c0 17 e8 f6 3f
       -0.84689254 -2.885717 -4.146018 1.9289578
0000d0 8a 8a 8f 40 99 6c bd 40 a6 c9 27 40 e9 31 02 c0
       4.4856615 5.9195065 2.6216826 -2.0342963
0000e0 3b 82 ba 3f 27 f3 32 c0 0d b7 2e 3f 8c 80 21 3f
       1.4570993 -2.7960908 0.68248063 0.6308677
0000f0 0c 5f a9 bf 11 d3 b8 bf a1 20 b5 bf eb d4 25 40
       -1.3232131 -1.4439412 -1.4150583 2.5911205
000100 84 1b 1c c0 e5 44 48 bf 35 0b e4 bf b0 75 f1 3c
       -2.4391794 -0.78230125 -1.781592 0.029475063
000110 df 9d 19 40 49 bc ba bf f5 b8 67 3f 54 1f 26 40
       2.4002607 -1.458871 0.905166 2.595662
000120 77 b2 34 40 0f ba 12 bf 66 ed a7 3e e5 7b 28 40
       2.8233926 -0.5731515 0.32798308 2.632562
000130 73 63 df 3f e6 99 83 bf 57 e8 c2 3f c8 c2 82 40
       1.7452224 -1.0281341 1.5227154 4.086277
000140 c1 13 b8 3f c7 41 94 3e 63 56 69 40 36 c9 9b bf
       1.4381028 0.28956434 3.6458976 -1.217078
000150 5c 98 03 40 6c 45 1c 3f 83 a7 22 c0 5d 2f be 3f
       2.0561743 0.6104343 -2.541474 1.4858204
000160 61 5c ef 3e a7 30 8b c0 aa 80 06 3f d0 a4 04 40
       0.46750167 -4.349689 0.52540076 2.0725594
000170 26 f6 9a 40 0a 49 d6 3f 19 74 ad c0 0a ed e8 3f
       4.8425474 1.674104 -5.420422 1.8197339
000180 3c f2 2c c0 30 7f 37 40 c7 f5 73 40 b1 86 3f bf
       -2.7022848 2.867138 3.811876 -0.748149
000190 ab 44 54 40 b9 49 fe bf 22 12 87 be ce cf be be
       3.3166912 -1.9866248 -0.26381022 -0.37267917
0001a0 af 49 f8 bf 28 45 86 3f 03 e2 fc 3f 23 53 f3 3f
       -1.9397486 1.0489855 1.9756473 1.9009746
0001b0 d3 12 5c b9 56 84 59 3f 4a c2 1d 40 a6 21 82 3f
       -0.00020987848 0.84967554 2.4649835 1.0166519
0001c0 d3 9a 95 be f1 2e 0c c0 09 a1 2c bf ea 9d 0a 40
       -0.29219684 -2.190365 -0.6743322 2.1658883
0001d0 5a 1e d7 3f e4 ed 28 c0 d8 12 7d 40 97 99 38 3f
       1.6806138 -2.6395197 3.9542751 0.7210936
0001e0 1e e3 02 40 52 a8 f8 3e 4d 8e 18 c0 b2 e4 00 40
       2.0451121 0.48565918 -2.3836854 2.0139585
0001f0 58 43 69 bd 3a ba 2b c0 c9 dd f9 bf c9 61 60 bf
       -0.05694899 -2.6832414 -1.9520808 -0.8764921
000200 b5 30 f5 be f2 83 4f bf ca 8f 31 be 2e 0a 2c bf
       -0.47888723 -0.8106071 -0.17340007 -0.6720303
000210 95 50 38 40 31 33 0a 3f 9d 58 41 c0 7d dd 4f bf
       2.8799183 0.5398436 -3.0210335 -0.8119734
000220 fb 36 1b 40 18 6e 63 3f cc ab fc be c1 76 dc be
       2.4252307 0.88839865 -0.4934982 -0.43059352
000230 2b ec a8 3d d7 00 11 c0 31 ad b7 bf 1c 4b 17 3e
       0.082481705 -2.2656763 -1.4349729 0.14774746
000240 ca 60 01 40 93 28 77 3f 8b 53 91 bf 5c 3c 03 40
       2.0215325 0.96546286 -1.135362 2.050559
000250 04 e9 0a bf 95 60 65 be 5c 6f 62 c0 73 53 fc bf
       -0.54261804 -0.22400124 -3.5380468 -1.9712967
000260 65 76 3f 3f 4d eb 0a bc 1d fc f7 bf 52 25 04 bf
       0.7479003 -0.008478952 -1.9373814 -0.51619446
000270 54 31 3f 40 c8 e8 9a bf 37 f2 6c c0 c3 95 9d 3f
       2.9873857 -1.2102289 -3.7022836 1.2311329
000280 f0 88 3a c0 a9 b6 21 bf fb 13 2b 40 dd 32 f0 3f
       -2.914608 -0.6316934 2.6730945 1.8765522
000290 a0 82 5d c0 05 3c 80 bf d7 71 80 40 ba d5 cb 3f
       -3.4610977 -1.0018317 4.0138965 1.5924599
0002a0 4a e1 08 3f 9f 3b d3 3f 05 66 7f 3f 0f 95 bf 3f
       0.53468764 1.650257 0.99765044 1.4967364
0002b0 23 14 a1 3f 89 df 25 40 54 02 c6 3f cc aa 3c bf
       1.258427 2.5917685 1.546946 -0.73698115
0002c0 94 27 58 c0 ed ea 05 c0 1a d0 e5 bf b1 d1 aa 3f
       -3.3774157 -2.0924637 -1.7954133 1.3345243
0002d0 d1 fe 89 40 5e 7f 22 c0 19 4c 41 40 92 d7 66 40
       4.3123555 -2.5390239 3.0202696 3.6069074
0002e0 34 8e 0b 40 04 0c 85 be f2 36 31 c0 82 76 75 40
       2.1805544 -0.2598573 -2.7689786 3.8353581
0002f0 8c 5f bb 3e 80 af 81 bf a8 1a 4b 3f 7f 54 ab bf
       0.36596334 -1.0131683 0.7933755 -1.3385161
000300 84 d6 dd bf bd 96 2f c0 e2 9b 72 3e e4 22 16 bf
       -1.733109 -2.7435753 0.23692277 -0.5864699
000310 92 df b4 bf 62 39 13 40 5d d5 6f 3f b7 fc 91 3f
       -1.4130728 2.3003774 0.9368494 1.1405247
000320 ca 85 d8 bf 54 77 4b 3f 38 12 72 bf 7e f6 43 40
       -1.6915829 0.79478955 -0.9455905 3.0619197
000330 f5 8c 66 40 c6 44 13 3f 46 cd eb bf 2c 52 4c 3f
       3.6023533 0.57526815 -1.842202 0.79812884
000340 8c ce 02 40 97 90 5b bf 80 41 60 3f 6f 5f d2 bf
       2.0438566 -0.857675 0.87599945 -1.6435374
000350 c8 b8 05 40 6e df 7a bf 3e 19 91 40 1d a1 f1 3f
       2.0894032 -0.97997177 4.5343313 1.8877293
000360 7a 3c b4 3f b4 f2 bc bf 7f 97 af be d9 30 92 40
       1.4080956 -1.4761567 -0.3429527 4.568463
000370 ac b7 b4 3e 2e 67 e9 bf 51 45 8f c0 39 c0 98 bf
       0.3529638 -1.8234613 -4.4772115 -1.1933662
000380 33 d2 7c 3e f8 ee 41 40 8c 6b 8e 3f 3b d8 51 40
       0.2468956 3.0302105 1.1126571 3.2788227
000390 ed 2c 55 bf b1 60 9d 3f 47 7b 16 c0 9d 7f a8 3f
       -0.83271676 1.2295133 -2.3512743 1.3163944
0003a0 79 1c 96 bf df e4 31 be 30 de a5 bf e3 14 02 bf
       -1.1727439 -0.17372464 -1.2958431 -0.5081312
0003b0 5f 76 a0 bf 79 40 59 3f 2b 15 f0 be d1 57 b4 bd
       -1.2536124 0.84864 -0.4689115 -0.08805812
0003c0 f6 b2 12 40 0f 8e 52 c0 d7 cd ae be d4 2a fd 3f
       2.292173 -3.2899206 -0.34141418 1.9778695
0003d0 ac 7f 16 40 a0 83 a5 3f f3 40 de 3f 98 3f 09 40
       2.3515425 1.2930794 1.7363571 2.1445065
0003e0 6e 77 4a 40 fb 44 7c 3e c5 61 22 3f f3 49 4d 40
       3.1635394 0.24635689 0.63430434 3.2076385
0003f0 aa 67 a7 40 7e c9 41 40 62 e7 a3 c0 9f 81 d9 bc
       5.2314043 3.027923 -5.121995 -0.026551066
