result/model-morp-sum/model.pt (torch_old, 269056 bytes, 21 tensors)

weight f4 [32, 4]
-1.5255959 -0.7502318 -0.6539809 -1.6094848 -0.10178555 -0.61268985 -0.9741681 -1.6112928
-0.7069903 0.3096168 -0.7715561 -0.24586272 -0.2270335 1.6824353 0.2236251 0.46187392
-0.691333 -1.1637995 0.70466197 0.1934858 0.8603417 0.24440593 -0.6589839 0.81299776
1.1076727 -0.17251894 -2.2399485 -1.4522225 0.06645648 -0.62356293 -0.7952463 -0.12979193
1.8837619 -0.069457464 0.16165105 -0.7677659 0.20435692 0.046334103 0.15837441 -0.47048962
-0.11101983 0.29273525 -0.15784515 -0.02878714 2.357111 -1.0373387 1.5747981 -0.6298472
-0.9273917 0.5451415 0.06628026 -0.43704012 0.7626006 0.44151092 1.1651385 2.0153918
0.13741246 0.9386447 -0.18600109 -0.6446393 1.5392458 -0.8695876 -3.3311536 -0.74787223
-0.025502462 -1.0233306 -0.59618515 -1.0055307 -0.2106063 -0.0075475276 1.6734272 0.010342831
-0.70395666 -0.1852658 -0.9962351 -0.83125526 -0.46102202 -0.56008244 0.39557618 -0.9822771
-0.5064866 0.099775404 -0.6539734 0.7316937 -1.4343859 -0.50081307 0.17163314 -0.15999313
0.2546335 -0.5019573 -1.0412 0.7322672 -1.0483401 -0.4708772 0.29113635 1.9907043
0.6614453 1.1899205 0.8165339 -0.9135236 1.3851457 -0.81384623 -0.92757654 1.1119633
1.3352057 0.6042736 -0.10344208 -0.15121692 -2.102083 -0.62002194 -1.478231 -1.1334175
0.8737963 -0.5602594 1.2857845 0.81682384 0.2053041 0.30510718 0.535687 -0.431185
2.5581384 -0.23336388 -0.01347213 1.8606348 -1.9804063 1.7985829 0.10181159 0.340006
00000000: ba46 c3bf 310f 40bf 4b6b 27bf 9903 cebf
00000010: f174 d0bd 3ed9 1cbf 1563 79bf d83e cebf
00000020: 51fd 34bf 1886 9e3e b384 45bf 70c3 7bbe
00000030: 787b 68be 0a5a d73f fafd 643e bd7a ec3e
00000040: 33fb 30bf 62f7 94bf ba64 343f 2421 463e
00000050: 5b3f 5c3f 8c45 7a3e 2bb3 28bf 9f20 503f
00000060: 38c8 8d3f cea8 30be 515b 0fc0 6de2 b9bf
00000070: 561a 883d d2a1 1fbf 4395 4bbf 2de8 04be
00000080: 1c1f f13f b73f 8ebd da87 253e 4e8c 44bf
00000090: f142 513e d4c8 3d3d e72c 223e 04e4 f0be
000000a0: 5d5e e3bd 65e1 953e 29a2 21be 02d3 ebbc
000000b0: e8da 1640 84c7 84bf fc92 c93f ab3d 21bf
000000c0: 8b69 6dbf 658e 0b3f f2bd 873d b9c3 dfbe
000000d0: cb39 433f b80d e23e 4223 953f 2efc 0040
000000e0: dab5 0c3e 054b 703f 1277 3ebe 1507 25bf
000000f0: 0206 c53f 4b9d 5ebf 9f31 55c0 8e74 3fbf
00000100: 8aea d0bc 7ffc 82bf 979f 18bf 3bb5 80bf
00000110: 2ea9 57be 4051 f7bb dd32 d63f fa74 293c
00000120: 8136 34bf 51b6 3dbe 4309 7fbf 25cd 54bf
00000130: 140b ecbe 9061 0fbf f688 ca3e 8376 7bbf
00000140: 1ba9 01bf 0c57 cc3d cd6a 27bf 4750 3b3f
00000150: f599 b7bf 4935 00bf 99c0 2f3e 3dd5 23be
00000160: 525f 823e 4680 00bf 0b46 85bf dd75 3b3f
00000170: 0230 86bf d116 f1be d30f 953e 66cf fe3f
00000180: 7b54 293f 514f 983f 5e08 513f afdc 69bf
00000190: 744c b13f 3a58 50bf a875 6dbf d054 8e3f
000001a0: 05e8 aa3f adb1 1a3f 71d9 d3bd 9cd8 1abe
000001b0: 8788 06c0 c2b9 1ebf ac36 bdbf d313 91bf
000001c0: 1db1 5f3f 296d 0fbf 9694 a43f 5e1b 513f
000001d0: 3d3b 523e 0237 9c3e c922 093f 48c4 dcbe
000001e0: 8ab8 2340 f1f6 6ebe 35ba 5cbc 4829 ee3f
000001f0: f47d fdbf f737 e63f 9882 d03d 4415 ae3e

weight_ih_l0 f4 [128, 105]
0.09683827 0.15922822 -0.11108754 0.033131614 0.14693399 0.120282225 0.11573714 0.13151176
0.10593395 0.039906498 -0.11739752 -0.14331408 -0.07787814 -0.014698389 -0.10604103 0.070523486
0.048862245 -0.034153096 0.07101486 0.063128956 0.11363569 0.113173075 -0.054083493 0.17869256
-0.023416433 -0.00087034464 -0.16126837 -0.10801257 -0.09812814 -0.069705054 0.1205398 -0.054251414
-0.12626673 0.073866494 0.059896246 0.10866516 -0.09703852 0.03421663 -0.07024483 -0.03527222
-0.14186496 -0.07952091 -0.05554835 0.08141066 0.031600617 0.037803665 0.17050576 0.1683662
0.12632681 0.011210746 -0.119639486 0.14325371 -0.049992837 -0.008397121 -0.1466294 -0.04070371
-0.1150317 0.15751009 -0.15854773 -0.13214621 -0.003140815 -0.09616289 0.058374062 -0.062391546
-0.08109747 0.00479952 0.1288917 -0.11948979 0.07711431 0.119155705 0.17866075 -0.12943912
0.04857767 -0.1363439 0.156855 -0.063172765 0.10751885 -0.0002728437 -0.007989858 -0.010782756
0.025829624 0.0782291 0.03364918 0.059869774 -0.1601714 0.13362432 0.1581261 0.14626375
0.12500961 -0.1239799 -0.07032753 0.1501945 -0.14056502 0.16504584 -0.13317798 -0.118765585
0.09210616 -0.13255858 -0.034562267 0.13444541 0.14589529 0.1722722 -0.041809455 -0.13764347
0.17258099 -0.031822067 -0.06687619 0.037272573 -0.12936115 0.11022206 0.10482786 -0.13825177
-0.15049292 -0.010023306 0.078960836 0.0008101438 -0.08510005 0.009814557 -0.16052614 -0.119024314
-0.11262826 0.15152815 0.16168357 -0.05417197 0.013787939 0.07318573 0.015395023 -0.09393884
0.096198305 0.10268759 -0.004620468 -0.021849696 0.16613837 0.15428431 -0.09443336 0.16712554
0.037961487 -0.123364836 0.09169814 -0.13781859 0.1692832 -0.11765612 0.044426333 0.059365563
0.036198292 0.14062718 -0.067603886 -0.06867002 -0.15774904 -0.0013687654 -0.07985724 0.012806042
-0.041542638 0.06456648 0.14774528 0.0568187 -0.05114995 -0.08145671 -0.16007681 0.14292517
-0.039358545 0.036646355 0.012503265 -0.10677653 0.093621686 0.10503464 0.0146842105 -0.094683185
-0.06924088 0.008411835 -0.10689516 -0.1042837 -0.028710784 -0.05690143 0.0491997 -0.051847745
-0.017615855 -0.06183996 -0.15567514 0.15941046 0.03914764 0.16394956 -0.02384894 -0.039673887
-0.16063353 -0.061612383 0.12178882 -0.17850372 -0.066253886 0.10202628 0.10784043 0.07111424
-0.03242928 -0.0073744603 -0.027600821 -0.05949038 0.07923007 -0.05455723 -0.09510574 0.034133475
-0.13341385 -0.031982522 0.09625322 0.06812752 0.15629514 -0.114789434 0.0072952304 -0.05043233
-0.09320718 -0.09853892 0.045479335 0.02424456 -0.08450645 -0.13038476 -0.14697905 0.1675925
-0.030033777 -0.043611858 -0.05940314 -0.09130611 -0.16714878 -0.109533675 0.11357079 0.03388416
-0.0633988 -0.06469859 0.11552538 0.1241321 0.17575726 0.05430254 0.09056698 -0.010196002
-0.1090849 -0.16738242 0.10345792 -0.031037379 0.07811734 0.0143134175 -0.16435646 -0.08127197
0.05541568 -0.030255908 -0.17590593 0.057379298 0.0043489197 -0.052371137 0.076746404 0.031682722
-0.05979143 0.16345653 0.08749608 0.027935142 -0.032948073 -0.14874724 0.13887021 -0.05120948
00000000: 2553 c63d b90c 233e dd81 e3bd 04b5 073d
00000010: dd75 163e 8756 f63d 9807 ed3d 05ab 063e
00000020: e6f3 d83d ff74 233d 1c6e f0bd edc0 12be
00000030: 937e 9fbd 83d1 70bc 0a2c d9bd 9e6e 903d
00000040: c723 483d 1ee4 0bbd 3d70 913d c149 813d
00000050: d4b9 e83d 49c7 e73d a786 5dbd 2ffb 363e
00000060: d2d3 bfbc d727 64ba 8923 25be b235 ddbd
00000070: 68f7 c8bd 86c1 8ebd 92dd f63d bb36 5ebd
00000080: 114c 01be 5147 973d c455 753d d78b de3d
00000090: 22bc c6bd bd26 0c3d 85dc 8fbd 9a79 10bd
000000a0: 0c45 11be dcdb a2bd ab86 63bd a2ba a63d
000000b0: a66f 013d 04d8 1a3d 1099 2e3e 3068 2c3e
000000c0: d15b 013e 47ad 373c 8c05 f5bd 1ab1 123e
000000d0: 4ac5 4cbd 1494 09bc 0426 16be efb8 26bd
000000e0: bd95 ebbd 534a 213e 565a 22be 5651 07be
000000f0: 22d6 4dbb 0df1 c4bd a419 6f3d 478e 7fbd
00000100: 6e16 a6bd 4b45 9d3b 30fc 033e 10b7 f4bd
00000110: 1bee 9d3d e807 f43d d8f2 363e b08b 04be
00000120: 61f9 463d bc9d 0bbe 999e 203e b960 81bd
00000130: d832 dc3d 760c 8fb9 e5e7 02bc 28aa 30bc
00000140: a698 d33c 9436 a03d b9d3 093d 023a 753d
00000150: f903 24be d0d4 083e cfeb 213e 2ac6 153e
00000160: 8502 003e 2ce9 fdbd e107 90bd 96cc 193e
00000170: 47f0 0fbe c701 293e cf5f 08be 5f3b f3bd
00000180: 28a2 bc3d 70bd 07be 2a91 0dbd 0fac 093e
00000190: 9365 153e 2068 303e 6440 2bbd 69f2 0cbe
000001a0: 12b9 303e db57 02bd 62f6 88bd 20ab 183d
000001b0: 4077 04be 1abc e13d fdaf d63d df91 0dbe
000001c0: d11a 1abe cb38 24bc 38b6 a13d d55f 543a
000001d0: ef48 aebd 3ccd 203c f760 24be 05c3 f3bd
000001e0: a5a9 e6bd 322a 1b3e 6190 253e 6de3 5dbd
000001f0: cfe6 613c 66e2 953d 683b 7c3c 0263 c0bd
00000200: 9e03 c53d df4d d23d 4b67 97bb 22fe b2bc
00000210: 2d20 2a3e b5fc 1d3e 4766 c1bd f522 2b3e
00000220: 817d 1b3d b4a6 fcbd 3ccc bb3d 5120 0dbe
00000230: 9358 2d3e b1f5 f0bd 63f8 353d 4e29 733d
00000240: a944 143d 9200 103e e873 8abd dea2 8cbd
00000250: f788 21be 2568 b3ba 318c a3bd 6fd0 513c
00000260: 9d28 2abd 6e3b 843d 8a4a 173e baba 683d
00000270: 9c82 51bd c7d2 a6bd 2deb 23be fa5a 123e
00000280: 6d36 21bd 7d1a 163d 7fda 4c3c a7ad dabd
00000290: babc bf3d 671c d73d 0b96 703c 42e9 c1bd
000002a0: 2ace 8dbd cbd1 093c daeb dabd b192 d5bd
000002b0: e132 ebbc 7911 69bd a085 493d 4d5e 54bd
000002c0: 204f 90bc e64b 7dbd 4e69 1fbe 7f3c 233e
000002d0: 4759 203d 65e2 273e da5e c3bc 1681 22bd
000002e0: 1e7d 24be 445d 7cbd 6b6c f93d aec9 36be
000002f0: 1eb0 87bd 27f3 d03d 72db dc3d 58a4 913d
00000300: 91d4 04bd 75a5 f1bb 1e1b e2bc 2fac 73bd
00000310: 6043 a23d 6777 5fbd ccc6 c2bd 8bcf 0b3d
00000320: a49d 08be 1b00 03bd 6920 c53d 7186 8b3d
00000330: d50b 203e b916 ebbd d40c ef3b 2292 4ebd
00000340: 68e3 bebd c6ce c9bd 8a48 3a3d 879c c63c
00000350: b811 adbd 9583 05be ad81 16be 5e9d 2b3e
00000360: 6509 f6bc 59a2 32bd b550 73bd b3fe babd
00000370: 0d29 2bbe 3153 e0bd cd97 e83d 1eca 0a3d
00000380: 3bd7 81bd b280 84bd 9298 ec3d f838 fe3d
00000390: b6f9 333e 576c 5e3d 2e7b b93d 220d 27bc
000003a0: e767 dfbd 4c66 2bbe bfe1 d33d 1a42 febc
000003b0: fcfb 9f3d d382 6a3c 0f4d 28be eb71 a6bd
000003c0: 8dfb 623d 3ddb f7bc af20 34be 8e06 6b3d
000003d0: 6281 8e3b 1e83 56bd 382d 9d3d bec5 013d
000003e0: dce7 74bd 2661 273e 2531 b33d 3dd8 e43c
000003f0: 8ff4 06bd 3251 18be fe33 0e3e 08c1 51bd

weight_hh_l0 f4 [128, 32]
-0.03687458 -0.07117247 0.14017677 0.14831051 0.14860362 -0.0930962 0.1254505 -0.16208309
-0.0063221916 -0.04575916 0.02938129 -0.045951083 -0.13300006 -0.10550278 -0.000390679 -0.10985491
-0.054754958 -0.075382575 -0.13900259 0.15026166 -0.15605307 0.078174315 -0.13267608 -0.13153571
0.030077986 0.14138831 -0.07805593 -0.025255192 0.082582615 0.17772758 0.10379923 -0.14587866
0.14107677 0.04772621 0.02412813 0.03295918 -0.17086701 -0.009295561 0.11118635 0.087148204
0.14473908 0.054635674 0.036501996 0.01263911 0.007167001 0.12352024 -0.06609822 0.12955676
-0.16686031 -0.0061629275 0.027455725 -0.16245276 -0.1468236 0.116504036 -0.11660111 0.18071933
0.09281071 -0.021382552 0.1544204 -0.09973529 -0.17087618 0.077203386 -0.112939216 0.12838155
0.06669603 -0.050429612 0.051287245 -0.14735869 -0.03910446 -0.0879122 -0.14091983 0.040262707
-0.073172875 0.06282219 0.12226515 -0.034412183 0.0109179225 0.1714695 0.13907534 -0.05359035
-0.042353556 -0.021705588 -0.05447986 0.117621176 0.13391602 0.020586276 -0.09978829 -0.11037144
0.11765889 0.011428616 -0.14552554 -0.13142788 -0.026342181 -0.11790082 0.10592326 -0.123090506
-0.06930756 0.044508975 0.056714714 -0.12861258 0.12256512 0.017132653 -0.15370347 0.16700374
0.022179473 -0.038359795 -0.03605939 0.09925245 0.035297897 -0.061864287 0.0929986 0.10942351
-0.09985902 0.17976736 -0.16402909 -0.1573949 -0.056433212 -0.17065921 0.04080115 0.04021473
0.107798256 0.12547182 -0.172702 -0.07424408 -0.022503337 0.17114958 -0.029602354 -0.024555208
0.09957443 0.055415057 -0.012506401 -0.09154101 0.08405459 -0.051953036 -0.03453987 0.048303764
-0.10283327 0.16068567 -0.14974041 -0.051130667 -0.17297761 -0.019910539 0.039847944 0.0538688
-0.027187567 0.029921725 -0.0143027 0.06461622 0.1182909 -0.049543217 -0.020305164 0.0003977117
0.04480069 0.008764614 -0.031530194 0.040527977 -0.089640796 -0.022829462 -0.034494936 0.04651243
0.011714848 -0.16151713 0.10192732 -0.070175655 0.07706089 -0.017881872 -0.0197397 0.11186308
0.019383572 0.10550185 -0.01677727 0.16334866 -0.0857909 -0.12807408 -0.0820056 0.0017122177
0.033700492 -0.117400244 -0.117227755 0.0066883117 0.019898642 -0.049796928 -0.069555104 0.014094871
-0.17833763 0.059480652 -0.036018945 0.007481898 -0.0032977033 -0.014035786 -0.029352322 0.15701392
0.12993902 0.025999632 0.052563958 0.08332737 -0.06759303 0.11946593 0.053713374 0.1574278
0.023773672 0.021751367 0.031753927 0.00901865 -0.17725597 -0.10746736 -0.02557545 -0.088353746
-0.029271258 0.049122903 0.011625791 -0.04885561 -0.12164405 0.011723079 -0.14309935 0.06570801
-0.10446719 0.013885193 -0.046727214 0.029210279 0.011067387 -0.024052761 0.15482073 0.10899475
0.17219979 -0.08773961 -0.16913405 -0.1466702 0.06856727 0.04742919 -0.11783785 0.029617608
0.17479682 0.116343066 -0.12573996 0.030573979 0.081474945 0.057551153 0.14682335 0.062922
-0.119629055 -0.1610936 0.11986356 -0.007562569 0.12359282 -0.1131861 0.08092409 -0.07133313
0.054372437 0.026840542 -0.10181128 0.051647983 -0.0226796 0.034828216 -0.017943991 -0.028899318
00000000: cd09 17bd dfc2 91bd 808a 0f3e b6de 173e
00000010: 8c2b 183e 38a9 bebd 1976 003e 1cf9 25be
00000020: 632a cfbb f56d 3bbd 08b1 f03c 3437 3cbd
00000030: 2b31 08be d711 d8bd 0cd4 ccb9 9cfb e0bd
00000040: bc46 60bd 2e62 9abd b256 0ebe 31de 193e
00000050: 60cc 1fbe db19 a03d 3ddc 07be 4cb1 06be
00000060: 1c66 f63c 19c8 103e cadb 9fbd fae3 cebc
00000070: 1321 a93d 38fe 353e b194 d43d 3761 15be
00000080: 6e76 103e 8f7c 433d 5ba8 c53c 3500 073d
00000090: c3f7 2ebe 694c 18bc abb5 e33d c27a b23d
000000a0: 7b36 143e a8c9 5f3d 1e83 153d 4514 4f3c
000000b0: 29d9 ea3b 2ef8 fc3d 815e 87bd 87aa 043e
000000c0: 6edd 2abe 62f2 c9bb d4ea e03c 045a 26be
000000d0: ed58 16be ab99 ee3d 90cc eebd 7d0e 393e
000000e0: 8b13 be3d 762a afbc 6220 1e3e 0442 ccbd
000000f0: 2afa 2ebe cf1c 9e3d ad4c e7bd 7476 033e
00000100: ee97 883d 488f 4ebd 9312 523d 32e5 16be
00000110: 002c 20bd 500b b4bd 4a4d 10be 82ea 243d
00000120: a9db 95bd eca8 803d 2766 fa3d caf3 0cbd
00000130: 16e1 323c b395 2f3e c469 0e3e 8e81 5bbd
00000140: ec7a 2dbd ebcf b1bc 4626 5fbd 5fe3 f03d
00000150: 4821 093e 8da4 a83c ce5d ccbd 6c0a e2bd
00000160: 25f7 f03d 173f 3b3c a604 15be 0895 06be
00000170: 8fcb d7bc fc75 f1bd 4bee d83d e016 fcbd
00000180: 1ff1 8dbd 0b4f 363d b04d 683d 04b3 03be
00000190: 6c03 fb3d c759 8c3c 7164 1dbe 0703 2b3e
000001a0: bab1 b53c 291f 1dbd 03b3 13bd de44 cb3d
000001b0: 8794 103d 6865 7dbd 0d76 be3d 6f19 e03d
000001c0: e382 ccbd ef14 383e 3ef7 27be 212c 21be
000001d0: 8326 67bd 4ac1 2ebe 1b1f 273d 33b8 243d
000001e0: 55c5 dc3d af7b 003e cbd8 30be 480d 98bd
000001f0: eb58 b8bc d641 2f3e a380 f2bc 0128 c9bc
00000200: aeed cb3d e6fa 623d a6e7 4cbc da79 bbbd
00000210: d024 ac3d b5cc 54bd ae79 0dbd 2bda 453d
00000220: 409a d2bd c98a 243e 8d55 19be 646e 51bd
00000230: 0b21 31be 6d1b a3bc 9937 233d 88a5 5c3d
00000240: 76b8 debc 681e f53c df55 6abc 8255 843d
00000250: 8042 f23d d4ed 4abd 0457 a6bc f683 d039
00000260: ee80 373d 7599 0f3c ce25 01bd aa00 263d
00000270: 9895 b7bd da04 bbbc 904a 0dbd d183 3e3d
00000280: a2ef 3f3c bf64 25be 45bf d03d 41b8 8fbd
00000290: 1ad2 9d3d 017d 92bc 27b5 a1bc 7818 e53d
000002a0: 4cca 9e3c 5b11 d83d 7c70 89bc df44 273e
000002b0: 24b3 afbd da25 03be 8df2 a7bd 7e6c e03a
000002c0: 8709 0a3d 8a6f f0bd 1b15 f0bd a029 db3b
000002d0: 7a02 a33c ddf7 4bbd e872 8ebd 2cee 663c
000002e0: 249e 36be fca1 733d 9a88 13bd b62a f53b
000002f0: 481e 58bb 5af6 65bc 4874 f0bc 42c8 203e
00000300: bc0e 053e 2efd d43c 4e4d 573d 8aa7 aa3d
00000310: 376e 8abd 8eaa f43d 8e02 5c3d c134 213e
00000320: 01c1 c23c ec2f b23c 6810 023d f6c2 133c
00000330: 9782 35be d917 dcbd 9b83 d1bc cff2 b4bd
00000340: 47ca efbc 1935 493d 1a7a 3e3c d21c 48bd
00000350: 8420 f9bd 2812 403c a388 12be ec91 863d
00000360: e5f2 d5bd b87e 633c 0965 3fbd 654a ef3c
00000370: fc53 353c 4c0a c5bc 5389 1e3e a438 df3d
00000380: 2455 303e d3b0 b3bd 7a31 2dbe b730 16be
00000390: ff6c 8c3d 1c45 423d f854 f1bd a0a0 f23c
000003a0: f0fd 323e 4645 ee3d fac1 00be 4876 fa3c
000003b0: 56dc a63d c2ba 6b3d dc58 163e 40dd 803d
000003c0: 1400 f5bd b8f5 24be 077b f53d 6dcf f7bb
000003d0: 3b1e fd3d 1dce e7bd 88bb a53d 1b17 92bd
000003e0: a2b5 5e3d b2e0 db3c 6f82 d0bd d68c 533d
000003f0: 92ca b9bc 08a8 0e3d 47ff 92bc 43be ecbc

bias_ih_l0 f4 [128]
-0.056395587 0.14370376 -0.06469416 -0.0023882517 -0.10950671 -0.11650897 -0.13139169 0.13519442
0.12856512 0.11925125 0.087180324 0.11914787 -0.12834139 -0.113393776 0.16414951 0.17195617
0.15721865 -0.013936188 0.13470332 0.043569896 -0.060106 0.086970545 -0.13388714 -0.1694628
-0.09065937 -0.08311266 0.05860216 -0.01600237 -0.08414541 0.05891976 0.07721124 0.014567845
0.10869392 -0.076895066 0.031634487 -0.10832497 -0.016611619 0.16187373 0.07689456 0.051672146
-0.095612586 0.011992623 0.02444178 -0.16655466 -0.15875955 -0.077721946 0.024523756 0.062800415
-0.14450355 -0.0795566 0.067171305 -0.07831462 0.05285989 0.07547967 -0.065731086 0.1560104
0.03429998 0.0038938662 0.0028361494 -0.14817628 0.07392728 -0.10273033 0.13453463 -0.11789305
-0.025342148 -0.109174825 -0.044525396 0.03803971 -0.14802013 0.04000911 -0.026837783 0.013485893
0.1506786 0.06419383 0.05693759 -0.03292137 0.11520515 0.08402924 -0.14829125 -0.08690163
-0.12568867 -0.058458827 0.12401097 -0.09924128 0.121534854 -0.12166829 0.04744379 0.14220591
-0.02590678 0.017748743 0.060200866 0.082186 0.04504902 -0.0704449 0.12367953 0.060108043
0.16424862 0.052351393 -0.0995837 -0.038933504 0.07310344 0.07959025 -0.009661914 0.053469703
-0.04281899 0.13868666 0.08478153 -0.08783741 0.07580554 0.12655298 -0.10939141 -0.05684515
0.055846766 0.11667276 0.14802766 0.039424736 0.13371573 -0.019749392 0.16461127 -0.004321967
0.06712895 0.06885631 -0.17692757 -0.07761601 -0.027678303 0.08339803 0.032459244 0.045724966
00000000: 0fff 66bd 1427 133e 5f7e 84bd 3784 1cbb
00000010: 0e45 e0bd 419c eebd 8b8b 06be 6870 0a3e
00000020: 93a6 033e 003a f43d 998b b23d cc03 f43d
00000030: ed6b 03be ff3a e8bd cf16 283e 4715 303e
00000040: edfd 203e 9c54 64bc abef 093e 5976 323d
00000050: b631 76bd 9d1d b23d b619 09be a887 2dbe
00000060: 9fab b9bd f836 aabd d208 703d 6717 83bc
00000070: 6e54 acbd d955 713d ed20 9e3d f8ad 6e3c
00000080: eb9a de3d 297b 9dbd 2a93 013d 7bd9 ddbd
00000090: 1715 88bc 3ac2 253e e57a 9d3d 2ca6 533d
000000a0: 88d0 c3bd b57c 443c 213a c83c 4e8d 2abe
000000b0: dd91 22be af2c 9fbd 0be6 c83c 819d 803d
000000c0: bdf8 13be 92ee a2bd 1c91 893d 6a63 a0bd
000000d0: 9d83 583d 1695 9a3d 059e 86bd 31c1 1f3e
000000e0: 237e 0c3d 3c30 7f3b b1de 393b 86bb 17be
000000f0: 3067 973d 4764 d2bd 72c3 093e e971 f1bd
00000100: 569a cfbc 0d97 dfbd 4360 36bd 87cf 1b3d
00000110: 9792 17be 98e0 233d e9da dbbc eff3 5c3c
00000120: 7e4b 1a3e 0e78 833d 6437 693d 8fd8 06bd
00000130: adf0 eb3d 8617 ac3d a9d9 17be 7bf9 b1bd
00000140: 88b4 00be 8672 6fbd 77f9 fd3d 033f cbbd
00000150: 44e7 f83d 392d f9bd 6b54 423d 6d9e 113e
00000160: 753a d4bc d065 913c 2f95 763d 2251 a83d
00000170: 5285 383d 6a45 90bd b24b fd3d da33 763d
00000180: ca30 283e 6a6e 563d 8af2 cbbd bd78 1fbd
00000190: 42b7 953d 3700 a33d 014d 1ebc 0c03 5b3d
000001a0: f762 2fbd e003 0e3e f0a1 ad3d 1ae4 b3bd
000001b0: ef3f 9b3d 1b97 013e 9b08 e0bd 76d6 68bd
000001c0: 94bf 643d 21f2 ee3d 9094 173e d57b 213d
000001d0: c7ec 083e 7ac9 a1bc db8f 283e 499f 8dbb
000001e0: e77a 893d 8904 8d3d 802c 35be 25f5 9ebd
000001f0: 9cbd e2bc 96cc aa3d fcf3 043d 1a4a 3b3d

bias_hh_l0 f4 [128]
0.108109884 0.094217665 -0.031295203 0.10578975 -0.063668095 -0.04701809 -0.17373079 0.076342665
0.13092963 -0.012835282 -0.16614158 -0.0023484048 -0.11846303 -0.110531695 -0.045806587 0.10181218
0.110952966 -0.15288596 -0.10968116 -0.08594253 0.07213906 -0.010134055 -0.024902396 0.022002816
0.0036870036 -0.13607177 0.027241789 0.05468573 0.003564497 0.070275925 0.0371407 -0.13565919
0.17156172 0.09898774 0.15965092 0.005882305 0.09945283 -0.03282482 0.009192891 0.1056069
-0.1071471 -0.15272479 0.032850537 0.103634275 0.16153367 -0.015862538 -0.06760003 -0.145746
0.15169856 -0.018126413 -0.07189474 -0.1094695 -0.049914043 0.1317296 0.09624261 -0.17093603
0.06536883 -0.047413766 0.14171846 -0.08644989 -0.029297642 0.0629332 -0.05822775 -0.12420169
-0.011743719 0.18077771 -0.16675061 0.10758421 0.11926403 0.14244656 0.01953995 -0.02412914
-0.1316681 0.17703485 0.0030878142 -0.0042186314 0.027479013 -0.03349132 -0.014347513 0.06832033
0.12756863 0.100867085 -0.17989232 -0.04971513 -0.017163532 0.057521835 -0.1295492 -0.036542386
-0.08664954 -0.13093048 -0.0022253895 0.12247868 0.03655965 -0.05659688 -0.00033484332 -0.08150666
0.1611073 0.07434129 -0.11871055 -0.18126166 -0.10741656 -0.09993698 0.036075737 -0.104801014
-0.1605049 -0.05940878 -0.10326685 -0.0860161 0.12658986 -0.022515506 -0.13905416 -0.10994042
0.1593196 -0.00753757 -0.08953869 -0.012111884 0.045915235 0.13402371 -0.055232547 -0.043954343
-0.079128474 -0.13953033 0.073085405 0.007953289 -0.0003759041 0.014356945 0.011989103 0.15260288
00000000: b768 dd3d 31f5 c03d 662f 00bd 4ca8 d83d
00000010: 6b64 82bd 0a96 40bd 7ce6 31be 8b59 9c3d
00000020: 6b12 063e 134b 52bc 0521 2abe b2e7 19bb
00000030: bf9c f2bd 715e e2bd b09f 3bbd e782 d03d
00000040: 4f3b e33d 238e 1cbe 84a0 e0bd a302 b0bd
00000050: a5bd 933d 4f09 26bc 1c00 ccbc 403f b43c
00000060: a8a1 713b 6656 0bbe 2c2a df3c 25fe 5f3d
00000070: 569a 693b d3ec 8f3d d920 183d 3eea 0abe
00000080: e0ad 2f3e 16ba ca3d 887b 233e 5ac0 c03b
00000090: edad cb3d 5273 06bd c89d 163c 6e48 d83d
000000a0: f06f dbbd e363 1cbe 498e 063d 353e d43d
000000b0: 1569 253e 27f2 81bc e271 8abd 703e 15be
000000c0: de56 1b3e d87d 94bc 8d3d 93bd 8c31 e0bd
000000d0: ab72 4cbd 20e4 063e d81a c53d db09 2fbe
000000e0: 18e0 853d f034 42bd a51e 113e a40c b1bd
000000f0: 9c01 f0bc 1fe3 803d 3980 6ebd 755d febd
00000100: ba68 40bc cb1d 393e acc0 2abe 1c55 dc3d
00000110: b340 f43d 83dd 113e 3f12 a03c 79aa c5bc
00000120: 01d4 06be a048 353e ed5c 4a3b 723c 8abb
00000130: ab1b e13c 322e 09bd d511 6bbc 87eb 8b3d
00000140: 5aa1 023e 6793 ce3d b135 38be 18a2 4bbd
00000150: 899a 8cbc 049c 6b3d 8ca8 04be 78ad 15bd
00000160: 5075 b1bd a412 06be d7d7 11bb 1ad6 fa3d
00000170: 92bf 153d 21d2 67bd e98d afb9 f7ec a6bd
00000180: 50f9 243e 3f40 983d 841e f3bd a89c 39be
00000190: 37fd dbbd c2ab ccbd 27c4 133d eaa1 d6bd
000001a0: 665b 24be 9f56 73bd 927d d3bd 3629 b0bd
000001b0: c6a0 013e 7072 b8bc 3764 0ebe 7128 e1bd
000001c0: ad24 233e b8fd f6bb 1060 b7bd ec70 46bc
000001d0: 9d11 3c3d 833d 093e 863b 62bd 7809 34bd
000001e0: 1c0e a2bd 0ae1 0ebe cdad 953d 834e 023c
000001f0: ff14 c5b9 6439 6b3c f16d 443c ee43 1c3e

weight_ih_l0_reverse f4 [128, 105]
0.044121668 0.097820744 0.012040053 0.051274475 -0.08255142 0.11366156 -0.08829566 0.037684876
0.09454754 -0.036071874 -0.07893657 0.07026259 -0.018924197 -0.033224337 0.015639354 0.039980825
0.11219602 -0.07617702 -0.0032662791 0.17311753 0.14149426 -0.095916934 -0.12668742 0.014184681
-0.06544486 -0.068217635 -0.0103457365 -0.08682767 -0.1033863 -0.049765106 0.047302064 -0.12538575
0.1590563 0.14485162 0.055847667 -0.052080594 0.061038937 -0.15649466 0.08478551 0.097995326
0.11263363 0.13032779 0.11071526 -0.17107606 -0.08402299 -0.007979753 0.04036698 0.13254523
-0.17477779 -0.10235765 0.05043374 0.07617557 0.02544369 0.10479162 0.16012673 0.1693535
0.054625906 -0.15033072 -0.02923051 -0.09954056 -0.09177839 0.13845101 0.031169118 -0.11080723
0.1097807 -0.039797947 -0.09395278 0.008675058 -0.099780105 -0.08791472 -0.08723873 -0.10356342
-0.056332786 0.1176965 -0.040593483 0.16638528 0.03367802 -0.06667324 -0.003582807 -0.022364061
0.06551984 0.16053198 0.022548582 -0.17339727 0.043144885 0.06387854 -0.13159956 -0.115438886
0.054053977 -0.16949056 -0.12597907 0.15149382 -0.0046456824 -0.021235457 0.07947954 0.08123546
-0.02255794 0.042519987 0.13727777 0.16586527 -0.077833615 -0.05018557 0.11971408 0.11945275
-0.0035307263 0.03965879 0.14111374 -0.102505185 0.01434778 0.025029019 -0.02999082 -0.08075665
-0.0067567048 -0.1561384 -0.13572004 -0.091924936 -0.046932843 -0.10806204 0.05522643 -0.1740505
-0.01407608 -0.13604648 0.043139998 -0.03633598 0.022673016 -0.03823493 -0.15403573 0.12959942
-0.10736011 0.059459228 0.1797481 0.1335839 0.176937 -0.11475956 0.14074948 -0.04436543
-0.08516082 -0.1170842 0.17751797 0.067987636 0.04159856 0.17471081 -0.061877094 -0.08791577
-0.07362155 -0.08368079 0.057634376 0.046811845 0.0009037314 0.07602043 -0.1520517 0.08453928
-0.08038045 0.14627127 -0.08655813 0.13127978 -0.06951742 0.05541805 0.010788312 -0.021280946
0.1292007 0.08526028 0.010820375 0.02696046 -0.097215734 0.0608914 -0.05726349 0.10002127
-0.16858152 0.124021456 -0.11172027 -0.16881531 0.03732547 0.16948557 -0.04264246 0.16983376
0.11226161 -0.03654141 -0.12759942 -0.11081616 0.14225526 0.06851714 0.0030254067 -0.057872433
0.17062587 0.13234241 -0.11929785 -0.10958244 -0.1276854 0.06420682 -0.06262668 -0.033676147
-0.10668045 -0.12602298 0.015599152 -0.1517845 -0.053822383 0.027039003 0.07453498 -0.15193465
0.03485189 0.16580695 -0.06846879 -0.08705771 0.062248956 -0.028197948 -0.07968493 0.074722104
-0.15926093 -0.14131524 0.08089551 0.08825195 0.04469804 0.17193107 -0.15221308 0.144691
-0.006199386 0.124994114 0.09676605 0.07370325 -0.16323407 0.013369574 -0.101242274 -0.014330077
0.16380161 -0.0009956178 -0.06398573 -0.06400127 -0.033486243 0.0709312 0.04216832 0.033404365
-0.1296289 0.15947174 -0.040248647 0.076379545 -0.13273084 0.08913645 0.08588488 0.13322711
0.09815165 -0.17774224 -0.060676858 0.0868571 0.09302523 -0.03415506 0.09939359 0.16167936
0.047174543 0.04567378 0.16684474 0.15461907 -0.042038858 0.00650244 -0.02235981 0.09470705
00000000: ecb8 343d 3e56 c83d a443 453c 2f05 523d
00000010: b810 a9bd 64c7 e83d 5bd4 b4bd 755b 1a3d
00000020: 24a2 c13d 1ac0 13bd 7fa9 a1bd d5e5 8f3d
00000030: eb06 9bbc 3e16 08bd 1a1e 803c efc2 233d
00000040: 07c7 e53d b302 9cbd 120f 56bb b945 313e
00000050: dfe3 103e 1970 c4bd 59ba 01be dd66 683c
00000060: f407 86bd b0b5 8bbd 2a81 29bc b5d2 b1bd
00000070: 32bc d3bd 7fd6 4bbd cfbf 413d 1f65 00be
00000080: a8df 223e fc53 143e 86c0 643d 7652 55bd
00000090: f703 7a3d 2340 20be 07a4 ad3d c6b1 c83d
000000a0: 76ac e63d a674 053e afbe e23d 902e 2fbe
000000b0: 3f14 acbd 83bd 02bc d957 253d f0b9 073e
000000c0: f3f8 32be e3a0 d1bd 9c93 4e3d f001 9c3d
000000d0: 496f d03c fd9c d63d 43f8 233e 016b 2d3e
000000e0: 6abf 5f3d 4cf0 19be d374 efbc ecdb cbbd
000000f0: 4ff6 bbbd 1ac6 0d3e 6156 ff3c e7ee e2bd
00000100: b4d4 e03d 2c03 23bd 516a c0bd d521 0e3c
00000110: 8359 ccbd a20c b4bd 38aa b2bd 0f19 d4bd
00000120: 35bd 66bd dd0a f13d 5a45 26bd e760 2a3e
00000130: f7f1 093d fb8b 88bd 87cd 6abb d634 b7bc
00000140: 442f 863d 7f62 243e ceb7 b83c 0e8f 31be
00000150: b1b8 303d c1d2 823d 09c2 06be 396b ecbd
00000160: b467 5d3d ef8e 2dbe a800 01be 3221 1b3e
00000170: cf3a 98bb fbf5 adbc 2bc6 a23d c75e a63d
00000180: 6ecb b8bc 7029 2e3d 8b92 0c3e 96d8 293e
00000190: 3b67 9fbd 628f 4dbd a82c f53d a5a3 f43d
000001a0: c263 67bb 4171 223d 1f80 103e 3dee d1bd
000001b0: f312 6b3c a809 cd3c 4faf f5bc be63 a5bd
000001c0: 5967 ddbb bfe2 1fbe 32fa 0abe 2443 bcbd
000001d0: a73c 40bd a14f ddbd 1c35 623d 4b3a 32be
000001e0: 5c9f 66bc c54f 0bbe 91b3 303d 09d5 14bd
000001f0: c3bc b93c 3b9c 1cbd 8bbb 1dbe b6b5 043e
00000200: 9edf dbbd 858b 733d e30f 383e 38ca 083e
00000210: f92e 353e 0f07 ebbd a220 103e 86b8 35bd
00000220: cc68 aebd d7c9 efbd 45c7 353e 1a3d 8b3d
00000230: 4063 2a3d 64e7 323e d672 7dbd 2f0d b4bd
00000240: e5c6 96bd d660 abbd 0612 6c3d c7bd 3f3d
00000250: 63e8 6c3a 99b0 9b3d 71b3 1bbe ee22 ad3d
00000260: 819e a4bd 23c8 153e 6445 b1bd 356e 063e
00000270: 265f 8ebd 0afe 623d 76c1 303c 6155 aebc
00000280: 304d 043e f19c ae3d f147 313c 2fdc dc3c
00000290: 0b19 c7bd 4369 793d 1f8d 6abd f4d7 cc3d
000002a0: a2a0 2cbe f6fe fd3d 99cd e4bd ecdd 2cbe
000002b0: 98e2 183d a08d 2d3e dca9 2ebd e7e8 2d3e
000002c0: 6ae9 e53d 72ac 15bd 6ca9 02be 95f3 e2bd
000002d0: 5dab 113e b752 8c3d e745 463b a50b 6dbd
000002e0: 8cb8 2e3e c584 073e 6e52 f4bd c26c e0bd
000002f0: f6bf 02be de7e 833d 6b42 80bd 00f0 09bd
00000300: 487b dabd 2b0c 01be 9693 7f3c 656d 1bbe
00000310: dc74 5cbd e680 dd3c cca5 983d c294 1bbe
00000320: dbc0 0e3d 4cc9 293e 5d39 8cbd 504b b2bd
00000330: c3f8 7e3d 62ff e6bc da31 a3bd e707 993d
00000340: 4c15 23be f1b4 10be 8cac a53d 70bd b43d
00000350: 4b15 373d b30e 303e bfdd 1bbe e129 143e
00000360: 3824 cbbb eafc ff3d 472d c63d bbf1 963d
00000370: d526 27be 0f0c 5b3c 1c58 cfbd b3c8 6abc
00000380: 9cbb 273e 647f 82ba f30a 83bd 1913 83bd
00000390: df28 09bd 6144 913d b0b8 2c3d 04d3 083d
000003a0: 70bd 04be 8f4c 233e c4db 24bd e16c 9c3d
000003b0: 98ea 07be 2c8d b63d 69e4 af3d b06c 083e
000003c0: bb03 c93d 1002 36be 4c88 78bd 23e2 b13d
000003d0: 0384 be3d 2de6 0bbd de8e cb3d 468f 253e
000003e0: 183a 413d 6e14 3b3d 59d9 2a3e 7654 1e3e
000003f0: f030 2cbd 6c12 d53b ec2b b7bc c5f5 c13d

weight_hh_l0_reverse f4 [128, 32]
0.12784503 -0.07161761 -0.108799696 0.014400721 0.028445322 0.06007913 -0.16574758 0.058787767
0.017652288 -0.114746034 -0.03158401 -0.058990594 -0.05105303 0.11508109 -0.048904806 -0.0941417
0.15062006 0.022577424 -0.080750234 -0.00050190615 0.11517058 0.113833494 -0.14360322 0.010683445
0.10264648 -0.14054717 -0.04682409 -0.12676685 0.052273914 -0.013271595 -0.054877315 0.164635
0.057715207 0.1715284 0.13478388 -0.10135586 0.05247416 0.15182081 -0.13520847 0.02314477
0.059026103 -0.040414084 0.044739556 -0.06874395 0.107702754 -0.07274739 0.15995552 -0.10217038
0.045524716 -0.15560785 -0.03681007 0.062294427 0.069238394 -0.0029911832 0.12637603 0.07038794
-0.17057022 0.10446257 0.15600096 0.10184816 0.05676041 -0.12594925 -0.011096367 -0.081640415
0.037351582 0.13716763 -0.030545823 -0.07785536 -0.021840725 -0.017619113 0.060521737 0.0087692775
-0.102094 -0.10342733 -0.06293151 -0.13500455 0.17606752 0.048800014 0.1449111 -0.13324328
0.09616911 -0.092679806 0.045040116 0.036764275 -0.14727788 0.108956255 0.12734552 0.07185821
0.13835399 -0.042529214 0.076322116 0.02171081 -0.12805723 -0.13042444 -0.07260672 0.0143894665
0.121549495 0.095929086 0.0094680125 0.09668331 0.023336692 -0.01819611 -0.07190813 -0.036974307
0.10376096 -0.09227494 -0.12771575 0.033676166 0.029605053 -0.094187886 -0.09734021 -0.036414348
0.053926934 0.12750411 0.058439765 0.11092086 -0.10025357 0.044606667 -0.0096337795 0.112826005
0.11220437 0.07243715 -0.06475683 0.17154521 0.08148351 -0.0796624 0.12611528 -0.054790687
0.06767038 -0.0075432593 -0.12180998 -0.11297406 -0.11468423 -0.16245279 0.022891345 0.18008462
-0.13224591 -0.008213493 0.01974815 -0.109564885 0.08376934 0.003062644 -0.123964004 -0.0061360337
-0.15549973 -0.014277782 0.106448255 -0.1326703 -0.07721785 0.061768983 -0.101425484 -0.08091449
0.15403458 0.030923741 -0.10607773 -0.15677421 -0.11658547 0.15682492 -0.034945436 0.12586556
-0.053533137 -0.14788564 -0.06618344 -0.05286032 0.16530898 -0.060011104 -0.016401509 0.14642106
0.02340064 -0.17706418 0.17690955 -0.050040353 -0.10298525 0.122776195 -0.038799677 -0.15030389
0.091617905 0.09841813 0.0946831 0.078227855 -0.014122767 -0.0457877 0.021623554 0.12891203
0.04439187 0.103954196 -0.03275457 0.036016192 0.16364813 0.07833907 0.07185901 0.032485295
-0.10091269 0.038529087 -0.14676183 -0.09241735 -0.17055883 -0.10156486 -0.0019013863 0.003085249
0.17466147 0.16349709 -0.15086547 0.07289521 0.155452 -0.021562388 0.14557338 -0.17531016
0.04064703 0.049310118 -0.08571572 -0.12187571 0.08758378 -0.1793724 -0.066498026 -0.09185011
-0.07858788 0.0015718266 0.092136785 0.10887754 0.018052863 -0.09210526 0.011088431 -0.020036917
0.1445967 -0.1444759 -0.12869886 -0.073642164 -0.08261604 -0.1278508 0.03774043 -0.031971022
0.17483577 0.05532604 0.046608306 0.15096018 -0.14359061 0.018930778 -0.09717035 0.049140394
0.03679778 0.07944689 -0.093488656 -0.056325532 0.01382021 -0.07262675 -0.0923455 0.059911907
0.035468515 -0.14903699 -0.16769812 -0.1287604 0.057248052 0.06854892 0.15940471 0.012295394
00000000: cfe9 023e 41ac 92bd 60d2 debd 00f1 6b3c
00000010: 2a06 e93c 8915 763d bcb9 29be 71cb 703d
00000020: 889b 903c f8ff eabd 3c5e 01bd 1fa0 71bd
00000030: fb1c 51bd a2af eb3d 6850 48bd 5dcd c0bd
00000040: 253c 1a3e 4af4 b83c 6160 a5bd 5a92 03ba
00000050: 8ede eb3d 8921 e93d b90c 13be 9e09 2f3c
00000060: 5138 d23d 99eb 0fbe 9eca 3fbd 2bcf 01be
00000070: 2c1d 563d 1b71 59bc 09c7 60bd 1496 283e
00000080: c866 6c3d 24a5 2f3e c904 0a3e a993 cfbd
00000090: 25ef 563d ea76 1b3e 1774 0abe 1a9a bd3c
000000a0: 5bc5 713d 3d89 25bd d340 373d a1c9 8cbd
000000b0: 4393 dc3d 95fc 94bd 61cb 233e b43e d1bd
000000c0: 2078 3a3d aa57 1fbe 28c6 16bd 7128 7f3d
000000d0: dccc 8d3d ba07 44bb b868 013e 8d27 903d
000000e0: f6a9 2ebe 79f0 d53d b7be 1f3e c595 d03d
000000f0: 9b7d 683d d7f8 00be 89cd 35bc 1733 a7bd
00000100: f9fd 183d ac75 0c3e 3c3b fabc a272 9fbd
00000110: 52eb b2bc f555 90bc a4e5 773d 04ad 0f3c
00000120: a916 d1bd b5d1 d3bd 3ce2 80bd a23e 0abe
00000130: 0b4b 343e 86e2 473d 9363 143e ed70 08be
00000140: 4ff4 c43d e9ce bdbd fc7b 383d 2396 163d
00000150: 03d0 16be 7524 df3d dd66 023e 662a 933d
00000160: abac 0d3e 1d33 2ebd c54e 9c3d deda b13c
00000170: 6f21 03be fc8d 05be d5b2 94bd ccc1 6b3c
00000180: f1ee f83d 7876 c43d b91f 1b3c e601 c63d
00000190: 972c bf3c 0210 95bc 9244 93bd 5f72 17bd
000001a0: a080 d43d a5fa bcbd ebc7 02be 05f0 093d
000001b0: 4c86 f23c 94e5 c0bd 4e5a c7bd 3627 15bd
000001c0: 7de2 5c3d 7090 023e 895e 6f3d 7a2a e33d
000001d0: be51 cdbd 7bb5 363d 00d7 1dbc 5211 e73d
000001e0: 68cb e53d ee59 943d 3b9f 84bd 8ca9 2f3e
000001f0: d4e0 a63d 0a26 a3bd 5d24 013e 336c 60bd
00000200: c596 8a3d 722d f7bb 8377 f9bd f25e e7bd
00000210: 91df eabd 065a 26be a186 bb3c 1a68 383e
00000220: 796b 07be e391 06bc dfc6 a13c 8e63 e0bd
00000230: 428f ab3d a4b6 483b d7e0 fdbd c810 c9bb
00000240: 523b 1fbe 5ced 69bc 8b01 da3d b9da 07be
00000250: 6424 9ebd 7901 7d3d 2ab8 cfbd 7fb6 a5bd
00000260: 3ebb 1d3e c953 fd3c 483f d9bd 6b89 20be
00000270: 5dc4 eebd b696 203e f222 0fbd e7e2 003e
00000280: 9045 5bbd 556f 17be 2f8b 87bd 1084 58bd
00000290: c246 293e 34ce 75bd 755c 86bc 67ef 153e
000002a0: b3b2 bf3c 5050 35be c727 353e 1df7 4cbd
000002b0: eee9 d2bd 1672 fb3d 69ec 1ebd 43e9 19be
000002c0: 2ba2 bb3d 728f c93d 37e9 c13d ed35 a03d
000002d0: 2e63 67bc e28b 3bbd e123 b13c 8401 043e
000002e0: 40d4 353d f0e5 d43d a829 06bd b785 133d
000002f0: 6093 273e 3c70 a03d d12a 933d 4d0f 053d
00000300: 50ab cebd add0 1d3d bc48 16be 4f45 bdbd
00000310: f9a6 2ebe 3d01 d0bd f037 f9ba e431 4a3b
00000320: 75da 323e c86b 273e 7a7c 1abe 154a 953d
00000330: cf2e 1f3e 9ba3 b0bc 3011 153e 8284 33be
00000340: 807d 263d 68f9 493d b98b afbd f999 f9bd
00000350: 205f b33d 66ad 37be 1e30 88bd e91b bcbd
00000360: aff2 a0bd c005 ce3a 36b2 bc3d 30fb de3d
00000370: 99e3 933c afa1 bcbd 40ac 353c 7624 a4bc
00000380: 2811 143e 7ef1 13be a2c9 03be b4d1 96bd
00000390: 9932 a9bd 52eb 02be b695 1a3d 0cf4 02bd
000003a0: 2608 333e 8f9d 623d 5ae8 3e3d 4e95 1a3e
000003b0: 6b09 13be b814 9b3c 4001 c7bd 7047 493d
000003c0: 45b9 163d 0db5 a23d fb76 bfbd 9ab5 66bd
000003d0: 296e 623c 55bd 94bd a31f bdbd 3066 753d
000003e0: 6f47 113d 279d 18be 0eb9 2bbe c4d9 03be
000003f0: ef7c 6a3d 6063 8c3d fd3a 233e 9f72 493c

bias_ih_l0_reverse f4 [128]
0.0018138527 0.06887285 0.0779389 -0.041078392 0.11435099 0.07493262 0.0070978105 0.05836675
-0.038767196 -0.096348375 0.048732255 0.00314928 -0.09655316 -0.008620853 -0.111800484 -0.13721423
0.14722933 0.115486965 -0.15224674 0.029899456 0.13496469 -0.15274842 -0.021187374 -0.060797594
0.024282163 -0.11220925 -0.07760652 -0.021042967 -0.03256036 0.09707615 -0.037686903 -0.12299654
0.14912929 0.17079543 0.0461104 -0.0025558497 -0.112382695 0.11257818 -0.06865305 0.1731663
-0.14058214 0.05121412 -0.0723176 -0.083536096 -0.17039862 -0.12977235 -0.05931528 0.025412263
0.09670029 -0.13997096 -0.17168993 0.08112834 -0.0051181354 0.16011612 0.15309128 0.027486492
0.04395431 -0.02146895 0.14150475 0.13589026 -0.03276964 0.14530373 -0.12311682 -0.08338547
0.03792309 -0.0994303 0.08471787 -0.078423195 0.07386097 -0.03756453 0.022835795 0.14911343
0.17025858 -0.09296561 -0.12680341 -0.1465758 0.107838586 0.056999333 -0.044433136 0.17291306
-0.16445768 -0.08761517 -0.115239665 0.015848653 0.09939917 0.15909629 0.06854667 0.0695342
-0.028934509 -0.10790855 0.112211525 0.06061315 -0.08615269 -0.07453852 0.15657645 -0.15582223
-0.17044885 0.044499148 -0.049447652 -0.14356202 0.12824449 -0.14151636 0.026816329 -0.07064193
0.10865052 0.092290044 0.11296367 -0.096813306 0.05830824 -0.11292255 0.059285026 0.14313951
0.035659786 0.12095539 0.020529531 -0.16024922 0.09579787 0.13222256 -0.102775015 -0.118271165
0.087126 0.103850804 -0.17332372 -0.09599741 0.009808347 -0.055374175 -0.007020216 -0.10957262
00000000: ccbe ed3a 350d 8d3d 6e9e 9f3d d141 28bd
00000010: da30 ea3d 4676 993d c094 e83b f911 6f3d
00000020: 5aca 1ebd 4c52 c5bd 799b 473d 2764 4e3b
00000030: aabd c5bd 7a3e 0dbc a7f7 e4bd e381 0cbe
00000040: 49c3 163e 6e84 ec3d 92e6 1bbe b4ef f43c
00000050: 2f34 0a3e 156a 1cbe 2591 adbc e606 79bd
00000060: 63eb c63c f7cd e5bd 2bf0 9ebd 4d62 acbc
00000070: 035e 05bd dccf c63d 955d 1abd 9ce5 fbbd
00000080: 59b5 183e ffe4 2e3e 42de 3c3d 0b80 27bb
00000090: e628 e6bd 648f e63d f899 8cbd 8252 313e
000000a0: c4f4 0fbe e6c5 513d 401b 94bd f914 abbd
000000b0: fa7c 2ebe 0be3 04be 94f4 72bd 612d d03c
000000c0: cd0a c63d 8c54 0fbe 7ccf 2fbe 9d26 a63d
000000d0: 08b6 a7bb 7bf5 233e f6c3 1c3e 5a2b e13c
000000e0: 6f09 343d a7df afbc 9fe6 103e d126 0b3e
000000f0: 7539 06bd 80ca 143e ac24 fcbd 00c6 aabd
00000100: 3e55 1b3d 1da2 cbbd 9080 ad3d 579c a0bd
00000110: 6c44 973d 44dd 19bd 2212 bb3c 31b1 183e
00000120: 4458 2e3e c164 bebd c1d8 01be f717 16be
00000130: 7ada dc3d 2278 693d 85ff 35bd 1f10 313e
00000140: 9867 28be 956f b3bd c602 ecbd 09d5 813c
00000150: cb91 cb3d 23ea 223e 3262 8c3d f267 8e3d
00000160: 1008 edbc 28ff dcbd 28cf e53d 7f45 783d
00000170: d270 b0bd a7a7 98bd 9455 203e dd8f 1fbe
00000180: 258a 2ebe bd44 363d 9f89 4abd ec01 13be
00000190: 8652 033e aae9 10be ebad db3c b7ac 90bd
000001a0: 2a84 de3d 9002 bd3d 7f59 e73d 0e46 c6bd
000001b0: 9fd4 6e3d f043 e7bd dbd4 723d 2a93 123e
000001c0: ff0f 123d 76b7 f73d 8c2d a83c 5f18 24be
000001d0: ac31 c43d 5a65 073e b57b d2bd 2738 f2bd
000001e0: 1e6f b23d bbaf d43d c67b 31be 4a9a c4bd
000001f0: 30b3 203c 08d0 62bd d709 e6bb 9c67 e0bd

bias_hh_l0_reverse f4 [128]
-0.115862615 -0.022362472 0.09708507 -0.11252807 -0.13724281 -0.06789277 -0.029033007 -0.0638652
0.00561862 0.051229883 -0.075664744 0.17022598 0.0823013 -0.17008008 0.06475363 -0.102635406
-0.02194862 -0.12798151 -0.119690195 -0.11195344 -0.053106554 -0.1489137 0.15672275 0.07491251
0.036458306 -0.07028524 -0.04385725 -0.0672746 0.025426317 0.07884863 0.052376386 0.011150164
0.10721513 -0.030088795 -0.03647966 -0.04308079 0.09946576 0.0948911 0.17422608 0.0048880484
0.050127678 -0.122919105 0.17104624 0.020121088 -0.12812363 0.15913537 0.09000549 0.09952456
0.1092445 -0.0047679488 -0.17126769 -0.15390077 0.12507474 -0.10481301 -0.08805101 0.018777791
-0.16442172 -0.09285841 0.079833865 0.15133683 -0.010039243 0.05483373 0.08496532 0.0018383245
-0.11472707 0.06106966 0.06484616 0.16376495 0.16951285 0.092597656 0.13367055 0.17036916
-0.054897908 -0.053393368 0.059626643 0.13573842 -0.17495309 -0.14978327 -0.13186419 0.12325679
-0.042083114 -0.010638861 0.0546693 -0.13271178 0.02209542 -0.049080607 -0.06508339 -0.0019450044
-0.09510557 0.031108242 -0.004488047 -0.04426792 0.11947606 0.10370178 0.115150936 0.012019972
-0.10284712 0.0821901 -0.17533447 -0.1139017 0.16358188 0.06487246 -0.10828701 0.037818324
0.033717368 0.08372536 0.021806823 -0.11061368 -0.05742347 -0.14777836 0.057301622 -0.0005687589
-0.024557877 -0.122142866 0.06196211 -0.058946013 0.01044283 -0.1243892 0.15934186 -0.1459687
-0.059660353 -0.15350416 -0.17574179 -0.144969 0.04922503 0.0016771926 -0.13955054 0.010569981
00000000: 6149 edbd 8131 b7bc 8ad4 c63d 1e75 e6bd
00000010: 6189 0cbe 5d0b 8bbd a1d6 edbc c2cb 82bd
00000020: 671c b83b 6dd6 513d 1ef6 9abd b84f 2e3e
00000030: 958d a83d 7929 2ebe 8d9d 843d 8332 d2bd
00000040: 98cd b3bc 960d 03be 2220 f5bd d847 e5bd
00000050: 4286 59bd d57c 18be ee7b 203e bb6b 993d
00000060: 4e55 153d b5f1 8fbd a9a3 33bd 44c7 89bd
00000070: da4a d03c 647b a13d 9f88 563d 2daf 363c
00000080: 9b93 db3d c77c f6bc b26b 15bd 7c75 30bd
00000090: b4b4 cb3d 4456 c23d 5268 323e ec2b a03b
000000a0: ae52 4d3d 03bd fbbd bf26 2f3e fbd4 a43c
000000b0: d732 03be 62f4 223e cc54 b83d 88d3 cb3d
000000c0: 95bb df3d 743c 9cbb cc60 2fbe 2a98 1dbe
000000d0: 9813 003e 34a8 d6bd 1754 b4bd e2d3 993c
000000e0: 2b5e 28be 8d2c bebd f07f a33d 0bf8 1a3e
000000f0: a37b 24bc 5599 603d 4c02 ae3d eff3 f03a
00000100: 07f6 eabd 2e24 7a3d 10ce 843d 00b2 273e
00000110: c794 2d3e d7a3 bd3d efe0 083e 4175 2e3e
00000120: a1dc 60bd 01b3 5abd 113b 743d 03ff 0a3e
00000130: e726 33be c960 19be 6807 07be 0e6e fc3d
00000140: 585f 2cbd 9e4e 2ebc eaec 5f3d 99e5 07be
00000150: 7401 b53c bf08 49bd 714a 85bd 85ef feba
00000160: b6c6 c2bd b6d6 fe3c 7810 93bb 4752 35bd
00000170: ddaf f43d 9961 d43d 41d4 eb3d 6bef 443c
00000180: 83a1 d2bd 4853 a83d e18a 33be 4b45 e9bd
00000190: 0282 273e dadb 843d 94c5 ddbd 63e7 1a3d
000001a0: 391b 0a3d 3478 ab3d 39a4 b23c 6d89 e2bd
000001b0: df34 6bbd 3653 17be 1bb5 6a3d c318 15ba
000001c0: 9a2d c9bc 0a26 fabd fbcb 7d3d 6071 71bd
000001d0: 6718 2b3c c4bf febd 832a 233e d278 15be
000001e0: 6a5e 74bd 3230 1dbe a8f5 33be c172 14be
000001f0: 2fa0 493d 3fd5 db3a 56e6 0ebe b72d 2d3c

weight_ih_l1 f4 [128, 64]
-0.1123506 -0.14827184 -0.05468356 0.1040505 0.102620885 0.103103876 -0.060122874 0.02305159
-0.10460395 0.06585161 -0.12218381 0.16261937 -0.08476948 0.17284882 0.10276115 0.1480523
0.1413198 -0.056402728 -0.007338583 -0.1373012 -0.15830182 0.06714044 -0.13677806 -0.083688006
-0.14020589 -0.16415392 0.12976614 -0.04486289 0.1041162 0.13143505 0.11911258 -0.17858908
0.16726251 0.0009586162 -0.16477855 0.031731658 -0.064913295 0.16600211 -0.09959807 -0.12737218
0.050373036 0.08897778 0.053636324 0.11311012 -0.10400327 0.041707654 -0.05063906 0.010946768
-0.05506698 -0.09514644 -0.1646501 0.05129044 0.024387758 0.1101467 0.06613206 0.03548452
0.123713784 -0.11565183 -0.12952442 -0.100607835 -0.13140677 0.06513234 -0.10509475 0.040081754
0.02731896 0.16764316 0.048430406 -0.07654784 -0.16244234 -0.1351437 0.13374314 0.12014703
0.10639414 0.161704 0.03277229 -0.0022378778 -0.09639096 -0.00440492 0.001662666 0.12699513
0.15503056 0.124866925 -0.1120985 0.004037113 -0.058588266 -0.13917498 0.035335988 0.14407186
0.092381544 0.1581694 0.09830613 -0.055163953 0.041876167 0.07277283 -0.059093233 0.031297155
-0.1808618 0.07894106 -0.03040572 0.03902869 -0.1513096 -0.11234904 -0.13846163 -0.10381525
0.022429809 0.08357427 -0.17087187 -0.0052736695 -0.17393807 0.14221051 0.17434983 0.04848794
-0.031014472 0.15813264 -0.15614098 -0.0026018303 0.1247001 -0.101546764 -0.071079165 -0.14349487
-0.027091568 0.08127981 -0.12649696 0.09918498 -0.14364219 -0.06474751 0.16636662 -0.060161427
-0.12601411 0.12065794 -0.15877837 0.13713259 -0.13343658 0.10735163 0.04835951 -0.17256719
-0.08514143 0.12577581 -0.02958046 -0.052024487 0.0073735677 0.016342912 0.13347422 0.07619982
0.08985603 0.10558937 0.099501915 0.00058529014 0.09475222 -0.027682308 0.081134275 -0.066695616
0.1264825 0.07696828 0.075660646 -0.11799291 -0.150557 -0.11213934 -0.11231906 -0.050602354
0.1424244 -0.014141832 -0.15503515 0.1350852 -0.100186676 -0.04255553 0.08611557 0.045885947
-0.099865295 0.07617438 0.10071859 0.11499732 0.055331204 -0.015006295 -0.06287011 0.16638467
0.09727146 0.026062867 -0.13455816 0.08353193 -0.010303129 -0.09590884 -0.15250027 -0.17004411
0.09410769 -0.13231677 -0.109623395 -0.0059083635 -0.072901554 -0.0037011579 -0.030685397 0.13180763
0.03383787 -0.06539335 0.0525876 -0.013832395 -0.11790811 0.16736601 0.09491568 0.116245665
0.042631764 -0.038084965 0.08624485 -0.021926945 -0.17227937 0.10234107 -0.0608738 0.13663498
0.17135341 -0.1633995 0.13871284 0.12132837 0.027223341 0.1597197 -0.04816952 0.093201876
0.028265875 -0.09942403 -0.043235615 0.14657463 -0.08165821 0.03298389 -0.11105924 -0.18178116
-0.077679984 0.05778872 -0.1745425 0.01941863 -0.11612823 0.017271124 0.12837966 0.07752951
-0.1594015 0.13424727 -0.037323434 -0.046944246 0.033500116 -0.17023262 0.050549146 -0.08530246
-0.14102848 -0.13944824 -0.08085458 -0.07534718 0.05695672 -0.011083758 0.090273686 0.017462725
0.088575475 0.17015845 -0.10225795 -0.04057466 0.088142134 0.08369577 0.030143134 -0.1802674
00000000: 1218 e6bd 93d4 17be defb 5fbd 6e18 d53d
00000010: e62a d23d 2028 d33d 6743 76bd b0d6 bc3c
00000020: 993a d6bd 35dd 863d 813b fabd b185 263e
00000030: 9f9b adbd 48ff 303e 7074 d23d 069b 173e
00000040: 23b6 103e 8c06 67bd 7f78 f0bb b098 0cbe
00000050: df19 22be ed80 893d 8c0f 0cbe 9e64 abbd
00000060: 2292 0fbe f717 28be 6ae1 043e 26c2 37bd
00000070: e03a d53d e996 063e 4cf1 f33d 0ee0 36be
00000080: dd46 2b3e a54b 7b3a b5bb 28be 0ef9 013d
00000090: 43f1 84bd 75fc 293e 13fa cbbd da6d 02be
000000a0: f553 4e3d fb39 b63d c3b1 5b3d 47a6 e73d
000000b0: abff d4bd a5d5 2a3d e76a 4fbd 135a 333c
000000c0: ea8d 61bd 23dc c2bd 099a 28be ed15 523d
000000d0: d6c8 c73c 9894 e13d 3f70 873d 3758 113d
000000e0: a75d fd3d deda ecbd 0da2 04be 7b0b cebd
000000f0: 7f8f 06be 1b64 853d eb3b d7bd c42c 243d
00000100: 03cc df3c a6aa 2b3e f65e 463d 1dc5 9cbd
00000110: 4957 26be 1c63 0abe f6f3 083e a50f f63d
00000120: 2ce5 d93d bc95 253e 3d3c 063d 5ca9 12bb
00000130: a068 c5bd 2657 90bb d0ed d93a 030b 023e
00000140: 55c0 1e3e 3bba ff3d e693 e5bd c249 843b
00000150: 40fa 6fbd e383 0ebe 78bc 103d 9387 133e
00000160: 8932 bd3d 29f7 213e b954 c93d 99f3 61bd
00000170: 5886 2b3d ec09 953d bf0b 72bd 7231 003d
00000180: d633 39be daab a13d 6b15 f9bc 8cdc 1f3d
00000190: e7f0 1abe 4117 e6bd e3c8 0dbe 179d d4bd
000001a0: b8be b73c fd28 ab3d 09f9 2ebe bfce acbb
000001b0: d21c 32be a29f 113e c388 323e 4a9b 463d
000001c0: 1012 febc 86ed 213e 6ce3 1fbe 7883 2abb
000001d0: c462 ff3d c0f7 cfbd f491 91bd 52f0 12be
000001e0: 23ef ddbc 0776 a63d 6b88 01be 7f21 cb3d
000001f0: f016 13be 589a 84bd 035c 2a3e d46b 76bd
00000200: d809 01be 831b f73d cc96 22be 7c6c 0c3e
00000210: 99a3 08be 2cdb db3d 9f14 463d 74b5 30be
00000220: a15e aebd 60cb 003e b952 f2bc a117 55bd
00000230: f89d f13b 92e1 853c 77ad 083e a70e 9c3d
00000240: 7006 b83d 3d3f d83d a9c7 cb3d 286e 193a
00000250: 740d c23d 02c6 e2bc ba29 a63d b697 88bd
00000260: a184 013e 8ca1 9d3d f8f3 9a3d 44a6 f1bd
00000270: 9d2b 1abe 4fa9 e5bd 8907 e6bd 6a44 4fbd
00000280: b4d7 113e 24b3 67bc 89c1 1ebe c653 0a3e
00000290: ac2e cdbd b54e 2ebd 5c5d b03d e7f2 3b3d
000002a0: 2d86 ccbd 5001 9c3d 8c45 ce3d b783 eb3d
000002b0: f9a2 623d f7dc 75bc 0bc2 80bd be60 2a3e
000002c0: 4236 c73d cb81 d53c 9dc9 09be ca12 ab3d
000002d0: 75ce 28bc db6b c4bd 0829 1cbe 0b20 2ebe
000002e0: 88bb c03d 0c7e 07be 3b82 e0bd f29a c1bb
000002f0: 694d 95bd 208f 72bb f15f fbbc 94f8 063e
00000300: 9499 0a3d f3ec 85bd 1866 573d 45a1 62bc
00000310: cf79 f1bd ff61 2b3e 2763 c23d 3512 ee3d
00000320: a59e 2e3d fbfe 1bbd 24a1 b03d 23a0 b3bc
00000330: 016a 30be 3298 d13d ce56 79bd 0aea 0b3e
00000340: 4577 2f3e 3352 27be bd0a 0e3e 027b f83d
00000350: 7c03 df3c 908d 233e 674d 45bd a0e0 be3d
00000360: d68d e73c d39e cbbd d417 31bd a917 163e
00000370: 6b3c a7bd 1e1a 073d 0773 e3bd d724 3abe
00000380: af16 9fbd ddb3 6c3d 45bb 32be d213 9f3c
00000390: a3d4 edbd 2c7c 8d3c f575 033e cbc7 9e3d
000003a0: 263a 23be 1e78 093e 75e0 18bd 9c48 40bd
000003b0: 6b37 093d 7651 2ebe 9f0c 4f3d 0eb3 aebd
000003c0: c569 10be 85cb 0ebe 1697 a5bd 9f4f 9abd
000003d0: 734b 693d a798 35bc 69e1 b83d fd0d 8f3c
000003e0: 0f67 b53d 043e 2e3e 9e6c d1bd 9d31 26bd
000003f0: dd83 b43d b068 ab3d bcee f63c 0498 38be
