result/model-morp-sum-norestrict/model.pt (torch_old, 269067 bytes, 21 tensors)

weight f4 [32, 4]
00000000: ba46 c3bf 310f 40bf 4b6b 27bf 9903 cebf
00000010: 5553 d0bd 4073 1bbf ad58 79bf b94c cebf
00000020: bbde 34bf 2932 9e3e 877f 45bf 5fbf 7ebe
00000030: b315 69be 12da d73f ae7b 693e 7870 ec3e
00000040: 000a 32bf d53a 94bf 4813 333f 0f0c 463e
00000050: 4a8a 5e3f 135b 7e3e 9077 28bf 90d5 4d3f
00000060: 91c3 8d3f 7f8c 2ebe 7356 0fc0 3ae6 b9bf
00000070: 4adf 883d ec83 1fbf 0ada 4abf faad 0bbe
00000080: 043c f13f 7d50 9abd 6a4d 273e 7155 47bf
00000090: 7994 503e 9683 2f3d f56c 223e 1ea9 f0be
000000a0: 5d5e e3bd 65e1 953e 29a2 21be 02d3 ebbc
000000b0: e8da 1640 84c7 84bf fc92 c93f ab3d 21bf
000000c0: 8b69 6dbf 658e 0b3f f2bd 873d b9c3 dfbe
000000d0: cb39 433f b80d e23e 4223 953f 2efc 0040
000000e0: dab5 0c3e 054b 703f 1277 3ebe 1507 25bf
000000f0: 0206 c53f 4b9d 5ebf 9f31 55c0 8e74 3fbf
00000100: 8aea d0bc 7ffc 82bf 979f 18bf 3bb5 80bf
00000110: 2ea9 57be 4051 f7bb dd32 d63f fa74 293c
00000120: 8136 34bf 51b6 3dbe 4309 7fbf 25cd 54bf
00000130: 140b ecbe 9061 0fbf f688 ca3e 8376 7bbf
00000140: 1ba9 01bf 0c57 cc3d cd6a 27bf 4750 3b3f
00000150: f599 b7bf 4935 00bf 99c0 2f3e 3dd5 23be
00000160: 525f 823e 4680 00bf 0b46 85bf dd75 3b3f
00000170: 0230 86bf d116 f1be d30f 953e 66cf fe3f
00000180: 7b54 293f 514f 983f 5e08 513f afdc 69bf
00000190: 744c b13f 3a58 50bf a875 6dbf d054 8e3f
000001a0: 05e8 aa3f adb1 1a3f 71d9 d3bd 9cd8 1abe
000001b0: 8788 06c0 c2b9 1ebf ac36 bdbf d313 91bf
000001c0: 1db1 5f3f 296d 0fbf 9694 a43f 5e1b 513f
000001d0: 3d3b 523e 0237 9c3e c922 093f 48c4 dcbe
000001e0: 8ab8 2340 f1f6 6ebe 35ba 5cbc 4829 ee3f
000001f0: f47d fdbf f737 e63f 9882 d03d 4415 ae3e
-1.5255959 -0.7502318 -0.6539809 -1.6094848 -0.10172144 -0.6072273 -0.97400934 -1.6117164
-0.7065236 0.30897644 -0.77147716 -0.2487769 -0.22762184 1.6863425 0.22801086 0.46179557
-0.6954651 -1.1580454 0.69951296 0.19340537 0.8692976 0.2483943 -0.6580744 0.80403996
1.1075307 -0.17045783 -2.2396514 -1.4523385 0.06683214 -0.6231067 -0.7923895 -0.13640586
1.884644 -0.07534883 0.16338125 -0.7786475 0.20369138 0.0428501 0.15861876 -0.47004026
-0.11101983 0.29273525 -0.15784515 -0.02878714 2.357111 -1.0373387 1.5747981 -0.6298472
-0.9273917 0.5451415 0.06628026 -0.43704012 0.7626006 0.44151092 1.1651385 2.0153918
0.13741246 0.9386447 -0.18600109 -0.6446393 1.5392458 -0.8695876 -3.3311536 -0.74787223
-0.025502462 -1.0233306 -0.59618515 -1.0055307 -0.2106063 -0.0075475276 1.6734272 0.010342831
-0.70395666 -0.1852658 -0.9962351 -0.83125526 -0.46102202 -0.56008244 0.39557618 -0.9822771
-0.5064866 0.099775404 -0.6539734 0.7316937 -1.4343859 -0.50081307 0.17163314 -0.15999313
0.2546335 -0.5019573 -1.0412 0.7322672 -1.0483401 -0.4708772 0.29113635 1.9907043
0.6614453 1.1899205 0.8165339 -0.9135236 1.3851457 -0.81384623 -0.92757654 1.1119633
1.3352057 0.6042736 -0.10344208 -0.15121692 -2.102083 -0.62002194 -1.478231 -1.1334175
0.8737963 -0.5602594 1.2857845 0.81682384 0.2053041 0.30510718 0.535687 -0.431185
2.5581384 -0.23336388 -0.01347213 1.8606348 -1.9804063 1.7985829 0.10181159 0.340006

weight_ih_l0 f4 [128, 105]
00000000: 7027 c53d 5bc6 243e d00e d6bd 2ec5 053d
00000010: a641 183e acdc ed3d c368 ec3d 19bc 063e
00000020: 034b da3d c7cb 233d 2d76 f0bd 926e 15be
00000030: c245 9cbd 1bbd 71bc 95ec dbbd b71d 903d
00000040: 3346 483d 34a8 0bbd 64b8 8e3d 2b12 813d
00000050: 8154 da3d e8b2 e73d b72d 5fbd 78e5 363e
00000060: 4f8b b8bc 8ad8 57bb a20e 25be f05a debd
00000070: 2530 ccbd fc9f 8ebd 5dbd 053e 3ffb 71bd
00000080: d76e 01be d903 973d b639 6e3d 47fb de3d
00000090: f8bc c5bd 4e5e 053d 8da0 8fbd 89d1 18bd
000000a0: 3153 16be 624e 9fbd 7dfc 62bd 5d6c a63d
000000b0: 2697 0d3d a0ea 1b3d 8110 2f3e 2f1c 2c3e
000000c0: f90f 013e abca 3b3c 93d8 fdbd 2152 0a3e
000000d0: a8af 4abd e45e 0cbc 3d19 19be 4aa6 26bd
000000e0: 98e4 e3bd fc09 273e def8 16be b1d2 09be
000000f0: 9eb8 67bb c5fb c6bd ae29 853d 996c 82bd
00000100: 3aa9 b1bd 9e9a 0a3c 9530 003e 1029 00be
00000110: dfc1 9e3d 8a8d ef3d 9322 363e 771c 04be
00000120: 7e74 463d 2e2f 0abe f33e 203e 720f 87bd
00000130: c572 d53d 0cda 39ba 0563 4cbc c338 03ba
00000140: 3938 d13c 7da2 9f3d 12a8 083d 14d3 743d
00000150: ae91 1dbe cc4e 083e 9aab 213e 3968 183e
00000160: 3803 073e 620e 06be 05e5 79bd 2ba3 213e
00000170: 538b 0fbe fbd7 293e 65e9 0bbe 0532 f4bd
00000180: 014c bd3d d58e 05be f58a 0ebd c08b 033e
00000190: 364b 153e 8fb7 2f3e 2638 2bbd 771a 11be
000001a0: c1c9 313e d8a0 16bd cd73 89bd 712e 1c3d
000001b0: 709f 04be afff e13d d04f d73d 2d0f 0fbe
000001c0: fb8b 1abe 55cc 1fbc 47ea 943d fbf0 ec39
000001d0: 0d92 abbd 1d28 1c3c 94c8 24be f828 f4bd
000001e0: 301b e5bd a9fe 1a3e 27a6 253e 5554 5ebd
000001f0: c62e 5d3c 309a 963d c8d3 7f3c 88fe c0bd
00000200: 4abe c43d 13d4 d23d 3f5a 91bb 3774 cbbc
00000210: d61b 2a3e 5454 1b3e 2d58 c1bd 9423 2b3e
00000220: 2096 1b3d c331 fcbd 1011 bb3d 4efe 0cbe
00000230: 7b41 2d3e 71d7 f4bd 8912 353d 53da 723d
00000240: 3dcb 313d 753c 103e 298f 8abd 96a5 8cbd
00000250: c975 22be 2814 e4ba 46d4 a5bd cca0 1b3c
00000260: 8244 2bbd 9120 843d c831 173e 22ae 6d3d
00000270: 9ce5 5fbd 2b21 a6bd b0fb 1fbe b882 123e
00000280: b32c 21bd 66b6 0d3d 4aff 493c 68aa dabd
00000290: bd47 c03d 71c1 d63d 2dad 6f3c 3a46 c4bd
000002a0: a8fe 8dbd 4d6d 093c a7cb dabd c9aa d5bd
000002b0: f0d9 d5bc d6f6 67bd 1ed6 493d f35f 53bd
000002c0: 8a04 93bc 95d3 7cbd bb8a 1fbe 356e 233e
000002d0: f415 223d 00d5 273e b579 f7bc 03d9 4bbd
000002e0: 8eb0 24be 70ca 7abd d4d7 f83d b0cf 35be
000002f0: 52f7 89bd bda1 d03d 0ec7 dc3d 8e8f 913d
00000300: 60be 04bd 5baa f8bb ff8f edbc fc15 73bd
00000310: c8ee a23d c055 5fbd f84c cabd a2b7 0c3d
00000320: 854c 08be d074 03bd 4ab8 c43d 0f3f 813d
00000330: d674 1c3e 84a9 ebbd b232 dd3b b7b0 5fbd
00000340: f03c c0bd c666 c8bd 22d2 383d 1e64 c73c
00000350: e2b5 acbd b68b 05be ae95 18be 090c 2e3e
00000360: b843 c6bc a2fd 34bd 2830 72bd 9602 adbd
00000370: 0dab 2bbe 3c73 e0bd 24f8 e83d 1be2 063d
00000380: 4a64 81bd 2e60 7abd 067c ef3d 65af fa3d
00000390: d111 343e 68ba 5c3d a923 bb3d ab3a 45bc
000003a0: 973d dfbd ab45 2bbe 14e9 d53d b419 fcbc
000003b0: 85e4 a03d a1df 6c3c 982e 23be 3be7 a5bd
000003c0: 5011 633d 0ece 05bd f578 34be 0bf0 773d
000003d0: 8489 243c 487c 6dbd ad4c 923d 7808 013d
000003e0: a783 80bd 2200 283e 30f4 b63d fbf9 e13c
000003f0: fc32 e8bc 6a01 17be d9f3 063e bdbd 52bd
0.09626663 0.16091292 -0.10452044 0.03265875 0.14868793 0.116143554 0.11543419 0.13157691
0.106588386 0.03998926 -0.1174129 -0.1459296 -0.07630493 -0.014754559 -0.10738484 0.07036918
0.048895072 -0.034095958 0.069687635 0.063022934 0.10660649 0.113134205 -0.054486956 0.17860973
-0.022527365 -0.0032935464 -0.16118863 -0.10857189 -0.0997012 -0.06964108 0.13060518 -0.059077498
-0.12639938 0.07373781 0.058160506 0.10887771 -0.096551836 0.03256064 -0.070130445 -0.037309203
-0.14680173 -0.07778622 -0.055416573 0.081261374 0.034567975 0.038065553 0.1709614 0.16807626
0.1260375 0.011461894 -0.12394824 0.13507892 -0.049483925 -0.008567546 -0.14951034 -0.04068593
-0.11127585 0.16312402 -0.14743373 -0.13459279 -0.0035357843 -0.0971599 0.065020904 -0.063683696
-0.086748555 0.008459715 0.12518533 -0.12515664 0.07751822 0.11696918 0.17786627 -0.12901483
0.04845094 -0.1349456 0.15649013 -0.06594743 0.10422281 -0.00070896815 -0.01247478 -0.00050057116
0.025539504 0.07794664 0.03336341 0.059771612 -0.15387604 0.13311309 0.15788117 0.14883508
0.13184822 -0.13091424 -0.061009426 0.157849 -0.14017992 0.16586296 -0.13663252 -0.11923603
0.09243012 -0.13042767 -0.03480049 0.12846279 0.14579472 0.17159866 -0.041801594 -0.14170252
0.1736212 -0.036774486 -0.0671154 0.038130227 -0.12951446 0.11035096 0.1051327 -0.13970633
-0.15092461 -0.009753306 0.07271247 0.00045192972 -0.08377466 0.009531048 -0.1609214 -0.11921877
-0.11186826 0.15136208 0.16176663 -0.054279644 0.013499921 0.07353628 0.015614457 -0.09423548
0.09606607 0.10294356 -0.004435807 -0.024835689 0.16612181 0.15168887 -0.09440646 0.1671279
0.037984967 -0.12314179 0.09134114 -0.13768885 0.1691951 -0.11955155 0.04420713 0.05929024
0.043406714 0.14085563 -0.06765587 -0.068675205 -0.15865244 -0.0017401027 -0.080971286 0.009498786
-0.04181338 0.06451524 0.14765084 0.058027394 -0.054662332 -0.08111795 -0.15623355 0.14307678
-0.03934927 0.034597777 0.012328932 -0.10677034 0.09388683 0.10486115 0.014628691 -0.09583707
-0.069333375 0.008387876 -0.10683375 -0.10432965 -0.026104897 -0.056631885 0.049276464 -0.051605176
-0.0179465 -0.061725218 -0.15580265 0.1596001 0.039571717 0.16389847 -0.030209402 -0.049767505
-0.16082975 -0.061228216 0.12150541 -0.17755008 -0.06736626 0.10187099 0.10780154 0.07107459
-0.03240812 -0.0075886673 -0.028999327 -0.059347138 0.079557 -0.054525137 -0.09877962 0.034354813
-0.1331044 -0.032093823 0.09605463 0.063108556 0.15278944 -0.11506942 0.006750428 -0.054611888
-0.09386623 -0.097852275 0.045122273 0.024339732 -0.08433129 -0.13041577 -0.14900848 0.16996779
-0.024202213 -0.044187196 -0.059127957 -0.08447759 -0.1676447 -0.10959479 0.11375454 0.032930475
-0.06317957 -0.06112688 0.116935775 0.12240485 0.17584921 0.05388871 0.09137661 -0.012037913
-0.10900419 -0.16725795 0.10444847 -0.030773975 0.07856087 0.014457614 -0.15935743 -0.08100744
0.055436432 -0.032667212 -0.17624266 0.060531657 0.010042552 -0.057979852 0.07143531 0.031502217
-0.06275111 0.164063 0.08933294 0.02758502 -0.028344624 -0.14746633 0.13178958 -0.05145048

weight_hh_l0 f4 [128, 32]
00000000: 96c8 17bd a9be 91bd 33a3 0f3e fd92 173e
00000010: 9924 143e 6768 bfbd 1906 fc3d 8af7 25be
00000020: 7e83 d0bb 3762 3bbd 331c ca3c 2e31 3dbd
00000030: 891e 0ebe 28d9 d7bd 6701 98b8 1769 d5bd
00000040: c61d 5ebd b6b3 9bbd 82b8 0ebe 53f0 193e
00000050: 14f1 1fbe 545d a03d 8f7f 07be 468b 06be
00000060: 88bc f23c 8235 143e cf80 9cbd 5432 0abd
00000070: 037c 9f3d e2e7 353e 08fb d43d 6041 15be
00000080: 6372 103e a2e5 413d c8d4 b53c 0705 073d
00000090: 7ee2 2ebe b747 12bc 0eea e33d de74 b23d
000000a0: 334f 143e d23c 663d 8cc3 173d 934a 553c
000000b0: c4ea 1b3c 8421 fc3d 71e4 86bd 6abc 093e
000000c0: 73fb 2fbe eac4 cebb 1e30 e13c d07b 26be
000000d0: 1e86 1abe 5b47 ee3d 5bc1 edbd 2a40 393e
000000e0: c03b be3d 7fb0 afbc 381c 233e 94b9 ccbd
000000f0: 3fba 2ebe dea7 9a3d ed84 efbd 3cbe 033e
00000100: 5a67 8b3d e658 42bd 3cfb 4e3d 3448 17be
00000110: 3943 1dbd 86b1 b5bd d06e 10be 46d3 283d
00000120: c4ad 95bd 528f 833d dd96 003e e2b6 13bd
00000130: 05db 523c 6c2c 2e3e 691b 0e3e 1ea4 51bd
00000140: 74d9 34bd da7a a7bc 7fb8 66bd 87bd f23d
00000150: 0e8e 0a3e 5ada da3c 4a3b d6bd 62d5 e9bd
00000160: 0cb8 ef3d 5630 133c fe60 16be 2430 07be
00000170: c24e d7bc a7b5 eebd 1e6b db3d 2320 01be
00000180: bfb5 8dbd b76a 283d fc69 673d 95cb 00be
00000190: af83 f33d 8789 893c 2353 1dbe b0fb 2a3e
000001a0: d666 e23c 991c 1ebd f106 febc 9902 cb3d
000001b0: 0377 f83c 4bdc 87bd fb23 c03d d53d e03d
000001c0: 9b52 ccbd 4a89 303e e9f3 27be f5ff 23be
000001d0: 805d 4fbd 8a61 2ebe d1a3 373d 7458 1e3d
000001e0: 5c6e df3d b66d 003e c10c 33be 567b a6bd
000001f0: 7b72 98bc 772d 313e c66c ebbc e04d eebc
00000200: b425 cc3d ad12 723d f07e 34bc 9c26 bbbd
00000210: e11b ac3d 879a 54bd 37f4 0cbd 7eb3 443d
00000220: b985 ddbd a11b 253e e081 1cbe edaa 50bd
00000230: c70b 31be 3631 8cbc eeb6 213d b2f0 573d
00000240: 0ca9 dcbc 066c e63c fc95 75bc 1737 8a3d
00000250: ddb7 ed3d c494 5bbd f61d aebc a7ea 383b
00000260: 34a6 373d 4daa 1a3c 00ea f7bc 10fd 273d
00000270: 5f8c bdbd 3092 b5bc 5b2d 0dbd e698 473d
00000280: 878a 403c e4a5 25be 9122 d03d be9b 8ebd
00000290: 36ef 9d3d 92b1 8fbc 4a83 a0bc dde6 e43d
000002a0: efb0 a63c 7924 dd3d 3345 86bc 1687 273e
000002b0: 1fd4 b3bd 33ac 03be 8b38 a7bd e673 d53a
000002c0: 55b4 083d 3f8f f0bd 1939 f0bd 4f67 f03b
000002d0: ed66 883c a60d 4cbd bb0d 8ebd 8844 4a3c
000002e0: dd89 36be 37a8 723d 4ae1 15bd f545 df3b
000002f0: 6c43 47bb e3e9 83bc 9640 f0bc 8ccc 1d3e
00000300: 5d95 043e b5e1 c93c 3320 513d 270e ad3d
00000310: 3f5a 8bbd e920 fb3d fd66 5c3d c0e5 203e
00000320: f962 b03c 74b2 c03c 5846 083d 4f10 373c
00000330: 0bd8 30be 9131 dfbd 6339 ccbc 931c aebd
00000340: 50f4 eebc 9c04 463d dad0 403c 8879 47bd
00000350: 2184 f3bd b041 393c e5e3 0fbe 6a00 823d
00000360: 86a6 d5bd 5289 593c da28 3cbd 0aef e93c
00000370: afe9 4e3c 4dc2 b1bc 1d9b 1e3e 8f2e e53d
00000380: 9642 303e be4e b6bd 8e86 2dbe 8137 16be
00000390: 99bb 8c3d bacb 413d b7c6 f1bd 0185 f33c
000003a0: 5470 333e 6da8 eb3d ff39 ecbd 5ff1 fc3c
000003b0: 3e07 a73d c04c 5f3d 0e30 183e 6ac7 733d
000003c0: 1d3d e5bd 10f6 26be 5979 f53d 3b2f fbbb
000003d0: 05d6 fd3d c72d e8bd 6eb9 a53d 0c7d 92bd
000003e0: 23ab 523d 79b9 dc3c e6df d3bd 7002 543d
000003f0: 4a82 87bc f046 123d 9d09 20bc b20e 0bbd
-0.037056528 -0.07116444 0.140271 0.14802165 0.14467086 -0.09346085 0.123058505 -0.1620771
-0.0063633313 -0.04574796 0.02467165 -0.04618948 -0.13878836 -0.10539466 -7.248186e-05 -0.10420435
-0.054227613 -0.076026365 -0.13937572 0.15033083 -0.15619308 0.07830301 -0.13232253 -0.13139066
0.029630914 0.14473537 -0.07641756 -0.033739403 0.07787325 0.17764238 0.10399443 -0.1457572
0.14106135 0.047338136 0.022196189 0.03296378 -0.17078587 -0.008928231 0.11128627 0.08713697
0.14483337 0.056210347 0.037051722 0.013018268 0.009516422 0.1231108 -0.065865405 0.1345078
-0.17185764 -0.006310095 0.027488764 -0.16258168 -0.15090224 0.11634704 -0.11609145 0.18090883
0.0928874 -0.021446465 0.15928733 -0.09996334 -0.17063235 0.075515494 -0.116952755 0.12865537
0.06806822 -0.04744806 0.050532565 -0.14773637 -0.038394187 -0.088717505 -0.14104772 0.04121711
-0.07308534 0.064238206 0.1255755 -0.036063083 0.012869601 0.17009133 0.13877644 -0.051181905
-0.044152692 -0.020444322 -0.056328293 0.11852556 0.13530752 0.026715446 -0.10460527 -0.11417653
0.11705026 0.008983692 -0.14685437 -0.13201958 -0.026282672 -0.11655741 0.1071379 -0.12609915
-0.06919431 0.041117396 0.05649756 -0.1257766 0.11890351 0.016789211 -0.15363745 0.16697574
0.027636927 -0.03860149 -0.03100917 0.09912605 0.030330187 -0.066338144 0.09381863 0.109492935
-0.09976693 0.17239872 -0.16401638 -0.16015609 -0.050626278 -0.17029396 0.044833962 0.038658574
0.10909721 0.12541851 -0.17485334 -0.08128993 -0.018609276 0.173025 -0.02873839 -0.029089868
0.09968129 0.059099842 -0.011016592 -0.091382235 0.08403755 -0.05190518 -0.03441259 0.04802274
-0.10816521 0.16123821 -0.15283918 -0.050944258 -0.17289649 -0.01711331 0.039481096 0.05271978
-0.026936077 0.028127681 -0.014989372 0.06748789 0.11607335 -0.05360867 -0.02125452 0.0028216036
0.044836238 0.009440017 -0.030262947 0.041012824 -0.09255289 -0.022164434 -0.034467082 0.0487298
0.0117517775 -0.16176564 0.10162843 -0.06963299 0.077116415 -0.017540727 -0.019593854 0.11176846
0.02034804 0.10797972 -0.016390419 0.16360125 -0.08780693 -0.12858658 -0.081650816 0.0016285151
0.033375103 -0.11746072 -0.117296405 0.007336534 0.016650641 -0.049817704 -0.06936213 0.012345441
-0.17826028 0.059242453 -0.036591806 0.0068137594 -0.0030405177 -0.016102737 -0.029327672 0.1541006
0.12947603 0.024643758 0.0510561 0.08449965 -0.068043225 0.122621365 0.053809155 0.15712643
0.021531569 0.023522593 0.03327021 0.011173322 -0.17269914 -0.10898126 -0.024929708 -0.08501544
-0.029169232 0.04834424 0.011768544 -0.048699886 -0.11890436 0.011307165 -0.14051779 0.06347735
-0.104321525 0.013277369 -0.045937397 0.028556366 0.012628957 -0.021699095 0.15488859 0.11190521
0.172129 -0.08901738 -0.1694586 -0.1466961 0.06871719 0.04731343 -0.1180548 0.029726507
0.17523319 0.11506734 -0.115344994 0.030876813 0.08155678 0.054516554 0.14862081 0.059516348
-0.11193297 -0.16304803 0.11986036 -0.0076655424 0.123943366 -0.11336856 0.080920085 -0.07152757
0.05143274 0.026943909 -0.103454396 0.051760137 -0.016541619 0.035712183 -0.009767917 -0.03394956

bias_ih_l0 f4 [128]
00000000: 93af 53bd 86f1 123e 445f 85bd 35a7 afbb
00000010: 0ab5 d7bd 2304 efbd 92bd 07be de24 0a3e
00000020: 892f 083e 9fe8 f33d 19b7 b23d 93ae f43d
00000030: 73b0 07be 863d e8bd 35dc 2a3e 449b 2c3e
00000040: 870e 223e c2fd 28bc e87d 0d3e 3b35 103d
00000050: aafb 4abd 22eb ac3d 7834 05be db24 2ebe
00000060: 9b69 adbd 258a afbd 5909 703d 2f06 77bc
00000070: b5ea 9ebd 67c7 533d 60f9 a23d 9cc7 903c
00000080: e837 e03d 8ab1 9dbd 5db8 013d 0c5d debd
00000090: b974 89bc 269f 253e 9368 993d 921e 523d
000000a0: 633a b9bd 1cae 3e3c ae44 c93c be8f 2abe
000000b0: 3603 29be 65b5 9ebd db55 d33c 7106 8b3d
000000c0: c69d 0dbe 6dc1 a2bd ab0c 8b3d 8fa1 b1bd
000000d0: 8aa7 3d3d 2139 993d 9aac 81bd 8cd6 1f3e
000000e0: 34a4 023d eab3 353b aaca 463b 34c0 1dbe
000000f0: 6a78 a33d 7b13 d4bd 427e 0f3e bd72 e3bd
00000100: 5376 cfbc e56e dfbd 6875 36bd f696 1c3d
00000110: e883 16be 8e05 233d 26ee d0bc c508 5b3c
00000120: 1a04 163e 9c7a 843d ca7a 683d 6358 08bd
00000130: f296 e43d bda6 a73d 0883 18be 1490 acbd
00000140: 2946 09be 0743 6fbd b955 fc3d 5082 d6bd
00000150: cb63 e63d dd1e febd 4396 153d 569e 133e
00000160: b67b d1bc 86ee 333c 1139 763d f089 a83d
00000170: d342 203d a765 8ebd e5f8 f93d 9ab6 783d
00000180: 229d 2a3e 91a8 553d 4b8e cbbd 9537 23bd
00000190: a692 9a3d 80b2 a23d bd0e 19bc 24fa 563d
000001a0: 5614 20bd cdd8 0d3e ec11 b03d b1f1 b2bd
000001b0: 5d93 853d 7312 013e c2be e6bd 01d8 62bd
000001c0: 4577 7c3d bf4e ef3d 6f72 1c3e a8a5 083d
000001d0: 3886 0e3e 39fd b0bc 4331 2a3e 8593 39ba
000001e0: a1aa 8f3d 70bb 8f3d e302 35be 68fe 9ebd
000001f0: 78b2 c0bc 2a09 a03d 9dff 103d 99b6 643d
-0.051681112 0.14349946 -0.06512311 -0.005360509 -0.10532577 -0.11670711 -0.13255909 0.13490626
0.13299383 0.11909603 0.08726329 0.1194736 -0.13250904 -0.1133986 0.16685565 0.16856104
0.15825854 -0.010314407 0.1381756 0.035207015 -0.04955641 0.084432855 -0.13008296 -0.17006247
-0.08467408 -0.08571271 0.058602665 -0.015077158 -0.077596106 0.051703837 0.07957721 0.017673306
0.10948163 -0.076998785 0.031669963 -0.10857591 -0.01677929 0.16173992 0.07490649 0.051298685
-0.090443395 0.011638191 0.024568882 -0.16656396 -0.16505131 -0.07749442 0.025797775 0.06788338
-0.13829717 -0.07947049 0.067895256 -0.08673393 0.046302356 0.074815996 -0.06331749 0.15609187
0.031894878 0.0027725645 0.00303332 -0.15405351 0.079819515 -0.10355278 0.14013007 -0.11105869
-0.025324976 -0.10909823 -0.04454556 0.038229905 -0.14698756 0.03980022 -0.025504183 0.01336879
0.14650002 0.064686984 0.056757726 -0.033287417 0.11161603 0.081861 -0.14893734 -0.08425918
-0.1340567 -0.05841353 0.12321038 -0.10474074 0.11249503 -0.124082305 0.036520254 0.14415869
-0.025571685 0.010982161 0.060113017 0.082294345 0.03912623 -0.069529824 0.12205676 0.060721017
0.16661504 0.05216271 -0.099392496 -0.03984793 0.07547502 0.079442024 -0.009341893 0.052484646
-0.039081894 0.13852234 0.08597168 -0.08737505 0.06522248 0.12604694 -0.11266853 -0.05538178
0.06163718 0.116849415 0.15278028 0.033361107 0.13918388 -0.021605121 0.16620354 -0.0007079172
0.07014967 0.07018173 -0.17676882 -0.07763368 -0.0235226 0.07814248 0.03540002 0.0558382

bias_hh_l0 f4 [128]
00000000: 7510 e73d 168a c03d 34f1 01bd fa91 d23d
00000010: d2a8 73bd ce65 41bd 8318 33be 78c2 9b3d
00000020: 619b 0a3e 0fd6 54bc 460b 2abe 088f 04bb
00000030: cb25 fbbd f860 e2bd 128a 30bd e28e c93d
00000040: 805c e53d b4d8 18be 0884 d9bd 3223 c1bd
00000050: ab58 a93d 329d 4fbc 2bd6 acbc 9f55 af3c
00000060: 7f78 1e3c feff 0dbe 3c2b df3c 4cc8 633d
00000070: 53b4 253c 9925 813d c1d1 213d 2abc 07be
00000080: 5f7c 303e b583 ca3d d684 233e 5687 b83b
00000090: 0656 cb3d a7ff 06bd 7e16 ec3b a284 d73d
000000a0: cbd9 d0bd cbc0 1cbe 9013 073d 5439 d43d
000000b0: bcf7 1e3e 0315 80bc eed5 87bd f809 10be
000000c0: d5b1 213e 47c9 93bc fec1 91bd b16f f1bd
000000d0: be4e 67bd 2636 063e 430c ca3d 80f4 2ebe
000000e0: 1ff3 803d b5cc 46bd 5452 113e fd15 bdbd
000000f0: aebc bfbc d467 7e3d f994 57bd 495e f0bd
00000100: b720 40bc e131 393e f6c5 2abe d5b8 dc3d
00000110: 125e f63d c0a6 113e 02ff aa3c 0da0 c6bc
00000120: 651b 0bbe e7c9 353e 6593 3e3b 1c3b 96bb
00000130: c4b4 c33c c40f 12bd c6a7 75bc ee54 913d
00000140: 731f f43d 29ab ce3d 9007 39be b328 62bd
00000150: 70a8 d6bc bfb8 613d 17d8 0fbe cdad 0dbd
00000160: a0c5 b0bd 7700 0dbe b599 17bb e80e fb3d
00000170: 26fa fa3c 9a12 64bd 704b 00bb 97ab a5bd
00000180: a865 273e 52dd 973d 45ba f2bd 5d8c 3abe
00000190: d321 d7bd 79f9 ccbd ba13 153d 5fa6 d8bd
000001a0: bf87 20be e602 74bd 960d d1bd cd36 afbd
000001b0: f994 ed3d ab97 bcbc 49bf 11be 3529 debd
000001c0: 9a12 293e d133 f1bb 4fa4 adbd d2e4 94bc
000001d0: 5f77 523d 0d57 073e e8b5 5bbd e03b 25bd
000001e0: 62de 9bbd 9885 0dbe 0501 963d 6a04 023c
000001f0: 83b6 773b 0f1e 153c 759c 743c 0e9f 263e
0.11282436 0.09401338 -0.03172417 0.10281749 -0.05948717 -0.04721623 -0.17489819 0.07605451
0.13535835 -0.012990489 -0.16605863 -0.0020226855 -0.12263068 -0.110536516 -0.043100424 0.09841706
0.111992836 -0.14926416 -0.10620886 -0.09430541 0.08268865 -0.012671756 -0.021098217 0.021403132
0.009672283 -0.13867185 0.027242295 0.05561094 0.010113793 0.06305999 0.039506678 -0.13255373
0.17234944 0.098884024 0.15968642 0.0056313677 0.09928517 -0.032958653 0.0072048297 0.105233446
-0.10197791 -0.1530792 0.03297764 0.10362497 0.1552419 -0.01563502 -0.06632601 -0.14066303
0.15790494 -0.018040312 -0.07117079 -0.117888816 -0.05647158 0.13106593 0.0986562 -0.17085457
0.06296372 -0.048535068 0.14191562 -0.092327096 -0.0234054 0.062110737 -0.052632306 -0.117367335
-0.01172655 0.18085434 -0.16677079 0.107774414 0.12029661 0.14223766 0.02087355 -0.02424624
-0.13584669 0.17752801 0.0029079553 -0.004584683 0.023889907 -0.035659567 -0.014993614 0.07096277
0.11920061 0.1009124 -0.18069291 -0.055214595 -0.026203364 0.05510783 -0.14047275 -0.034589577
-0.08631444 -0.13769709 -0.0023132388 0.122587025 0.030636858 -0.055681802 -0.0019576214 -0.08089369
0.16347373 0.074152604 -0.11851934 -0.18217607 -0.10504498 -0.10008521 0.036395766 -0.10578608
-0.15676783 -0.059573077 -0.102076694 -0.08555374 0.1160068 -0.02302154 -0.14233126 -0.10847703
0.16511002 -0.0073609133 -0.08478605 -0.018175516 0.051383372 0.13216801 -0.053640276 -0.040340304
-0.076107755 -0.13820493 0.07324413 0.007935623 0.0037797994 0.009101405 0.01492988 0.16271612

weight_ih_l0_reverse f4 [128, 105]
00000000: 7001 353d 082f c83d d51b 463c 9211 4f3d
00000010: 432c a9bd 7f98 e83d d734 b8bd 868f 0b3d
00000020: 2921 d03d b98e 22bd ffba a1bd b9ce 8f3d
00000030: 6b55 4cbc 1898 07bd a70e d73c cf5c 233d
00000040: 8d1b e63d 4b06 9ebd f292 56bb 3f03 313e
00000050: e6cc 103e ba41 c7bd d3f8 01be 4725 673c
00000060: a1d5 91bd 5542 8cbd 4563 29bc d0b1 b1bd
00000070: 35af d4bd 3dea 4bbd fba0 5a3d e74f 00be
00000080: 72c2 223e 3d1c 143e dc48 643d db14 55bd
00000090: 5522 7a3d a035 20be 48ce ad3d a593 c83d
000000a0: 3e93 e63d e569 053e 06d2 e23d a477 31be
000000b0: 1d24 acbd 19dc 17bb 9431 033d 9e9a 073e
000000c0: b597 33be db04 d2bd f234 4e3d d800 9c3d
000000d0: ee8b 113d 54f7 d43d 518a 233e 9862 263e
000000e0: e20d 603d b16e 13be fc98 01bd 13f7 cbbd
000000f0: 2e9a c8bd 0b55 163e 2928 003d 15c9 e2bd
00000100: 8782 da3d f8c1 22bd e570 c0bd 628a 0f3c
00000110: 3f1c ccbd c920 b6bd b594 b2bd 683b d1bd
00000120: c032 67bd f9e9 f03d 5c3f 26bd b785 293e
00000130: 2f4f 0a3d 5c92 88bd acd9 5dbc 00b7 b6bc
00000140: 237b 863d d56b 243e ff8e b73c b393 31be
00000150: 2cfc 2a3d dde0 823d 97b5 06be 0a7c ecbd
00000160: 6588 5d3d f9a2 2dbe c35c 06be 9338 1b3e
00000170: 09db b2ba 18a5 dbbc b567 a23d 6cf1 a43d
00000180: c106 a7bc 3b0c 2e3d 53bb 0b3e 1e22 2a3e
00000190: 2523 9fbd e45c 4dbd fe21 f53d 36d5 f43d
000001a0: a35d 5fbb 242e 3a3d d9e3 123e d004 debd
000001b0: c00d 9e3c b8b9 cd3c 1360 0abd 5dd3 afbd
000001c0: 323d 78bc 02c9 1ebe 4c50 0bbe 1f2e bcbd
000001d0: ab5e 22bd 6110 d2bd 76f1 673d 85d6 2abe
000001e0: c349 82bc fbc9 07be d13c 303d edc1 26bd
000001f0: 3331 d23c f782 09bd e3de 15be 1e94 043e
00000200: 3c57 eebd d0e4 6a3d 4486 383e bd7d 083e
00000210: a2d8 353e bf0e f7bd 0ca5 093e 1049 2cbd
00000220: 7803 bcbd 0fb2 fdbd c535 2f3e 31eb 863d
00000230: f429 173d bcb2 2e3e 6592 7dbd 3e88 a6bd
00000240: de97 84bd 155e a0bd 7220 6d3d b090 353d
00000250: 7427 763b 1084 a03d 4b4b 1bbe a88b a73d
00000260: 98f9 a0bd cb5f 0c3e 3715 c0bd 471d 113e
00000270: bb56 86bd 9010 873d fa71 6e3c f83f dcbc
00000280: d616 013e 1700 9c3d 0122 753c 5710 df3c
00000290: d63c babd d758 823d 0061 52bd 44be ba3d
000002a0: bc8f 2cbe bdeb f93d b3c3 ecbd 0079 2dbe
000002b0: 0a91 203d 0d58 2d3e 8f54 2ebd a9da 293e
000002c0: 2903 f43d 5dbc 06bd 0fb3 06be 8b8a e0bd
000002d0: c651 133e fee7 843d 3fc6 093c 15fc 86bd
000002e0: a0a0 303e a759 023e 3d48 edbd 9d53 efbd
000002f0: d980 08be 493c 693d 41ec 87bd a347 18bd
00000300: ba70 d8bd 323d 05be ed64 533c 4976 20be
00000310: 4fc1 6fbd 996d 0e3d dc53 943d 6e7a 1dbe
00000320: ebd6 0e3d a3b8 293e bd57 91bd 6bf4 c2bd
00000330: 5c16 6f3d 1844 c9bc 801a a2bd 5c05 993d
00000340: 490a 23be 224a 0ebe 2ab8 a43d fe10 b53d
00000350: 97f9 203d e55c 2f3e cde5 1bbe f054 0e3e
00000360: 5fb7 e6bb 6f48 ff3d 51a1 c83d b629 8b3d
00000370: bdca 1dbe f781 833c c16c c6bd a1ad 58bc
00000380: 8137 283e 5a30 94ba 2609 83bd e242 81bd
00000390: a5ad fabc 868f 923d 7e7f 0f3d 0bad 103d
000003a0: 11cb 04be 24e7 223e c2c4 3bbd 089f 9c3d
000003b0: 9d5c 0cbe 2e52 b93d bd9a af3d 56f6 083e
000003c0: 4ac3 c93d 7a44 36be 7355 76bd 73ac a93d
000003d0: bdca b93d 45ee 06bd 851c cc3d 9f53 253e
000003e0: 50e4 563d 9100 4e3d 5281 2a3e 82e5 1f3e
000003f0: f4e5 2cbd 9a86 08ba 8763 97bc b0ca c73d
0.044190824 0.097745955 0.012091597 0.050553866 -0.082603954 0.11357211 -0.089944534 0.03407242
0.10162575 -0.039686892 -0.07896995 0.07021851 -0.012471537 -0.033104032 0.026252104 0.03988343
0.11235724 -0.07716044 -0.0032741395 0.17286395 0.14140663 -0.09729333 -0.12692575 0.014108009
-0.071208246 -0.06848589 -0.010338609 -0.08676493 -0.103849806 -0.049783934 0.05337618 -0.1253048
0.15894488 0.14463897 0.055733547 -0.052021842 0.061067898 -0.15645456 0.08486611 0.09793786
0.11258553 0.13028677 0.11075215 -0.17330796 -0.084053256 -0.002317196 0.032029703 0.13242576
-0.1753834 -0.10254832 0.05034346 0.076173484 0.035533838 0.103987366 0.15970732 0.16248548
0.05470074 -0.14397694 -0.031640038 -0.09959235 -0.097950324 0.14680879 0.0312883 -0.110735096
0.10669427 -0.039735764 -0.09396533 0.00876102 -0.09966325 -0.08892972 -0.0871977 -0.10216409
-0.056444883 0.11763377 -0.040587768 0.16554914 0.03376692 -0.06668541 -0.013540667 -0.022304058
0.06566455 0.1605676 0.022407053 -0.17341499 0.041744396 0.063905455 -0.13155209 -0.11547096
0.054085154 -0.169567 -0.13121323 0.151583 -0.00136456 -0.026812121 0.07929937 0.0805386
-0.020388963 0.042492133 0.13645677 0.16614577 -0.07770375 -0.050137416 0.11969374 0.11954729
-0.0034082911 0.04545416 0.1434473 -0.10840762 0.019293666 0.025112972 -0.03378303 -0.08585236
-0.015151309 -0.15506366 -0.1360485 -0.091884844 -0.039641064 -0.1025703 0.05662676 -0.16683395
-0.015904313 -0.13260643 0.04302675 -0.040712286 0.025658226 -0.033572163 -0.14635806 0.12947127
-0.116377324 0.05734712 0.18019968 0.13329215 0.1775842 -0.120633595 0.13441867 -0.042061865
-0.09180349 -0.123874776 0.17110355 0.06587828 0.036905244 0.17060369 -0.06190719 -0.08131455
-0.06474279 -0.07830445 0.05789227 0.044327438 0.0037560137 0.07837689 -0.1516544 0.08180934
-0.07860106 0.13708417 -0.093790464 0.14171325 -0.06559511 0.06594956 0.014553541 -0.026885971
0.12606367 0.07617205 0.01496172 0.027229471 -0.09093635 0.06364601 -0.051362038 0.091183215
-0.16851705 0.12203167 -0.11560764 -0.16940689 0.03920082 0.1692812 -0.04256111 0.16587318
0.11914665 -0.03289448 -0.13154243 -0.10963925 0.14386663 0.064895615 0.008409082 -0.065910496
0.17248774 0.12729512 -0.11586044 -0.1168587 -0.13330401 0.056942258 -0.06636859 -0.037177693
-0.10568376 -0.13011625 0.012902481 -0.15670122 -0.058533963 0.03477249 0.072425574 -0.15378734
0.03487293 0.1657434 -0.07096813 -0.09519275 0.058370933 -0.024568602 -0.07915211 0.07471725
-0.15921892 -0.13895467 0.08042939 0.08841132 0.039300527 0.1712528 -0.15224381 0.13899589
-0.0070409025 0.124649875 0.09796394 0.06795065 -0.1540937 0.016053183 -0.09688712 -0.01322499
0.16427423 -0.0011305914 -0.06398229 -0.06311585 -0.030600378 0.07156281 0.035033695 0.035321277
-0.12968089 0.15908486 -0.04584194 0.0764752 -0.13707204 0.09048878 0.08574436 0.1337522
0.098517016 -0.17799559 -0.060140084 0.08284845 0.090718724 -0.032942075 0.09966377 0.1614518
0.05246383 0.05029351 0.16650894 0.15614894 -0.042211488 -0.00052080455 -0.018480076 0.097554564

weight_hh_l0_reverse f4 [128, 32]
00000000: cbc3 fa3d 850b 92bd ec9d debd a31e 543c
00000010: ef73 0a3d 2ddb 753d b4ba 29be 6b2c 873d
00000020: b7ef a43c 9f78 e2bd b8ae 0dbd f787 71bd
00000030: 141a 51bd 393b eb3d ed7d 48bd 63a4 c0bd
00000040: ba16 1a3e b3df d23c 7f79 a5bd 4838 1cba
00000050: d67c eb3d dfab e93d 9421 13be da43 2e3c
00000060: 0a2b d13d 752d 13be 29f7 3fbd 5592 01be
00000070: eb81 563d 960b 58bc 263d 63bd 7c6b 2b3e
00000080: 1856 6c3d 7d07 293e 3fec 043e bd51 ddbd
00000090: d44e 663d 18c2 1b3e 8fc3 09be 89a1 023d
000000a0: 9159 893d 38ae 22bd 99be 3e3d 69e1 8dbd
000000b0: 4326 da3d d317 90bd b29e 243e ce0f e1bd
000000c0: f045 173d 7147 20be 4470 f8bc c75a 7f3d
000000d0: 8d6b 883d c963 17bc 7f9b 083e 241c 833d
000000e0: 9b7b 36be 7ea0 cd3d b25c 1f3e 850d c83d
000000f0: a840 683d 31e2 05be f0d8 3abc eb98 aabd
00000100: e821 203d 2646 0b3e 4ce3 f3bc 8f6b 9fbd
00000110: 4c7f b2bc b779 cabc c8af 783d bc31 6d3c
00000120: 4eb9 d4bd 114c d5bd 2ee1 83bd 5ca8 0abe
00000130: 76e2 343e 3439 473d 3e56 143e a188 08be
00000140: 17c4 c43d 167e ccbd 5c2e 383d 5813 133d
00000150: 5153 18be 6837 df3d ea9b 033e ad93 933d
00000160: 66c0 0c3e 4724 2dbd e39f 963d 8ec0 963c
00000170: d660 03be 67ca 05be 4b97 95bd 152e 3d3c
00000180: 41b0 f43d 56fa c23d 3c13 3b3c ff82 bf3d
00000190: 9306 c33c 9473 94bc d614 92bd cd34 11bd
000001a0: 6041 c93d 0d06 c5bd eaad 02be 2335 083d
000001b0: fdf9 e93c 81f8 bdbd 9f54 c8bd 7e26 13bd
000001c0: 7c7e 5a3d 7326 033e 6276 6e3d 89dd e03d
000001d0: 86d1 c8bd 4e77 383d 47f7 26bc 06ae e53d
000001e0: f8b0 df3d a0b7 943d a16d 84bd f6ae 2e3e
000001f0: 18aa a53d 8df2 a4bd f015 003e 647b 60bd
00000200: eb46 743d 26ab 24bb 15a4 f1bd 862e f2bd
00000210: c457 dfbd af6a 25be e232 f13c 9395 393e
00000220: 54ee 07be 9b86 4dbc 4ed9 853c 92f7 efbd
00000230: 5c25 b13d 17d8 303b 7dc0 01be ad6d 2fbc
00000240: 5509 21be 6c33 39bc fd2f ec3d 7d28 0dbe
00000250: e0ad 9dbd 143b 6e3d 62d9 c0bd 3e27 a9bd
00000260: a0ab 1c3e 5b4c fb3c 7560 dcbd 11b6 1fbe
00000270: 7fd4 ecbd 80bf 223e 2afe edbc 12b8 033e
00000280: 027f 64bd 7d3e 1bbe 6766 97bd 5cbd 64bd
00000290: 896f 2e3e ab13 54bd 5fc5 7fbc de6b 113e
000002a0: 6b22 d63c decc 30be 2e67 323e 8b5b 42bd
000002b0: 4f57 ccbd 11f3 f43d 84d8 29bd 3236 1ebe
000002c0: f05b ba3d 1297 d83d 2864 d33d b35b 9f3d
000002d0: 3144 40bc 59ed 29bd abc6 c33c bbcf 063e
000002e0: 2534 383d ed17 e53d 27f9 cebc 7f53 3a3d
000002f0: fdd6 203e 0dc2 b13d 4f80 843d eb27 253d
00000300: 4784 cebd 1d35 1f3d 5344 16be d285 bebd
00000310: 93cb 2fbe 657a d0bd b265 fbba 3771 4e3b
00000320: 60a1 323e d5ab 253e b230 1cbe 9593 913d
00000330: 3c8c 1f3e 9a29 adbc a5ca 153e 929c 33be
00000340: b399 243d 5eaa 473d 8971 b0bd 91f7 fabd
00000350: 16ee b33d b3fa 36be 74f7 88bd ac7f b7bd
00000360: 4368 9ebd d460 cd3a 1bb2 bd3d ed86 df3d
00000370: 021d 9f3c 6fad bbbd a89e 343c ea04 a2bc
00000380: e1e5 103e ee31 0dbe 6b42 04be dc16 a5bd
00000390: 6e71 9ebd 421b 01be aff0 f33c e0fb bdbc
000003a0: f217 2e3e af4a 663d bf11 3f3d 5e0f 1e3e
000003b0: 1002 0cbe 015f c23c 26ee c6bd 5545 253d
000003c0: b56f 2c3d 2694 973d b8e1 bbbd be92 5dbd
000003d0: fa36 7a3c 8228 97bd 9fed afbd ab94 7e3d
000003e0: ab12 203d 94be 19be e5c3 2cbe 6ecf 06be
000003f0: c122 793d eea8 8a3d 9ccb 233e d324 bd3b
0.12244376 -0.071311034 -0.10869965 0.0129467575 0.03380197 0.060023475 -0.16575128 0.06600269
0.020133836 -0.11058163 -0.034590453 -0.058967557 -0.05105026 0.11485905 -0.048948217 -0.09406354
0.15047732 0.025741434 -0.08079814 -0.00059593143 0.1149842 0.11409735 -0.14368278 0.010636294
0.10213287 -0.14372809 -0.04686657 -0.12653477 0.052369993 -0.013186356 -0.055478238 0.16740221
0.057699293 0.16506763 0.12980746 -0.10806606 0.05622752 0.1521076 -0.13453506 0.031892333
0.067065366 -0.03971693 0.046568487 -0.06927759 0.10651829 -0.07035794 0.16076162 -0.10989343
0.036931932 -0.15652253 -0.03032697 0.06234243 0.06661139 -0.009240099 0.13340567 0.06401852
-0.17820589 0.10040377 0.15562704 0.09768204 0.056702286 -0.13074566 -0.011404261 -0.08329948
0.039094836 0.13600978 -0.02977147 -0.07784187 -0.021789216 -0.024716241 0.060714513 0.01447719
-0.103869066 -0.10414899 -0.06439434 -0.13540787 0.17664513 0.048638538 0.14486024 -0.1333337
0.09607714 -0.099849865 0.044966087 0.03590712 -0.14875533 0.1089924 0.12852445 0.07205901
0.13745269 -0.042270925 0.07354715 0.018402364 -0.12829909 -0.13065492 -0.073042475 0.011546631
0.1194768 0.09520404 0.01141816 0.093511574 0.023806846 -0.018121518 -0.071328804 -0.035450745
0.098269224 -0.09620295 -0.12761655 0.0332538 0.028561587 -0.09275914 -0.09781765 -0.03592538
0.05334328 0.12807636 0.058218367 0.109797545 -0.098055884 0.045035653 -0.010190791 0.11214833
0.10922426 0.07261586 -0.064662226 0.1705893 0.080890834 -0.080540754 0.12508368 -0.054805174
0.059637945 -0.0025126426 -0.11798874 -0.1182528 -0.10905412 -0.16153978 0.029443208 0.18123464
-0.13274509 -0.0125442995 0.01633897 -0.11717142 0.08649704 0.0026984268 -0.12671085 -0.010707301
-0.15726216 -0.011303764 0.115325905 -0.13784976 -0.0769918 0.05816181 -0.094164625 -0.08259438
0.15299845 0.030676058 -0.10760585 -0.15596797 -0.11563968 0.15893364 -0.029051859 0.12863186
-0.055785187 -0.15160556 -0.073925786 -0.05584465 0.17034735 -0.05177657 -0.015611022 0.14201304
0.026139459 -0.1726565 0.17422172 -0.047450583 -0.0997759 0.11960424 -0.04146625 -0.15450361
0.09099567 0.105756894 0.10321838 0.07781162 -0.011735008 -0.041486118 0.023898443 0.1316518
0.044971604 0.11186204 -0.02526529 0.045489784 0.15707012 0.086795904 0.064697854 0.040321272
-0.10083824 0.038869012 -0.14674501 -0.09302868 -0.17167501 -0.10179595 -0.0019180088 0.0031500587
0.17444372 0.1617883 -0.15252951 0.07108227 0.15580839 -0.021138001 0.14628084 -0.17540196
0.04018564 0.04874646 -0.08615405 -0.12254251 0.08785646 -0.17869072 -0.06687823 -0.08959898
-0.0773473 0.0015669116 0.092624865 0.10914407 0.019423012 -0.09163939 0.011024155 -0.019777734
0.14150192 -0.13788578 -0.12915961 -0.08061001 -0.07736479 -0.12608054 0.029777853 -0.023191392
0.17001322 0.056223568 0.046647783 0.1543555 -0.13672662 0.023726942 -0.09713392 0.040349323
0.04209872 0.07401304 -0.09173912 -0.054095022 0.0152718965 -0.07380773 -0.085902445 0.0621535
0.039080303 -0.15014106 -0.16871603 -0.13165066 0.06082416 0.06770502 0.1599564 0.005772212

bias_ih_l0_reverse f4 [128]
00000000: a7c0 ed3a 6d93 8d3d ed0b a03d d79d 0cbd
00000010: 4a4c f23d 8168 973d 2a77 0c3c bc62 7d3d
00000020: 258c 12bd d224 c3bd 618e 473d 1894 5a3b
00000030: 075e c5bd 0f2a 59bc 84ec d9bd 7110 16be
00000040: f1eb 1a3e 1f9a e93d c271 19be cc14 153d
00000050: a971 0d3e 6c59 13be db96 c1bc b197 52bd
00000060: d9d5 d53c 1460 e8bd d34a 9fbd dac0 aabc
00000070: f7a0 09bd a594 cb3d 149b 1ebd ccd4 eabd
00000080: 7ac2 183e 6b87 2c3e a40d 613d a160 cd3a
00000090: 04b6 eabd 03ee d43d 16e9 8cbd 7c56 363e
000000a0: 4cca 0fbe e9c2 5b3d 7d1d 94bd 510b abbd
000000b0: a26b 2ebe 2265 06be 5436 64bd 4061 b13c
000000c0: bdab cc3d 07e3 13be 0fc1 2cbe fadc b03d
000000d0: 66cb 3abb 8c7e 2b3e d09e 1c3e a25d 153d
000000e0: e18d 313d eaf1 adbc 0298 103e 1626 0c3e
000000f0: 6905 05bd 647f 143e f3d7 fcbd 9aa6 abbd
00000100: 58ad 1a3d 3d41 babd 825f ae3d 2496 9ebd
00000110: 08e0 8c3d c359 dcbc 6a8f ba3c 7852 1e3e
00000120: 7cc0 2e3e 86b0 aebd 5609 02be 0972 16be
00000130: 9af9 db3d 0928 7a3d dcc8 4bbd 5873 2b3e
00000140: 7f51 2cbe a028 acbd 5ad4 ebbd 1250 4e3c
00000150: 6bc0 c73d aebe 2a3e f70c 8c3d 4416 8e3d
00000160: c74d ddbc e3b4 ddbd 1818 e53d c41b 783d
00000170: 4e2d b5bd 594f 98bd 3374 203e 3944 1fbe
00000180: e789 2ebe 44f5 2d3d 66f5 21bd 0aff 12be
00000190: 3bf4 013e edf3 18be 428b d93c b7ac 9fbd
000001a0: 4f5e e13d 3b87 c13d 48e3 e63d 8bea c5bd
000001b0: eb5c 6f3d 3d43 f1bd 0f71 7c3d 999d 103e
000001c0: c23d 1b3d 6cc9 ee3d 5032 b13c cc43 1cbe
000001d0: 8dfa cb3d 5d44 103e f5dc d2bd 0788 f5bd
000001e0: 97c8 b23d 77ea d33d 1464 2abe f1ff c4bd
000001f0: e2fd 2c3c 8869 60bd 3cdf 00bc 7dcf dbbd
0.001813908 0.06912885 0.07814775 -0.034330215 0.11830957 0.073929794 0.008573333 0.06186174
-0.035778183 -0.09528507 0.048719767 0.003335243 -0.09637075 -0.013254656 -0.10640815 -0.1465471
0.15129067 0.114063494 -0.14984801 0.036396787 0.13812889 -0.1438958 -0.023631504 -0.051414195
0.026102947 -0.113464504 -0.077779435 -0.020843912 -0.033600774 0.09940461 -0.038722113 -0.11466369
0.14917937 0.16848533 0.05494465 0.0015669056 -0.11460498 0.1039696 -0.06880395 0.17806429
-0.14042014 0.053652678 -0.07232187 -0.08351768 -0.17033246 -0.13124517 -0.055715874 0.021652818
0.09993694 -0.14442073 -0.16870521 0.08635898 -0.0028502583 0.16747493 0.15294957 0.03646625
0.043348197 -0.021233518 0.14120486 0.13686404 -0.032475863 0.1450172 -0.123458765 -0.08381386
0.03776297 -0.090944745 0.085143104 -0.07743481 0.06878668 -0.02689827 0.022773463 0.15461147
0.17065614 -0.08529763 -0.12698874 -0.14691938 0.10740967 0.061073337 -0.0497521 0.16743219
-0.16827963 -0.08406186 -0.11515112 0.012592332 0.09753498 0.16674301 0.0683841 0.069378406
-0.027014626 -0.10825517 0.11186236 0.060573354 -0.08846532 -0.07437009 0.15669326 -0.15553369
-0.17044793 0.04247023 -0.03954067 -0.14355102 0.12690823 -0.149368 0.026555661 -0.077966146
0.11004316 0.09449621 0.11273819 -0.09663876 0.058438223 -0.11780403 0.06163126 0.14122619
0.037900694 0.11659512 0.021630436 -0.15260237 0.09959898 0.14088579 -0.102960505 -0.11988836
0.08729666 0.10347455 -0.1663974 -0.096191294 0.010558577 -0.054788142 -0.007865723 -0.107329346

bias_hh_l0_reverse f4 [128]
00000000: 5949 edbd 9918 b5bc 0942 c73d 21a3 d8bd
00000010: ab7b 08be 2219 8dbd 3bc0 e1bc c146 77bd
00000020: 0a07 0d3c 6131 563d a8fc 9abd 7880 2e3e
00000030: 38ed a83d 31e8 32be b0a8 8f3d 9e4f e5bd
00000040: 5288 92bc bd82 04be 8536 f0bd 60f9 d7bd
00000050: 6190 4cbd 2c6c 0fbe 37fb 1d3e 57a3 ac3d
00000060: 89ca 1c3d d283 92bd f858 34bd e65e 89bd
00000070: f2c4 c73c 2d40 a63d 204b 523d dc9a 9f3c
00000080: d9ad db3d b2b4 04bd a078 e2bc 7792 1fbd
00000090: 9627 c73d e3b4 b03d c340 323e 8a55 203c
000000a0: 8afc 4d3d 83be f6bd a125 2f3e 96fb a43c
000000b0: 7f21 03be 4b72 213e eab3 bf3d 8120 c43d
000000c0: 855c e63d f405 17bc 5f52 2cbe fa3c 18be
000000d0: 1b66 023e 1196 c7bd 619e b4bd ca63 e33c
000000e0: 10fd 28be 1eb1 bdbd b9e2 a23d 50f7 1b3e
000000f0: 6fab 1fbc e66c 5f3d 054f ad3d 60cd b83a
00000100: fa49 ebbd f772 8e3d 02ad 853d 1bb5 283e
00000110: 9362 283e 097c d33d 98d0 083e 8816 343e
00000120: c53b 5fbd 8b4a 3bbd bf78 733d f1a4 0a3e
00000130: 5697 33be d134 15be bd79 0cbe 7d34 f13d
00000140: f706 3cbd dc2d e8bb c149 603d 383b 0bbe
00000150: f8bb a53c 8eb6 29bd ac9f 85bd a5ad 09bb
00000160: 22d8 bebd caff fb3c 8281 9ebb 047c 35bd
00000170: 61f3 ef3d e7b9 d43d 8611 ec3d a0a9 493c
00000180: 07a1 d2bd 8c2b a43d d265 29be 893f e9bd
00000190: b723 263e a78e 693d 3e4e debd c1ce f93c
000001a0: 85cf 0f3d dffc af3d 66cb b03c ea2d e2bd
000001b0: 93ac 6abd dc52 1cbe 4f51 743d 99aa 22bb
000001c0: 11d2 b6bc 098a 01be 2e27 813d 161f 52bd
000001d0: 7a5f 693c c001 edbd e4f9 223e c120 17be
000001e0: 79ab 73bd d392 1dbe f6dd 2cbe 96a5 14be
000001f0: ddb2 4c3d 9652 143b f9c3 0fbe acee 513c
-0.115862556 -0.022106456 0.09729392 -0.10577989 -0.13328426 -0.06889559 -0.027557483 -0.06037021
0.008607635 0.052293185 -0.075677216 0.17041194 0.08248371 -0.17471386 0.070145965 -0.111968264
-0.017887268 -0.12940498 -0.11729149 -0.105456114 -0.049942378 -0.14006108 0.15427862 0.08429592
0.03827909 -0.07154049 -0.04403016 -0.067075536 0.024385903 0.08117709 0.051341176 0.019483022
0.10726518 -0.032398887 -0.02764541 -0.03895804 0.09724347 0.086282514 0.17407517 0.009786019
0.05028967 -0.12048056 0.17104198 0.020139497 -0.12805746 0.15766256 0.09360488 0.09576512
0.112481155 -0.009217728 -0.16828297 -0.1486701 0.12734263 -0.0974542 -0.08819271 0.027757544
-0.16502786 -0.09262298 0.079534 0.15231061 -0.009745463 0.054547213 0.084623374 0.0014099292
-0.11488719 0.069555216 0.06527139 0.16475336 0.16443853 0.10326392 0.13360822 0.1758672
-0.05450036 -0.045725387 0.059441324 0.13539483 -0.17538199 -0.14570929 -0.13718314 0.117775895
-0.04590508 -0.007085545 0.054757837 -0.13596809 0.020231232 -0.041433863 -0.065245956 -0.0021008041
-0.09318568 0.030761618 -0.004837216 -0.044307724 0.11716343 0.103870206 0.1152678 0.012308508
-0.1028462 0.080161184 -0.16542748 -0.113890715 0.16224562 0.05702081 -0.10854767 0.030494096
0.035110015 0.08593153 0.021581363 -0.11043914 -0.057293486 -0.15265983 0.059647854 -0.0024820922
-0.022316964 -0.12650312 0.06306301 -0.051299177 0.014243955 -0.115725994 0.15915638 -0.14758588
-0.0594897 -0.1538804 -0.16881546 -0.14516291 0.049975265 0.0022632233 -0.14039601 0.012813251

weight_ih_l1 f4 [128, 64]
00000000: 27cb e8bd ca2e 17be 2b4e 54bd de17 d43d
00000010: 6848 d33d e8eb d23d ae2d 7ebd e8b0 ae3c
00000020: 6034 dabd 29c5 893d 6d07 fcbd 872f 233e
00000030: 419e b4bd 4f65 313e c55e ce3d 6257 173e
00000040: e545 0e3e 9f32 66bd fd42 ffbb 3725 0cbe
00000050: 973b 23be f51e 8c3d 6917 0cbe 6bef a9bd
00000060: 3876 10be cf31 27be 0f4d 053e c287 34bd
00000070: 7565 d13d 7c91 063e b143 ee3d ebe8 36be
00000080: 25b4 2a3e 31bb 443a 4933 28be a409 023d
00000090: 2996 82bd 7520 283e c431 c5bd fc9f 01be
000000a0: b178 573d bbc8 b73d d110 4a3d d9dd e33d
000000b0: df2b d5bd 83ce 293d ad80 59bd 6569 513c
000000c0: 505a 64bd 4331 c0bd 30b1 2cbe 4bce 4b3d
000000d0: 57ba b93c 11be e13d fcb0 813d 3cf1 113d
000000e0: d650 f83d 762f ecbd d33c 05be 7deb cebd
000000f0: edb0 06be b831 863d 6c24 d7bd 1649 253d
00000100: aa2e e13c 9f4e 2b3e 3ac7 443d 108c a0bd
00000110: fb26 2abe 7226 0abe bb35 093e 272f f63d
00000120: c1bf d33d 35f2 263e 6f8b 073d 4a36 fdba
00000130: d3a7 c5bd 5b36 98bb 39d3 5f3a cce9 053e
00000140: 331d 1b3e 1c2a ff3d e447 e5bd 5e12 c03b
00000150: f475 77bd 0f46 0ebe 4bc6 103d 5478 133e
00000160: 864d bd3d c7a2 213e 98e9 cc3d 4761 6bbd
00000170: 4433 2c3d e7e4 923d ef6f 71bd d504 113d
00000180: 2521 39be bdb1 a13d 5711 cfbc a593 1f3d
00000190: ff51 1bbe 8aff e9bd a717 0ebe daf2 cfbd
000001a0: 0b50 d43c 035c ac3d 79b6 2ebe ee2e a4bb
000001b0: 2ef6 31be c6e1 113e 183e 313e f684 453d
000001c0: 549d fbbc c91f 223e 2d9a 1fbe 70c4 7cbb
000001d0: 064c fa3d 61ef cfbd 4927 91bd 1644 16be
000001e0: 0002 dabc 0a6c a33d d620 03be 9cfc c33d
000001f0: b9e3 12be 9fc6 71bd 0de4 2c3e 6bfb 71bd
00000200: 3800 fdbd 86cd e63d 0bab 2abe 26c9 143e
00000210: 1daf 0cbe f3cd dc3d a474 513d fb63 31be
00000220: f334 abbd 013f 013e 9825 ecbc 1a8f 48bd
00000230: 2e42 be3b de5f 863c ead1 083e 9dfb 9c3d
00000240: 5863 c23d ec25 d83d c768 d73d 1d8f 1f39
00000250: 9956 c23d 40e4 1abd 8ff8 a53d 4599 87bd
00000260: 22ce 013e eecc 9c3d 9e28 903d 43ef fdbd
00000270: ddd5 13be e304 e7bd e4b8 d5bd 34f8 6ebd
00000280: 79f2 113e e437 67bc 9934 20be 1c0a 0b3e
00000290: cc09 d9bd 77f5 2abd 0f71 ae3d 5e02 413d
000002a0: cba5 c7bd ae1e 973d ef29 d13d c858 f53d
000002b0: aa17 633d 36fc 6cbc 39aa 61bd 804a 293e
000002c0: dd3c c73d 67cf bf3c f343 04be 6167 af3d
000002d0: 4a53 5bbb 1988 cdbd c892 1bbe 91fc 2bbe
000002e0: f4a2 c03d 6703 09be b124 d4bd 6596 2239
000002f0: 926a 8cbd a31b 3abc 63b4 03bd eb04 063e
00000300: 8572 e23c 6008 6bbd da67 783d 707d b0bc
00000310: 9153 eabd 525f 263e e3e5 b53d 9693 fc3d
00000320: e821 0e3d 09be 1cbd 3b53 a03d bbad efbc
00000330: 7720 2bbe 1312 e23d a532 8cbd c4a4 133e
00000340: 0238 283e de21 26be 233b 0a3e de87 043e
00000350: 96c8 a03c d0be 273e d2be 26bd b164 cc3d
00000360: 9c5d d03c b1f1 c7bd 94c7 0fbd 63fe 1f3e
00000370: 2b12 b7bd cea4 123d c90d f3bd 9748 31be
00000380: 4ec8 a8bd 6d0e 863d 695f 2abe 2443 643c
00000390: a4bf debd f63d 1a3c 3348 0b3e 56d4 ae3d
000003a0: 4f68 24be df04 0b3e 708c 33bd 616d 61bd
000003b0: 2fc8 f73c 2593 31be d0a1 303d 9f60 a0bd
000003c0: fac5 17be 7ef1 09be 7ed4 b1bd 6155 a7bd
000003d0: 4f0c 4b3d 9121 efbb c003 a93d 2763 213c
000003e0: 0657 ba3d e512 343e 5210 e2bd 80ac 4ebd
000003f0: fe8f b23d deb0 bc3d 98e7 ff3c 48a7 36be
-0.11366873 -0.14763942 -0.05183236 0.10356115 0.10316545 0.10298902 -0.062055282 0.02132459
-0.10654521 0.067270584 -0.12306104 0.15936099 -0.08819247 0.17323802 0.100766696 0.14779428
0.1389385 -0.05620062 -0.007789968 -0.13686071 -0.159407 0.06841842 -0.13680805 -0.082976185
-0.14107597 -0.16327594 0.13017677 -0.04407478 0.102244295 0.13141435 0.11634005 -0.17862289
0.16670282 0.00075047003 -0.16425814 0.031747475 -0.06376297 0.16418631 -0.09628633 -0.12658685
0.052605335 0.08973833 0.049332444 0.111262985 -0.10408758 0.04145671 -0.05310123 0.012781476
-0.05575019 -0.09384396 -0.16864467 0.049757283 0.022671862 0.110225804 0.06332585 0.03563045
0.12124793 -0.1153249 -0.13011484 -0.101035096 -0.1315343 0.06552452 -0.10504994 0.040352903
0.027488071 0.1672921 0.04804156 -0.07839215 -0.16616432 -0.13491228 0.13399403 0.12020712
0.103393085 0.16303332 0.03309196 -0.0019318548 -0.096511506 -0.0046451516 0.00085382495 0.13077468
0.15147857 0.124592036 -0.11195353 0.0058615645 -0.060415223 -0.13893913 0.035345357 0.1440137
0.09243302 0.15784751 0.10005492 -0.057465818 0.04204108 0.07172566 -0.05894464 0.035405
-0.1807905 0.07895229 -0.025276823 0.038959164 -0.15167998 -0.11425693 -0.1387621 -0.10153742
0.025917074 0.08415987 -0.17061795 -0.0050104773 -0.17379066 0.14246282 0.17308843 0.048222505
-0.030714668 0.15832438 -0.15586157 -0.0038569234 0.122215316 -0.1015308 -0.07087571 -0.1467441
-0.026612282 0.07979591 -0.12805495 0.09569666 -0.14344682 -0.05902731 0.1688387 -0.05907766
-0.12353557 0.11269669 -0.1666681 0.14529857 -0.13738675 0.10781469 0.051136628 -0.17323296
-0.08359709 0.1262169 -0.02882652 -0.048964597 0.005806229 0.016403135 0.13361326 0.07665179
0.094916046 0.10554108 0.105180316 0.00015216735 0.094891734 -0.037815332 0.081040494 -0.06621031
0.1267629 0.07656275 0.07038997 -0.12399151 -0.14437051 -0.11280229 -0.10435656 -0.058342174
0.14252652 -0.014112446 -0.15645064 0.13578075 -0.10597572 -0.041738 0.08517658 0.0471214
-0.097484194 0.073788986 0.10213076 0.11979824 0.05544249 -0.014464429 -0.055093978 0.16532326
0.097284056 0.023414327 -0.12916546 0.0856464 -0.0033466392 -0.10035724 -0.15192711 -0.16795565
0.09406081 -0.13380204 -0.10358561 0.0001550555 -0.06856264 -0.011359128 -0.032154452 0.13087814
0.027642498 -0.057381034 0.060645916 -0.021544188 -0.1144172 0.162473 0.08881738 0.12332837
0.034700304 -0.03826717 0.07828375 -0.029257646 -0.16711603 0.11038604 -0.06845597 0.14418322
0.16427615 -0.16223857 0.13499121 0.12942454 0.019626897 0.16381383 -0.040709324 0.09980143
0.025435261 -0.09762896 -0.035102442 0.15624385 -0.08939012 0.0358017 -0.11867864 -0.17312847
-0.0824133 0.0654572 -0.16637959 0.013932023 -0.10876396 0.009414187 0.1360176 0.085365936
-0.16055416 0.13576077 -0.043835104 -0.055035952 0.030246822 -0.17341287 0.043123066 -0.07830929
-0.14821616 -0.13471028 -0.08683108 -0.081705816 0.049572285 -0.0072977026 0.082526684 0.0098503
0.0909863 0.17585333 -0.11038269 -0.050457478 0.087188706 0.09213422 0.031238362 -0.1783725
