result/model-morp-sum-seq/model.pt (torch_old, 268697 bytes, 21 tensors)

weight f4 [32, 4]
00000000: ba46 c3bf 310f 40bf 4b6b 27bf 9903 cebf
00000010: 37fb 1ec0 26fc 9cbf d443 2fbe 115a 23bf
00000020: b904 29c0 ec2b a840 356a 2e3d 4116 ff3e
00000030: bc4f f53f 4f66 7c40 bf28 c83f e6d7 1940
00000040: a44f 5a3f a8ce 7fbf 274e 823f 506d b23f
00000050: d934 2e40 62c8 913f 6611 533d 9bc3 5d40
00000060: df5a 0740 598f d4bf af08 c2c0 845d 9dbf
00000070: 7731 67c0 718d 0abf c900 2ebd e259 07be
00000080: 5c35 043f 179a 7f40 d50a 763f 26b0 2dbf
00000090: d647 8b40 0f57 803d 9227 873f 381f 3fc0
000000a0: 5d1c fe3e 634f 61be d77e 883f e569 2d40
000000b0: 5253 1c40 b762 503f 80e1 8940 2f48 ad3f
000000c0: a148 883f 6198 fc3f b953 2340 7104 b23f
000000d0: 929e b1bf d19b 0fbe 72a8 6c3f 81d9 4b40
000000e0: fd92 abbe 356a 4fbe 7cb2 1740 1f8c 3fc0
000000f0: c162 b540 6263 ab3f e4f0 51be 6c69 62bf
00000100: a0ed cbbf ab5d 9a3f 8a1d 06c0 e689 d1bf
00000110: a578 8d3f dbf2 9f3e 8b0e 4340 bd53 8040
00000120: bc48 e1bf 72dd 7a40 66dc 3fbe 8b7c 773f
00000130: 3a0c 0b40 483a d1bf 1309 6cbf bff0 5bc0
00000140: 69f8 b8bf d5d3 3540 b068 f03f 7afa 3c40
00000150: d7e6 dabf 307c 973f cf41 ef3f 45ae b63e
00000160: bd65 e63f 2733 d3bf b4c7 60c0 50bb dabf
00000170: dd62 8bbf b1f6 d33c 4eb1 a83d 7e69 2840
00000180: 8398 663f 10a5 1c40 5d32 a73f 106a 0f3f
00000190: 1bf3 0a3e 8379 27c0 3232 8ebf ddb5 bd3f
000001a0: 6975 0d40 0772 763f 3940 a93f 69e5 6f3f
000001b0: 2a5a bdbf 925a b23f 45eb 6c3e 5e12 493e
000001c0: 9e69 843f f838 d13d 88e5 da3f 3f11 ae3f
000001d0: 70af ca3e 271b 523d 69ee b03e 1f46 dfbe
000001e0: c4ca 2f40 ca51 97be d952 793e 4f88 fe3f
000001f0: 1e55 d5bf 3166 3540 1e2c 123f 12bf ee3e
-1.5255959 -0.7502318 -0.6539809 -1.6094848 -2.484083 -1.226445 -0.17115718 -0.63809305
-2.6409132 5.2553616 0.042581756 0.49821666 1.9164958 3.9437444 1.5637435 2.4038024
0.8527777 -0.9992471 1.01801 1.393961 2.7219756 1.1389277 0.051530264 3.4650638
2.1149213 -1.6606246 -6.06356 -1.2294164 -3.612394 -0.5412207 -0.042481218 -0.13217881
0.5164392 3.99378 0.9611028 -0.67846906 4.352519 0.06266605 1.0558951 -2.9862804
0.49631014 -0.2200294 1.0663708 2.7095883 2.4425855 0.81400627 4.308777 1.3537654
1.0647165 1.9734002 2.551985 1.3907605 -1.3876517 -0.14024283 0.9244453 3.1851504
-0.3351058 -0.20255359 2.3702688 -2.9929273 5.668305 1.3389704 -0.20502049 -0.8844211
-1.5931892 1.2059835 -2.095553 -1.6370208 1.1052443 0.31239972 3.0477626 4.010222
-1.7600322 3.919766 -0.18736419 0.9667441 2.1726213 -1.6345911 -0.92201346 -3.436569
-1.4450809 2.8410542 1.8781948 2.9527879 -1.7101697 1.1834774 1.8691958 0.35679832
1.7999798 -1.6499985 -3.512189 -1.7088413 -1.0889546 0.025874468 0.08236943 2.6314387
0.90076464 2.4475746 1.3062245 0.56021214 0.135693 -2.6167915 -1.1109068 1.4821125
2.2102911 0.9626774 1.3222724 0.9370943 -1.4793141 1.393389 0.23136623 0.19635913
1.0344732 0.10215944 1.7101297 1.3599013 0.39586973 0.051295426 0.34556893 -0.43608186
2.7467508 -0.29554588 0.2434801 1.9885348 -1.6666601 2.8343623 0.5709857 0.4663015

weight_ih_l0 f4 [128, 105]
00000000: ee09 a6be e4c2 7a3f 18bb 643e 1f84 3d3f
00000010: 5be4 803f 38f2 bcbd 96b6 903d 60b4 5c3f
00000020: bc71 973f 3173 4dbd c780 ccbe 252c eb3e
00000030: 38fc 2c3f 9ff5 89bc cd40 b2be 8ef0 643f
00000040: 470d 683f 7a43 02bf 8b0e 443d db20 3e3f
00000050: 28de cbbe 3eaa 4c3f 995e 2e3f 65a3 f13f
00000060: 7716 46bf 0ad2 8c3f 9c6d d1bd 6ed7 aa3d
00000070: 1d05 3b3e 295a e5be 4ee9 eabe 9fe2 bd3f
00000080: 478f 91bf 7799 b9bd 6bd3 883f f9c6 f63e
00000090: 4bf2 bf3e 8b1d 5dbf 0291 f7be da4e 7bbf
000000a0: cd4e e6be 0fb5 423e b0f5 c3bf 447d 8b3f
000000b0: 291a 99be 547f 4abf e7ce 883e ebdd 11bf
000000c0: 7937 7abf c999 1cbe 42c4 d73e 7445 90be
000000d0: 063e 833f 70ea 803f 433f babe 6c3b 093e
000000e0: 8ff6 11bf 6aab 6ebd 235f 8bbf 93aa 523c
000000f0: 4b3d 62be 73d3 383f c46b fd3f 6a83 1fbf
00000100: 8d7b 8dbe aad5 6d3f 7e8c 6d3f 4785 3abd
00000110: ede1 863f fcde edbe a158 ebbe a725 c73c
00000120: 1d00 38bf 3d0f 25bf e386 523e 708e da3e
00000130: c0a5 7c3e 0f32 d33d c481 d9be 5a84 a7bf
00000140: 7583 7a3e 3a04 863f 4f1a d73f b9b4 5abe
00000150: 8197 463f ecf6 6b3f bd2a b4be ef33 663e
00000160: e343 343e f683 8bbf e1e4 1e3e cbd7 27bd
00000170: ef34 0a3f 7603 a9bd cd9c 643f f2db 62bf
00000180: 8fad 853f 545c 183f bd17 a5bf 8da7 53be
00000190: cb94 b63f 4578 c7bf 0c7b 9abf 73e0 96bf
000001a0: cd3b 323e 26ce 10bf 64af 99bf 505f b4bd
000001b0: c2ef e3be d1d7 13be 45a2 07bf a0db ec3e
000001c0: d786 14bf d0a2 373d ba8d c43e dc46 4f3f
000001d0: 0d2c d1bf 7a31 573e a0a3 05bf 1f61 733f
000001e0: 64b7 89bd 03a0 b63b 5d1f 6b3f 16d9 0e3f
000001f0: 5b36 80be 3702 acbf 8bbc 2cbf ae76 243e
00000200: 7194 063f e496 5cbf 1237 bfbf 69d4 95bd
00000210: 36b6 b63f 0366 8f3f 43b1 4d3e e9db d13e
00000220: 5563 08bf c956 4b3f 6fd8 c23e 54eb 32bf
00000230: 52ee e43e 334c 7d3e 8dac a9be ca05 503d
00000240: 45a9 8e3f 4175 37bf bff8 b13e eb6a 34bf
00000250: 17ab ab3e 6b4b 05bf 2495 1cbe e595 22bf
00000260: 2c1f 7c3f 3ba1 15bd 1855 5cbe ba6e c13f
00000270: 06a2 6e3f f93c b33e 1fe5 04bf e4b3 3d3f
00000280: 2d03 2b3f 437f 8abf 6b48 4bbf b6fb 8a3e
00000290: c3bd 3f3f 77ea c4bd e8c9 6bbe 4a8e 0f3f
000002a0: 4d3d c2be 062c c3bf 62ff afbf c9e4 fbbd
000002b0: e452 823f 4212 bbbd b7f4 a2be 5ae5 3d3d
000002c0: bad8 28bf 67e9 4fbf 84c2 52bf 8db5 fc3e
000002d0: 9213 e5bd d31d ccbf d8d0 55bf 988c 88be
000002e0: e855 f43d 8730 4cbf 4539 eabf f8fe e03f
000002f0: 42ef 053f 7178 4dbf 75f1 c6bf c7b3 b13f
00000300: c99b f1bf e03d 24be 2eac 78bc 6624 eab8
00000310: d479 173e defb 74bf 5cfe 1f3f ef10 c7be
00000320: 95e3 c5bf f1f6 65bf 0919 6d3f 5f4b 483e
00000330: 0681 dc3e cb84 613f 8d97 8cbe c3b3 07bf
00000340: 8014 dabe 87aa cbbd bc35 7f3d 5d08 c33c
00000350: 21ea 903f ff62 b03f 49db 4cbf c741 ca3e
00000360: 321f 0f3f baa8 ac3e 23ec 9dbf 8daa a03f
00000370: 7976 0d3f 6904 93bf 7b31 873f 7dfc bb3d
00000380: 7823 73be d022 5a3f a2ad 943f 06d5 78bd
00000390: c47f 533f 8107 5b3f 1d62 273f 8cb1 fcbe
000003a0: 58b5 183f f19e 40bf 352f 473f a38f 34bf
000003b0: cde1 953d f9a8 79be 12d5 94bf 4036 1fbe
000003c0: 6d25 593d 6762 e33e 20ab d83e 1924 a13c
000003d0: 8854 c23e 230a 38bf ff09 a23e 68eb 873e
000003e0: 1361 1f3f a84d e7bd 5965 c33e 995c 8f3d
000003f0: e969 563e a195 b2bf 90b6 993f 8f33 7d3f
-0.3242945 0.9795363 0.22336996 0.74029726 1.0069689 -0.09225887 0.070660755 0.8621273
1.1831584 -0.050158683 -0.39942 0.45932117 0.67572355 -0.016840754 -0.34815064 0.8942956
0.9064526 -0.5088421 0.04786543 0.74268883 -0.3981793 0.7994727 0.68113095 1.8877989
-0.7737803 1.1001599 -0.102259845 0.08341871 0.1826367 -0.4479535 -0.45881122 1.4834784
-1.137185 -0.09062474 1.068952 0.4819868 0.37489542 -0.86373204 -0.4835282 -0.9816719
-0.44981995 0.19014381 -1.5309353 1.0897603 -0.2990277 -0.7910054 0.26720354 -0.56979245
-0.97740895 -0.1529304 0.4214192 -0.2817799 1.0253303 1.0071545 -0.3637639 0.13401574
-0.57016844 -0.058268942 -1.0888408 0.012858051 -0.22093694 0.72197646 1.9798512 -0.62309897
-0.27633324 0.9290415 0.927925 -0.04553726 1.0537697 -0.46459186 -0.45966056 0.024309946
-0.7187517 -0.64476377 0.20559268 0.42686796 0.24672604 0.10312282 -0.42481816 -1.3087265
0.2446421 1.047004 1.6804904 -0.21358003 0.77574927 0.9217365 -0.35188857 0.22480749
0.17604022 -1.0899646 0.15516998 -0.04097728 0.5398702 -0.08252613 0.8930176 -0.8861686
1.0443591 0.5951588 -1.2897869 -0.20669384 1.4264158 -1.5583578 -1.2068801 -1.1787246
0.17405625 -0.5656456 -1.200665 -0.08807242 -0.44518858 -0.14437796 -0.5298198 0.4626131
-0.5801825 0.044833004 0.3838938 0.809675 -1.6341568 0.21014968 -0.52202797 0.9507007
-0.06724432 0.005573274 0.9184473 0.55799997 -0.2504147 -1.3438176 -0.67475194 0.16060898
0.52570254 -0.8616774 -1.4938681 -0.07315905 1.4274356 1.1203007 0.20087151 0.4098809
-0.5327657 0.794293 0.3805575 -0.6989033 0.44713074 0.24736099 -0.33139458 0.05078677
1.1145407 -0.7166329 0.3476009 -0.70475644 0.3352897 -0.52068204 -0.15291268 -0.6350997
0.98485065 -0.036530714 -0.21516836 1.5111916 0.9321598 0.35007456 -0.5191211 0.74102616
0.6680172 -1.0820087 -0.79407376 0.27145165 0.7489893 -0.09615033 -0.2302624 0.5607649
-0.37937394 -1.524781 -1.3749812 -0.12299497 1.0181546 -0.09134342 -0.31827328 0.046361305
-0.659557 -0.8121552 -0.8232806 0.49357262 -0.11185373 -1.5946602 -0.83521795 -0.26669765
0.11930448 -0.79761547 -1.8298727 1.757781 0.52318203 -0.80261904 -1.5542437 1.3882989
-1.8875667 -0.16039228 -0.01517777 -0.00011164769 0.14792567 -0.9569682 0.62497497 -0.38880107
-1.5460078 -0.8982993 0.92616326 0.19560002 0.43067187 0.8809325 -0.27459374 -0.5300867
-0.42593765 -0.09944635 0.062307104 0.023807699 1.132145 1.3780211 -0.800221 0.3950331
0.55906975 0.33722478 -1.2337688 1.2552048 0.552589 -1.1485721 1.0561975 0.09179018
-0.23743999 0.8520937 1.1615489 -0.06075003 0.8261683 0.85558325 0.65384084 -0.49354208
0.5965171 -0.75242525 0.7780641 -0.7053167 0.07318459 -0.24380864 -1.1627524 -0.15548038
0.053014208 0.44411013 0.42318058 0.019670533 0.37955117 -0.7189047 0.3164825 0.26546788
0.622575 -0.11294109 0.3816326 0.070000835 0.20938839 -1.3951913 1.2008839 0.989068

weight_hh_l0 f4 [128, 32]
00000000: 7c83 623b 8c8a d9be 8aaa a33f 5dbf 9dbe
00000010: 9f5c f83e 8b92 2abe 023a ac3d a02b f7bd
00000020: 1083 b63e 6763 68be 3bf2 b23e b89b 6fbf
00000030: e746 a33f fae1 56be 4172 253e 4838 733e
00000040: b785 39bf 625e 573f 3e27 893e ce1c c2be
00000050: 3806 8cbe fff7 8c3f f0fa 583f a53a 33bf
00000060: 0d4f a0be eed3 b0bf 6538 b9bf 9158 403f
00000070: 7474 eb3f de36 acbf 8b11 f73f 022a 16c0
00000080: 6536 17be 9bc9 ddbf 7c70 2a3e a03a 12bf
00000090: f49b bc3f 3abe a03e 893a eebe 8958 093e
000000a0: da41 4d3f 8be1 983f 43ee 36be d2c7 9f3f
000000b0: c7a4 423f dc27 5bbf 3ba7 19be f1ae bfbf
000000c0: 1add be3f cb68 723f 7bd2 383f 5eaf cd3d
000000d0: 9780 a2bf 6880 5d3d badc c1bf 3f74 5d3f
000000e0: 4375 dfbe 4df0 893e 3084 7f3f 85dd 9bbf
000000f0: b456 253f b9ec 543e 507b 9cbf 04cb 173d
00000100: 39d1 5bbf 00c8 e8be ddc0 1040 b58e 273f
00000110: a5fa 3dbe d496 7c3f 3cd9 16bf b89b 74bf
00000120: a047 57bf fd68 43be 0f9e 27bf cfd4 533f
00000130: faa6 2a3f 9f50 77bf 5766 36bf 16ca dabe
00000140: 6a35 dfbf 014b 2e3f 929a bebe 8d46 0dbf
00000150: d28c 293f 3b4e abbe 11d5 88be a542 77bd
00000160: 8c05 013f bf80 ad3f add2 4e3e 7fab 03be
00000170: ec46 4cbf e24a 14bf d1fb 593e de13 f9bb
00000180: e0ee cc3f 92fd 04be 6d34 703f ea44 89be
00000190: 7456 263f 861d b4bf 4264 09bf baeb 39be
000001a0: 4ab0 6a3d bc0d 1a3e 1726 a2bf 0b7c 62be
000001b0: 2b9b 0b40 cd53 57bf 0c67 383f 360d c2be
000001c0: 5384 9b3e 1c01 dd3f eb48 febe 6ff6 d3be
000001d0: 9c2d 05be df2c 643e 47c9 043f ad0e 16be
000001e0: bfaa b53f 31c4 4abf 6268 2c3f dab4 063f
000001f0: a708 243f a493 0cbe 5940 423f e8c3 293d
00000200: d7f2 0c3e a4c7 363f c4c8 8bbf 4260 7bbe
00000210: 9030 843f 2ae5 06c0 e7a2 b6bf a1ac 66bf
00000220: 4021 f8be 3b7a a93f b9f1 82be 2095 1c3f
00000230: cb65 b9bf 8607 773f fce7 2bbf 97ab c53f
00000240: 9d8c 483f b380 85bf 08bf 5c3f 2f54 be3f
00000250: 34ff de3f 94c7 72bf 9ea2 dfbf b894 4fbf
00000260: efef 19c0 703d 43bf 3f2a 77bf abd6 373f
00000270: 388c 6b3f 648c 84be 9018 bbbe 600a 17bf
00000280: 971f 9cbd dfcf e7bd 51fb 883f fe90 eebe
00000290: cab2 79bf da93 2d3f 405d 063f da81 ac3e
000002a0: 75cd 68bf 8024 dbbe 1441 4d3e 6ba6 55bf
000002b0: 37b0 f8be e724 f63e 1781 c8bf ba55 ea3e
000002c0: 1e28 b8bf a119 833f 89e8 e5bf b201 e23d
000002d0: aea5 b2bd 1c06 2b3f 54fc f7bf 61eb 1cbf
000002e0: 0d7f e9be 4f47 953f 8545 a9be 5f95 8bbc
000002f0: dbf7 a7bf 139d 2f3f 6f62 c73f 576e f53e
00000300: d3c5 913f b5d6 f13d e707 d63e 14ea 15be
00000310: 9197 3fbe b3ab a2be b536 ca3e d0e4 0dbf
00000320: 3eb4 143f 3ea6 5e3f 544e 093f 67fa f33e
00000330: 9324 fdbf e02f 81be c234 243f bd9b 06bf
00000340: 33c5 5ebd 743a 1f3f 049a 413d ec48 b1bd
00000350: 58ff 34bf 5462 07c0 661f c9bf 655e 843e
00000360: 7030 97bf 04ea 00bf 2d04 c6bf 641f 06bf
00000370: cad1 183e 8801 86bf 9c42 05be 5466 a2bf
00000380: 9124 08c0 0a18 39bf 2a85 14c0 134c ac3d
00000390: 3f87 b73d f05b 873f d683 b7bf 1e85 54bf
000003a0: 4c2b 3a3f 26f6 183e b41f a9bf cd8c 153f
000003b0: ef1d 0d40 ca39 453f 5e33 243f 24a3 b23d
000003c0: e6fe 3bbf 3801 d33d e59c 8fbe 0a62 c23e
000003d0: 69c3 39bf 9fd6 a9bf 0c1d b83f 6af4 4a3f
000003e0: b524 12c0 ddbb b03f bbe7 9b3f 20bb b43f
000003f0: 6209 a2bf ba65 3e3e 1194 3cbf e1cb 9f3f
0.0034563234 -0.42488515 1.2786419 -0.3081006 0.48508164 -0.16657464 0.084095016 -0.12068868
0.35646868 -0.22694169 0.34950432 -0.9359698 1.2756013 -0.2098464 0.16156866 0.23751938
-0.7246966 0.8412839 0.26787752 -0.379126 -0.27348495 1.1013182 0.847579 -0.7001136
-0.3131031 -1.3814676 -1.4470335 0.7513514 1.8394914 -1.3454244 1.9302229 -2.346314
-0.14766844 -1.732715 0.16644472 -0.57120705 1.4735093 0.3139513 -0.46529034 0.1341268
0.80178607 1.194383 -0.17864327 1.2482855 0.7603268 -0.85607696 -0.150052 -1.4975263
1.4911225 0.9469115 0.7219617 0.10043214 -1.2695493 0.054077536 -1.5145485 0.865055
-0.4364415 0.26941147 0.9981108 -1.2176977 0.64585423 0.20793428 -1.2225132 0.037058845
-0.85866123 -0.45465088 2.2617714 0.6545213 -0.18552645 0.98667645 -0.58925223 -0.9555011
-0.84093666 -0.19083019 -0.65475553 0.82746595 0.66661036 -0.96607393 -0.7124991 -0.42732304
-1.7438176 0.68083197 -0.37227303 -0.55185777 0.662305 -0.33458123 -0.26725057 -0.06036629
0.5039909 1.3554915 0.20197554 -0.1285839 -0.7979572 -0.5792676 0.21287467 -0.0076012453
1.6010399 -0.12987354 0.93829995 -0.2681039 0.64975667 -1.407151 -0.53668606 -0.18156329
0.05729703 0.15044302 -1.2667874 -0.22117631 2.1813457 -0.84112245 0.7203224 -0.37900704
0.30374393 1.7265964 -0.49665007 -0.4139895 -0.1300568 0.22282742 0.51869625 -0.14654036
1.4192733 -0.79205614 0.67346776 0.5261971 0.640757 -0.13728195 0.75879437 0.041446596
0.13764511 0.7139838 -1.0920644 -0.24548438 1.032732 -2.107737 -1.4268464 -0.9010716
-0.48462868 1.3240427 -0.25575045 0.61165047 -1.448419 0.96495855 -0.67150855 1.544299
0.7833956 -1.0429901 0.8622899 1.4869441 1.7421632 -0.9483578 -1.7471502 -0.810863
-2.4052694 -0.7626562 -0.9654884 0.7181193 0.9201083 -0.2588836 -0.36542177 -0.59000206
-0.07623213 -0.11318945 1.0701696 -0.46594995 -0.97538435 0.6780373 0.5248604 0.3369282
-0.909385 -0.42801285 0.20044357 -0.8345706 -0.4857194 0.4807503 -1.5664395 0.4576853
-1.4387243 1.0242196 -1.7961589 0.110354796 -0.08723007 0.668062 -1.937388 -0.6129666
-0.45604745 1.1662387 -0.33060852 -0.017039 -1.3122514 0.6859905 1.5576915 0.47935745
1.1388496 0.1180853 0.41802904 -0.14640075 -0.18710162 -0.3177162 0.39494863 -0.55427265
0.5808753 0.86972415 0.53635144 0.4765198 -1.9776787 -0.25231838 0.64143 -0.5258139
-0.054387283 0.6219857 0.04726602 -0.08656487 -0.70702124 -2.1153765 -1.5712707 0.25853267
-1.1811657 -0.5035708 -1.5470024 -0.5239165 0.14923778 -1.0469217 -0.1301369 -1.2687478
-2.1272318 -0.72302306 -2.3206277 0.084129475 0.08961343 1.0574932 -1.4337108 -0.8301562
0.72722316 0.14937648 -1.32128 0.5841797 2.204952 0.77041304 0.6414088 0.08722523
-0.7343582 0.10302967 -0.2804939 0.37965423 -0.725638 -1.3268622 1.4383864 0.79279196
-2.2834904 1.3807331 1.2180094 1.4119606 -1.2659113 0.18593493 -0.7366343 1.2484094

bias_ih_l0 f4 [128]
00000000: 1ce7 e33e 1b30 97bd 171b a23e 5141 ca3e
00000010: f347 94be c020 873c fe2d 183e ca5f f43e
00000020: c664 fe3e 0339 1fbf 4aad 3bbf 67dc ff3f
00000030: 1fb0 76bf f9be 82bf 107c c53f 6344 7fbe
00000040: e96f 723f 59af 1fbf f2e9 b6be 76f1 af3d
00000050: 39e2 01bf 25d5 0a3f 99fe 71bf 4679 20bf
00000060: 7e50 20bf 3598 ffbd 9a5f 543f ba2a 05bf
00000070: 4bbf 0c3f 745a 51be 3c82 773f ea91 6dbf
00000080: 3790 7d3d 9fed bb3e 83da 83be 61ab 43bf
00000090: 4a2c a2bd 253c aebe 780d 6ebe 2ec4 463f
000000a0: 3c3d b4bf bdcb b0bf 0339 153f bf6d a83e
000000b0: 5346 0fbf 7258 053f 5a2d d43d 5b4f cf3e
000000c0: a4eb 82be 68a0 12bf 8320 bd3e d9e9 c33d
000000d0: 6a3e 85bf e8c0 42bf 719b a5bf 30b5 94be
000000e0: 2342 a3bf e11f 713e 1628 92be 4099 05bf
000000f0: 5c89 ee3e 60bc 38be 1837 893e 1961 cfbe
00000100: 93f0 ebbf 9e3e f63e 1625 5fbf cd5a b43e
00000110: a14d 42bf 603d a63e e2ff 84be 2a62 653f
00000120: 6318 d23d dafa 23bf 6cef 0c3e 9d13 8cbf
00000130: b61c 35be 7bde 9938 f9e3 92bf 62f7 3d3f
00000140: 71f6 5f3e 0392 a53f 2c39 cbbf 4d68 abbe
00000150: 9343 a8bf 5dea 143f fc2a 8f3d cc0c acbf
00000160: 855f 7abf 3252 9bbc e264 d03e e25e 243f
00000170: 4e14 00be 8b15 6f3f f48f 063e 36e4 443f
00000180: 5d44 413f 96bc d73e e6a9 583e cc42 6f3f
00000190: 021f 03bf 09c4 613d 883d b53c 2f9f 133e
000001a0: ec70 dcbe 8020 283f 5ad8 193f 0d0a 95bf
000001b0: 4060 ab3d 03a1 26be 796f 22bf f6c1 35be
000001c0: 8e70 c73e e714 953e 529b 263f 01a0 ffbd
000001d0: b001 8c3e 7cba ffbe 11c8 a53d 227e 41be
000001e0: f62e b0bc 4b2e c03f d21e 22bc 61ca 513f
000001f0: 8465 ac3d 0a22 e43f 4cdd aa3e 7c14 9c3e
0.4451226 -0.07382222 0.31661293 0.39502957 -0.28961143 0.016495109 0.14861295 0.4772933
0.4968626 -0.6219637 -0.73311293 1.9989136 -0.9636249 -1.021453 1.5428486 -0.24928431
0.9470201 -0.62376934 -0.3572536 0.08590977 -0.50735813 0.5423148 -0.9452911 -0.6268505
-0.6262282 -0.12480203 0.82958376 -0.5201832 0.5497939 -0.20444661 0.96683097 -0.9280077
0.061905112 0.36704728 -0.2575265 -0.7643338 -0.07918604 -0.34030262 -0.23247325 0.77643096
-1.4081187 -1.3812176 0.5829012 0.3289623 -0.5596668 0.5208808 0.103602126 0.4049023
-0.25570405 -0.5727601 0.36938867 0.09566087 -1.0409672 -0.760756 -1.2938062 -0.29044485
-1.2754558 0.23547317 -0.28546208 -0.52186966 0.46589172 -0.1804061 0.26799846 -0.40503767
-1.8432792 0.48094648 -0.87165964 0.35225525 -0.758997 0.324687 -0.25976473 0.8960291
0.10258558 -0.64054644 0.13763207 -1.0943485 -0.17686734 7.337049e-05 -1.1475822 0.742056
0.21871354 1.2935184 -1.5876822 -0.33478013 -1.3145622 0.5817011 0.069906205 -1.3441405
-0.97802 -0.018960092 0.40701967 0.6420728 -0.12507746 0.93392247 0.13140851 0.7691072
0.7549494 0.42136067 0.21158561 0.934613 -0.5121919 0.055118594 0.022124067 0.14416192
-0.43054903 0.6567459 0.6009575 -1.1643692 0.083679676 -0.16272359 -0.63451344 -0.17749771
0.3895306 0.2911751 0.6508075 -0.1248169 0.27345037 -0.49946964 0.080948 -0.18895772
-0.021506768 1.5014127 -0.009895043 0.8194943 0.084178 1.7822888 0.3337196 0.30484378

bias_hh_l0 f4 [128]
00000000: 0710 1c3f ff86 fcbd 4e34 b33e 3dd2 003f
00000010: a69e 79be 851e b03d 0ca8 d93d 203f d63e
00000020: f29a ff3e bd09 41bf 4386 7cbf 144f f03f
00000030: 6a28 74bf 2a61 82bf 569c aa3f 788c a3be
00000040: 7e97 663f 7d42 43bf 4a06 1abf 5c99 32bd
00000050: 030d c0be bbf1 e33e f118 56bf 8bed debe
00000060: d029 08bf aa06 36be 5d58 4c3f 2523 e6be
00000070: d333 233f 16b9 45be 7740 6d3f de03 8abf
00000080: e487 ff3d dafd 0a3f 4f9f 04be 416e 26bf
00000090: 5d0f 173d 4ff6 08bf 9bb0 99be f292 543f
000000a0: 3eb7 b5bf 6ee1 c5bf f35f 173f 3162 193f
000000b0: 2d1b 75be a62e 153f ac17 3c3c 3413 493e
000000c0: a5d9 253d 13e6 02bf 94d8 6b3e be1e 843d
000000d0: 5b66 92bf 085a 34bf 72df 90bf a10d 1ebf
000000e0: 7848 9fbf 6794 3c3e 0b17 16be f398 ebbe
000000f0: 6dad b93e ad9d 71bc ff17 9a3d 599c d2be
00000100: d532 eabf 705a 453f c96e 7ebf a1f5 d73e
00000110: 24c3 fbbe b9af da3e b381 5abe 4fc1 5b3f
00000120: f712 38be 0918 07bf 3296 ab3d 5767 88bf
00000130: 9f78 87be ee89 f0bd 31be 81bf 13b3 653f
00000140: 8aa6 f13e 0ef7 b93f 111f f2bf 590c 92be
00000150: bd04 babf 1eca 423f 564f dbbd 45ee c2bf
00000160: 2ef6 84bf 4ca8 2bbe 776f b03e a8af 2e3f
00000170: 36c5 08be 9aa0 723f b31e f23b 06a3 203f
00000180: 8076 403f ebfe e23e cb13 453e d7d2 4a3f
00000190: 7456 31bf d5ca febd c6fb 8a3d 5242 67bc
000001a0: b958 0cbf 44d6 ea3e 9967 d33e 5ace 94bf
000001b0: 82b0 093e aea2 9fbe 5f07 2abf de20 6cbe
000001c0: 966b fc3e 01f7 2a3e 5b95 d33e 0296 34be
000001d0: af1b 3e3e 65fe b0be 9739 0ebe ed12 6abe
000001e0: 1fc9 2bbe 6282 a53f d8e0 753e 2fb2 673f
000001f0: 2d4f e43d be4b db3f ff60 a03e c2cd d23e
0.60961956 -0.12330436 0.35000843 0.503208 -0.24376926 0.08599571 0.106277555 0.41845036
0.499229 -0.75405484 -0.9864237 1.8774133 -0.95374167 -1.0185902 1.332896 -0.31943107
0.9007491 -0.7627333 -0.60165846 -0.043603286 -0.37509927 0.44520363 -0.8363181 -0.43540606
-0.531888 -0.1777598 0.7982233 -0.44948688 0.6375095 -0.19308886 0.9267649 -1.078243
0.12477091 0.54293597 -0.12951396 -0.65011984 0.036879886 -0.5350084 -0.30017552 0.8303672
-1.4196546 -1.5459421 0.5913078 0.59915453 -0.23936148 0.58274305 0.011480253 0.19636232
0.040490765 -0.51132315 0.23031837 0.06451176 -1.1437486 -0.70449877 -1.131819 -0.61739546
-1.2443991 0.18415986 -0.14657228 -0.46015128 0.36265126 -0.0147470655 0.07524108 -0.4113491
-1.8296763 0.7709112 -0.99387795 0.42179587 -0.49172318 0.4271219 -0.21338539 0.8584184
-0.17975985 -0.5277105 0.08378257 -1.0656537 -0.26459214 -0.11745058 -1.0136167 0.8972637
0.47197372 1.452852 -1.8915731 -0.28525046 -1.4532696 0.76089656 -0.107084915 -1.5228964
-1.0387628 -0.16763419 0.3446004 0.6823678 -0.1335648 0.9477631 0.0073889135 0.62748754
0.75180817 0.44335112 0.19245832 0.79227966 -0.6927254 -0.12441031 0.06786303 -0.014114933
-0.5482288 0.45866597 0.41289976 -1.1625473 0.13446239 -0.31178802 -0.664175 -0.23059413
0.49300832 0.16695787 0.41324887 -0.17635348 0.18565248 -0.34569088 -0.13889156 -0.22858782
-0.1677594 1.2930415 0.24011552 0.9050626 0.11147914 1.713249 0.31324002 0.41172606

weight_ih_l0_reverse f4 [128, 105]
00000000: 6eae 8cbf eea2 e23e 710b fdbe daeb 08bf
00000010: e70a 2f3f 91f8 fdbe 458d d7be 0ce1 03bf
00000020: 32e5 b43e e319 1c3e 5563 a2be aa90 593f
00000030: 21d1 ad3e b0d7 73bf 78be 8e3f 38a0 03be
00000040: 8515 1340 8dc0 aebe bd61 0d3f e2f4 723f
00000050: 6d2b bb3e d8a7 123f 55f5 043f 2fed c03e
00000060: 4d03 c9bd ea13 42bf 4a58 af3d 77da 94be
00000070: 8707 473e 9537 6fbe 9f7e c3be 1b97 843d
00000080: 2392 fe3d 01f1 0c3f c2e4 ccbf e7a7 023e
00000090: a405 103f 2bc8 063f 8ca6 4ebe 7e66 743f
000000a0: 76a3 943e ab7b da3e 5082 673f 077d 04c0
000000b0: fd37 92bf 7b7a 43bf 2907 db3f e33d abbe
000000c0: 77b3 443f fd50 00c0 33f6 be3e 158e f9be
000000d0: e1cb 133f d116 813f c895 1d3e 79bc 25bc
000000e0: da39 8b3f 2045 b5be 8dca 70bf 7ee6 09be
000000f0: 6028 60bf 84a5 5d3f aeb4 2cbe 2761 fcbf
00000100: d082 8abd 9d20 313e 30db 57be 5bb3 823f
00000110: f1b6 22bf 46f7 0dbe 3cfd 17bf 96a3 373d
00000120: 7aef 1bbe 75c4 c83e b5b4 723f 5b39 8b3f
00000130: a47e 103e 3d99 5a3e 5f72 143e 3675 913e
00000140: 6dd9 4fbe 8cb0 b13e e2d8 5bbf b680 c2bf
00000150: 84e4 22c0 b251 98bf 008a 46be 4e7a 843f
00000160: 0ca0 ad3e afe8 06bf 36b8 843f 5f20 093f
00000170: d86b 763f a4f5 6abb dda1 193f 3d12 ca3f
00000180: 8c28 ff3d 5e98 723e dc77 643f d538 523f
00000190: 1701 b2bd 0da3 5abe 9786 5e3f 96ac 813f
000001a0: a093 fabb 877b d4be 9f3a 4abf fdaa f1bd
000001b0: d85e 46be a04d c83e b932 23be 9852 41bf
000001c0: 9b85 333f b0c3 6dbf 5d69 093f 5fd8 c1bd
000001d0: 87a7 d1bf 79d9 81bf 859b 813e 2ad9 9abf
000001e0: 2073 0b3e 3168 8e3f f153 d73f 176d 7cbe
000001f0: 5e74 6a3e c30f 63bf d4b5 3abd a40b 573f
00000200: 9527 813d c8f3 d23e dc9c b83e 106d 63be
00000210: 0b16 06bf 6cb1 a4be d1a1 8b3e 3daa 12be
00000220: 9e26 8fbe 7ca8 773f 14f6 9b3f 265e 86be
00000230: 0662 bbbf 859a 77bf 24ab a2bf cf9b 6b3e
00000240: 43f6 41bf d44d 4ebf 8e26 103e 06c6 11bf
00000250: 79c2 6c3f f565 ba3f c72c 703f 2660 f53e
00000260: a362 033d 5903 b6bd f5db bebe 72f5 32bf
00000270: d71b ef3e bdc7 94bf 0a46 023f 1017 7e3d
00000280: f244 d5be 4c25 74be 7951 133e 5f65 323f
00000290: 0291 60bc ab71 83bc fbbe 36bf 3daa 743f
000002a0: 714e 6ebf 7b5e 073f 9c63 2abe 4d35 89be
000002b0: fc58 a83c b647 17bf 6222 2bbf 5943 20bf
000002c0: 13f6 c33e 778e 363f a323 e53e bf7a 9cbe
000002d0: 2ab1 a93f eec6 c63e b4b1 a2bc 61cf 953f
000002e0: eff1 2f3f 9116 b23b ca64 62bc 934d b7bf
000002f0: 247d 9f3f 0f94 693f 078b 1ebe 8dfd 853e
00000300: b997 c53d c34e ee3e 7bdc 5b3e d011 b7bd
00000310: 7985 9cbf 030c 80bf 006d 223e 19b3 be3e
00000320: c89c 7dbf fe13 313f 83c9 18bf 14e4 fa3e
00000330: cf82 b33f a2f0 92bf d438 923f b5ae d73f
00000340: de5a 803e f17e 0ebe 6646 a6bd 9134 403f
00000350: 83f7 d8be 793d 5a3e e83f 02bf c43a 14bb
00000360: 492f 873f 3654 59bf cadf a8bf 8744 53bf
00000370: 685b e1be 95eb 6a3f 9b16 843d 4dc1 febd
00000380: 05dd 753f 5baf 14be d61c 27bf 3d70 61bf
00000390: f1d3 613f c872 b03e 1bc3 9c3f 17a6 cfbe
000003a0: fd2d 243e 445f 11bf ab86 3abf ded4 37bf
000003b0: 5a0e 15bf 54bc 033f 87b5 acbf c21d 4b3f
000003c0: 620b 2cbf fcef bfbf 95ee d6bf 8099 5bbd
000003d0: f741 92bf ce34 c03e 26ad 623f cddc 133f
000003e0: c145 99bf 19f6 a9be cb40 ab3e 5d7b 34bf
000003f0: cf26 96bf 4a8e 853e d5ff 883e 88e3 0e3f
-1.0990732 0.4426493 -0.49422792 -0.5348488 0.6837601 -0.49603704 -0.42099968 -0.5151527
0.35331112 0.1524425 -0.3171641 0.84986365 0.33948615 -0.9525099 1.1151876 -0.12854087
2.2981884 -0.3413128 0.5522726 0.9490491 0.3655657 0.5728736 0.51936847 0.37680957
-0.09815083 -0.75811636 0.08561762 -0.29072925 0.19436465 -0.23361047 -0.38182542 0.064741336
0.12430217 0.5505524 -1.6007311 0.12759362 0.56258607 0.5264918 -0.2018072 0.9546889
0.2903096 0.42672476 0.90433216 -2.070131 -1.1423336 -0.76358765 1.711156 -0.33445653
0.7683634 -2.0049431 0.3729721 -0.48741212 0.5773297 1.0085088 0.15389168 -0.010115736
1.087703 -0.354043 -0.9405907 -0.13466832 -0.8756161 0.8658068 -0.16865799 -1.9717149
-0.06763232 0.17297597 -0.21079707 1.0210985 -0.63560396 -0.13863859 -0.5937078 0.044833742
-0.15228072 0.39212385 0.9480699 1.0876878 0.1411081 0.21347518 0.14496754 0.28409737
-0.20297785 0.34705007 -0.8587781 -1.519553 -2.5451975 -1.1899931 -0.1938858 1.0349824
0.3391117 -0.52698797 1.0368717 0.5356502 0.96258307 -0.003585198 0.6001261 1.5786816
0.124589056 0.23690936 0.8924539 0.8211797 -0.08691614 -0.21351261 0.8692412 1.0130794
-0.007646993 -0.41500494 -0.789957 -0.118001916 -0.19372118 0.39121723 -0.15937318 -0.75516653
0.7012574 -0.9287672 0.53676397 -0.09465098 -1.637925 -1.0144492 0.25313964 -1.2097523
0.13618135 1.1125547 1.6822492 -0.2465099 0.22895953 -0.88695925 -0.04558356 0.8400214
0.06306378 0.41201615 0.36057174 -0.22209573 -0.52377385 -0.32166612 0.27271894 -0.14322753
-0.2795915 0.9674146 1.2184472 -0.26243705 -1.4639289 -0.96720153 -1.2708478 0.23008655
-0.7576639 -0.80587506 0.14077207 -0.56942785 0.9248424 1.4562365 0.93818325 0.47924918
0.03207649 -0.08887357 -0.3727719 -0.6990577 0.46700928 -1.1623455 0.5088812 0.062033713
-0.41654164 -0.23842353 0.14386548 0.6968593 -0.013706448 -0.016045412 -0.71385163 0.95572263
-0.9308844 0.5287854 -0.1663956 -0.26798478 0.020550244 -0.590938 -0.6684934 -0.62602764
0.38273677 0.71311134 0.4475375 -0.30562398 1.3257191 0.38823646 -0.019860126 1.1703912
0.68728536 0.005434819 -0.013817975 -1.4320549 1.2460065 0.91241544 -0.15482722 0.26170006
0.096480794 0.46544465 0.21470825 -0.08938944 -1.2228233 -1.0003666 0.15861893 0.37246016
-0.99067354 0.6917113 -0.5968248 0.49002135 1.4024295 -1.1479685 1.1423593 1.6850191
0.25069326 -0.13915612 -0.08118896 0.7508021 -0.42376336 0.21312512 -0.50878763 -0.0022618035
1.0561305 -0.8489412 -1.3193295 -0.8252644 -0.4401505 0.9176572 0.06449624 -0.12439213
0.96040374 -0.14520018 -0.65278375 -0.8806189 0.8821402 0.3446257 1.2247041 -0.40556404
0.16033168 -0.5678599 -0.72861737 -0.71809185 -0.58225024 0.5145924 -1.3492898 0.7934228
-0.6720487 -1.4995112 -1.679156 -0.053613186 -1.1426381 0.37540287 0.88545454 0.5775879
-1.1974412 -0.3319557 0.3344787 -0.7050074 -1.1730593 0.2608512 0.26757684 0.55815935

weight_hh_l0_reverse f4 [128, 32]
00000000: ef2b d93e f53c 58bf be87 f93e 4290 683f
00000010: 9f9a 423f ebd6 e1be fe28 bebe da34 92bd
00000020: 5c23 efbf 3ac7 463f 5b5c b5be be72 8cbe
00000030: 1a2d fe3e af38 da3b 86a2 87bf de33 efbe
00000040: 2e18 e93e 5913 413e 6010 8cbf 63ee d8be
00000050: 77ec 353f 1337 4f3f fd9a 753e 3c66 953e
00000060: 4780 4b3f 8886 69bf 098d 843f 4585 393f
00000070: d136 033f 3f99 4dbf a2e8 683f 195d 483f
00000080: e21a 8abb b1d8 67be 838d 283f 95b2 86be
00000090: f6b0 f23f 8708 e43f 7517 723d 47fa a83f
000000a0: c81b ce3e b88e 133f 9b56 52bf 20dc a73c
000000b0: bf9f cb3e 9e1f 0ebf 74f0 abbe 1a33 483e
000000c0: e7bb 10be f3a4 203e 1807 c3bf 0b62 dd3e
000000d0: 50b6 51bf 8274 3b3f a977 c43e 9385 83bf
000000e0: 10f5 a4bf 3086 8dbf 73bb e23c 4745 a7bd
000000f0: 0eda c83e e306 7abf a600 853f 39a8 f2bf
00000100: ff0f 62bf c901 1abe b2f3 9c3f cfd4 fd3e
00000110: 1250 e83f 0caa aabe 81da 18bf c386 17bf
00000120: a8c4 51bf 02f1 06bf 5bf6 7fbe b3f0 723d
00000130: d561 3a3f 9f08 fdbe e080 873e 5fa2 abbf
00000140: 9300 e43f db61 b3bf e74c e03e 6023 043f
00000150: 2010 95bf d6b4 e73e 9658 67bf d6b2 063f
00000160: 87a4 ba3f 4954 d73f 3421 203e 47f2 2ebf
00000170: 3c01 a2be 22eb ae3e 49e9 be3e 89ab 683f
00000180: a443 00bf 013f 0dbf 8e8e 693e f82d bd3f
00000190: dee9 aabf 6f88 68bf 790d 2f3f 2398 45bd
000001a0: 806e 773e 48d4 c7bf b605 f7be 7efe 21bf
000001b0: dc4e ebbe d5f3 3d3d 023c 05be ec90 303e
000001c0: 428c 9e3e 3254 eabe 0ce3 e33e 725d cf3e
000001d0: f12c 573f ec42 d23d ad5d f9bd 2f17 ce3d
000001e0: f71d 8b3d 2909 c43c a3bf 8c3f 6f44 403f
000001f0: 41a1 5bbe 19a7 c9be e94f 523f 1b68 38bf
00000200: 1221 40bf 5e2c a03e 1786 a3bf 4af0 1fc0
00000210: e035 37be cee6 3dbe fda1 c63e d711 10be
00000220: a475 82bf 0853 603f ff98 103d 1cf4 13be
00000230: ec74 1abf 153b aa3e 8582 5a3f 7bb8 11be
00000240: 9036 f43f 73b0 833e 02de 743f dd6d 18bf
00000250: 2a70 3d3f 7029 6c3e a8d8 4dbf db55 363e
00000260: ec15 0b3f 8567 303f 39ea 9c3d 8332 75bf
00000270: 9507 90bf 63f1 2940 0eaa 86bf 2b1e cb3e
00000280: 361c 623f 1d47 53bf ad79 403f 960d df3e
00000290: 0734 a7bf e51d 293f a8b2 a93d 24b5 c4be
000002a0: 8f77 bc3f e19d 0ac0 69cb 7dbf c374 9b3f
000002b0: 930f 6cbe 2829 433f a292 903f b347 e43f
000002c0: f803 1cbf e1f5 d5be e660 d73e e579 6bbf
000002d0: 743a 24be 1ad2 ff3e 2e53 f23f 5ed0 4c3e
000002e0: 9973 8cbb 1233 913e 0035 463e 6b9a f3be
000002f0: bb06 9dbf 0967 19bf 9770 5ebf dbb4 333e
00000300: c115 543e a90d 0940 f755 2dbf 4646 a7bd
00000310: b876 de3e ce39 8bbf 9a65 283f 7466 99be
00000320: bae3 f5be 6e0e 323f 393b a43f f05f 07be
00000330: 6b57 273f 2c06 d9bf 32b7 ec3d 91b1 9f3e
00000340: 4d77 f83e 5341 783f 84af 84bf 7f4b 8e3f
00000350: a743 3c3e 49c7 8d3e 6884 3dbe d6c1 23bf
00000360: a31c 24bf e6a4 99bf 9763 7abf 4d34 7dbe
00000370: 13e0 843f ac7f 43bc 6a46 b33f 9c8f c6be
00000380: cf05 773e e3db f03e f843 7d3f 2823 b83e
00000390: 16e1 18bf fa3f 1c3e f53f 64be 2fbe e03e
000003a0: fc0e 503f 61ec 603f deaa c83e 8ff4 2c3f
000003b0: 119a 94bc 4c18 98bf 96ed ecbd 38ac 0c3e
000003c0: 947c 123f 5e32 8abe 408e 113d 404d cdbe
000003d0: 01a2 713f c9d5 133f aa95 783d 61b9 aebf
000003e0: 370a 973f 2817 d3be 630e ccbf d356 4ebf
000003f0: 5e75 1e3f 891e e4be 3fef acbd 5e8d 703f
0.4241633 -0.84468013 0.48736376 0.9084512 0.76017183 -0.44109282 -0.3714065 -0.07138987
-1.8682666 0.77647746 -0.35422024 -0.2743129 0.49643785 0.0066595892 -1.0596473 -0.4671926
0.4552626 0.18855037 -1.0942497 -0.42369375 0.7106394 0.8094341 0.23984905 0.2917956
0.7949261 -0.91220903 1.035554 0.7246898 0.5125552 -0.8031196 0.9097997 0.78267056
-0.0042146305 -0.22641255 0.6584093 -0.26308122 1.8960254 1.7815102 0.0591044 1.3201379
0.4025557 0.57639647 -0.821634 0.020490706 0.39770314 -0.55516994 -0.3358189 0.19550744
-0.14134179 0.15687923 -1.523654 0.43238863 -0.8191881 0.7322465 0.38372543 -1.0275139
-1.2887287 -1.1056576 0.027677273 -0.081675105 0.39228863 -0.9766676 1.0390823 -1.8957587
-0.8830566 -0.15039743 1.226187 0.49576423 1.8149436 -0.3333286 -0.5970841 -0.59190005
-0.819407 -0.527115 -0.24996321 0.05931158 0.7280553 -0.4942064 0.2646551 -1.3408927
1.7812675 -1.4014238 0.43808672 0.5161648 -1.1645546 0.45255154 -0.90369546 0.5261663
1.458146 1.6822597 0.15637666 -0.68338436 -0.31641567 0.34163767 0.37287357 0.9088674
-0.5010321 -0.5517426 0.22808287 1.4779654 -1.3352621 -0.9083318 0.6837993 -0.048240792
0.24163246 -1.5611658 -0.48246545 -0.6327895 -0.45958602 0.046375114 -0.13011172 0.17242783
0.30966383 -0.4576736 0.4450916 0.4050098 0.8405295 0.102666706 -0.1217607 0.10063016
0.06792825 0.02393015 1.0995983 0.7510442 -0.21448232 -0.39385298 0.82153183 -0.7203385
-0.7505046 0.3128385 -1.2775296 -2.499041 -0.17891645 -0.18545076 0.38795462 -0.14069305
-1.0192151 0.87626696 0.03530216 -0.14448589 -0.6033466 0.332482 0.85355407 -0.1423053
1.9079151 0.25720558 0.9565126 -0.5954264 0.73999274 0.23062682 -0.80408716 0.17806189
0.54330325 0.6890796 0.07661862 -0.957802 -1.1252314 2.655358 -1.0520647 0.39671454
0.88324296 -0.82530385 0.7518566 0.43565053 -1.3062752 0.6606124 0.08286029 -0.3841945
1.4723986 -2.1658862 -0.99138504 1.2145008 -0.23052816 0.76234674 1.1294749 1.7834381
-0.60943556 -0.41789153 0.42066115 -0.9198287 -0.16037923 0.49964982 1.8931634 0.20001361
-0.0042862413 0.28359276 0.19356155 -0.4757875 -1.2267679 -0.59922844 -0.8689055 0.1754946
0.20711423 2.1414587 -0.67709297 -0.081677005 0.4344995 -1.0877016 0.6578003 -0.29960978
-0.48025304 0.6955327 1.2830573 -0.13220191 0.65367764 -1.6955009 0.11558379 0.3119016
0.4852852 0.96974677 -1.0366063 1.111679 0.18385182 0.27691105 -0.1850754 -0.63967645
-0.64106196 -1.2003448 -0.9780821 -0.24726982 1.0380882 -0.011932295 1.4005864 -0.3878144
0.2412331 0.4704276 0.9893184 0.35964322 -0.59718454 0.1525878 -0.22290023 0.438951
0.81272864 0.87860686 0.3919286 0.67560667 -0.01813987 -1.1882415 -0.115687534 0.13737571
0.5722134 -0.26991552 0.03553605 -0.40098 0.94387823 0.57748085 0.060689606 -1.3650323
1.1799992 -0.41228604 -1.594189 -0.80601233 0.6189784 -0.44554546 -0.0844407 0.9396571

bias_ih_l0_reverse f4 [128]
00000000: 031d e03e a375 db3e 76e2 8dbe f885 87be
00000010: da2d 13bf 6245 23bf 0e87 383f 5db1 c43e
00000020: f90c 8cbf c05d 8c3f e768 de3e 70fc 42bf
00000030: 5b0a 1ebf b01f 863e b035 86bf 0843 a4bf
00000040: 4e0c d23e 70c2 06bf a80f 153d 8975 9f3d
00000050: 3f65 4cbd bf88 613f c168 cebd cd13 af3e
00000060: c71e 16be 3a0f 66be aefe 25be c364 eabe
00000070: 3457 ee3e ef20 05bf 5897 85be 8a6d 55bf
00000080: 4337 923e 4dc5 2bbe e702 743f e530 7dbf
00000090: 47b9 f6be 908b 283f 3574 883f f82f ba3e
000000a0: 1e8b 0abe bdaf e43d abe2 033e e9f3 5dbe
000000b0: d5b3 23bd b220 233e df7e b7be d01a 643e
000000c0: 8185 6abf 0b22 c3be ff75 2e3e b429 623f
000000d0: 2b5e 42be 1ed5 133d 3c57 f5be 6b9b 3d3e
000000e0: 4496 a73f 1946 413f f591 01bb 324c 7e3f
000000f0: 17c2 933f f65c 92bd 9410 efbe 0e8d 7c3f
00000100: 8733 923e db61 223f b8f3 3a3e dbfc 71bf
00000110: 523f 3e3c a2fd 25bf b6ac 943f f0b9 a23f
00000120: 174d 9abc 96cc 9c3f b84f 25bf 42b6 0dbf
00000130: 9e79 ae3e b2fa 353f 4b2f 5bbf 3e52 fabd
00000140: c784 1dbf a00e 463f c89d bfbf 229b b2bf
00000150: 55d8 ef3f d592 883f 594f 2ec0 8132 89bf
00000160: 9236 09bf 1dd4 32bf 5fdc 83bf 3e49 88be
00000170: 6590 993f 36f8 8f3f d204 623f 38e7 b5be
00000180: 3c9c f5be 56bf dbbe c7a1 513d 79cd dcbe
00000190: 9f22 833c 358e 883e 9166 a33f fe32 db3e
000001a0: 54d0 093e 3413 e73f 6c0a 033f 410f 48bf
000001b0: 6383 273e 9459 193f e19a 443e e34a 173f
000001c0: b165 f33e 26f0 313d 8051 083f 8488 673e
000001d0: 0793 f13b 8c15 463f 117e cb3f b844 fa3e
000001e0: 5be2 ccbd 1c76 613f 41a3 10bf a040 47be
000001f0: be55 4040 0d3e 093e a550 39bf be3d 93bd
0.43772134 0.42863187 -0.27711838 -0.26469398 -0.5749184 -0.63777745 0.7208108 0.38416567
-1.0941459 1.096611 0.4343941 -0.7616644 -0.6173455 0.2619605 -1.0485134 -1.2832956
0.41025013 -0.5264044 0.036391884 0.0778609 -0.049901243 0.8809928 -0.10078574 0.34194794
-0.14660178 -0.22466746 -0.16210434 -0.4578 0.46550906 -0.5200338 -0.2609203 -0.8337027
0.28557786 -0.16774483 0.9531693 -0.9890273 -0.4818823 0.65837955 1.0660464 0.36364722
-0.13529631 0.11166332 0.12879436 -0.21675076 -0.039966423 0.15930441 -0.35838982 0.22275853
-0.9160996 -0.3811191 0.170372 0.88344884 -0.18981235 0.036091916 -0.47918117 0.18516319
1.3092732 0.75497586 -0.0019770835 0.99335015 1.1543607 -0.07146637 -0.46692336 0.9865273
0.28554937 0.63430566 0.18257034 -0.9452645 0.011611776 -0.6484014 1.1615207 1.2712994
-0.018835587 1.2249935 -0.64574766 -0.5535623 0.34077162 0.71085656 -0.8561904 -0.12222718
-0.6153073 0.77366066 -1.4970026 -1.3953593 1.8737894 1.066981 -2.723593 -1.0718538
-0.5359889 -0.6985491 -1.0301627 -0.2661838 1.1997191 1.1247623 0.88288605 -0.35527968
-0.4797076 -0.42919415 0.051179674 -0.43125513 0.01600772 0.26670995 1.2765676 0.4281234
0.13458377 1.8052735 0.5118778 -0.78148276 0.16358714 0.5990231 0.19199707 0.59098643
0.47538522 0.043441914 0.5324936 0.2261067 0.0073722634 0.7737663 1.5897847 0.48880553
-0.100041114 0.88070846 -0.56499106 -0.19458246 3.0052333 0.13402577 -0.7238868 -0.07189511

bias_hh_l0_reverse f4 [128]
00000000: c7dc a33e 11c1 ac3e 1815 84be e21a acbe
00000010: 9396 53bf 8cd5 47bf 1347 2f3f 571d 863e
00000020: 815e 86bf 9f41 9f3f 33b8 9e3e 7935 18bf
00000030: fc80 e0be 96d1 cd3d ba3a 5fbf ddd5 9fbf
00000040: 26db 763e 8715 45bf 1935 8d3d ee0f 83bd
00000050: 6eae 73be 0884 623f daf4 9d3d ce8e f43e
00000060: 98a6 09be 0b1e 3bbe c86f 03be 2609 01bf
00000070: 0604 063f 88cb 09bf d0f4 2ebe f514 33bf
00000080: 0182 793e a3bb bcbe 89df 5e3f 30c8 83bf
00000090: 0943 8abe 0204 243f 578b a73f da0c 483e
000000a0: 68fb 623d 45e8 7fbd d38b be3e 14a2 e7bd
000000b0: 820f 173b a87b e53e f617 56be 1100 983e
000000c0: 4a4f 67bf 0ed1 7bbe a1e4 2e3e 3cff 253f
000000d0: 4330 74bd 3c52 6abe d865 38bf 56b0 343e
000000e0: 7aea 8c3f 0900 2f3f d95a 82bd 5020 813f
000000f0: 9caa 963f add3 25be a287 84be 832e 893f
00000100: 0c16 083e 0079 4b3f e89a 263e 43fc 33bf
00000110: 6aab db3d 20ab 04bf 4ddc a23f 5672 a53f
00000120: 05d7 79be 3bdd a13f 782c ebbe 06e1 8abe
00000130: 6d7b 6d3d 8a0b 013f 9191 71bf e200 30be
00000140: 1562 fcbe b5c3 593f f6dd a9bf f09e c5bf
00000150: edf2 e53f 7ada 5b3f dadc 36c0 7f58 92bf
00000160: ad26 1abf 6a3d 0fbf edcb 92bf a6fc bdbe
00000170: e6e1 b33f e4c9 a63f f869 573f f3ef 3fbe
00000180: 73fe d2be 9c72 c8be e402 99bd ec9d cdbe
00000190: 884d 523d 9c3b f23e 501b 923f 395d 093f
000001a0: e55c 743d 7ffa e53f 2f68 d73e 8f97 4bbf
000001b0: 1d04 443d 546d 103f 2993 423e e601 e53e
000001c0: 3791 d43e 8671 4cbe ccec 123f 1ba3 a73e
000001d0: f1b0 9fbd 6e64 043f 2a0a ed3f b616 ec3e
000001e0: b0c1 7cbe c992 1f3f de41 11bf 9963 79be
000001f0: 98db 4240 61a9 433e 303d 5bbf bc9d 453d
0.32004377 0.33741048 -0.25797343 -0.3361426 -0.82651633 -0.7806022 0.68467826 0.2619426
-1.049759 1.2441901 0.30999908 -0.5945659 -0.43848407 0.10049741 -0.87198985 -1.2487141
0.24107036 -0.76985973 0.06894893 -0.06399523 -0.23797008 0.88482714 0.07712717 0.477652
-0.13442457 -0.18273179 -0.1283561 -0.50404584 0.5234989 -0.5382619 -0.17085576 -0.6995385
0.24365999 -0.36861905 0.8705984 -1.0295467 -0.2700427 0.64068615 1.3089398 0.19536152
0.05541554 -0.06247737 0.37216052 -0.11310211 0.0023050015 0.44820905 -0.20907578 0.2968755
-0.9035536 -0.24591467 0.17079403 0.6484258 -0.05961634 -0.22882932 -0.720304 0.17645392
1.1009057 0.6835943 -0.06364984 1.0087986 1.1770816 -0.16194029 -0.2588473 1.0717319
0.1328966 0.79481506 0.1627003 -0.70306796 0.10726054 -0.51823616 1.272348 1.2925518
-0.2439843 1.2645639 -0.45932364 -0.27124804 0.057979036 0.5040823 -0.9436274 -0.17187837
-0.4929358 0.8506425 -1.3270862 -1.5439129 1.796476 0.85880244 -2.8572297 -1.1433257
-0.60215265 -0.55953085 -1.1468483 -0.37106818 1.4053314 1.3030362 0.8414607 -0.18743877
-0.41209754 -0.3914994 -0.074712545 -0.40159547 0.05134347 0.47311103 1.1414585 0.5365787
0.059658904 1.796707 0.42071673 -0.79528135 0.047855485 0.5641682 0.1900145 0.4472801
0.4151704 -0.19965181 0.57392573 0.32741627 -0.07797421 0.51715744 1.8518727 0.46111077
-0.24683261 0.6233335 -0.5674113 -0.243544 3.044653 0.19107582 -0.8564024 0.04824613

weight_ih_l1 f4 [128, 64]
00000000: c413 b939 69bb 11bf 7a23 483f 9638 003f
00000010: dc29 48bf 74d4 32bf 10e0 f73e 163a 133f
00000020: b94d 80bf e4e2 0cbf 0785 d53e ac56 e4bd
00000030: c53d 91be e330 87be 8dda 2e3f d10c 91be
00000040: 876c 873f 5368 95bf aa25 5c3f c0aa 76be
00000050: eef6 a33f 002e 043f 071c 3ebf b156 c5bf
00000060: 34f1 aa3e 2dd0 9a3d fb88 a23f 16bd 763f
00000070: 5f9a 403f a76e 353d 5f36 813f fdf6 793f
00000080: eb57 c43e 6580 6a3e 9a7a b93e e189 cdbe
00000090: 9de0 f9bf 23f3 f33e 12d5 f3be 5390 86bd
000000a0: 4ce3 b73f c52e 0fbf 7b42 5b3d 7173 adbd
000000b0: 17c4 35bf 9759 0cbe fc5f 7b3f aa79 06bf
000000c0: 7feb 47be 5e1d 8d3f 0d64 243f 7b8a 0bc0
000000d0: abfc ae3f 0384 913f a508 473f ce05 083f
000000e0: d78a d1bf 72b9 e8bf b5dd 923e 6dad bbbf
000000f0: e3b2 ae3f 67ec 55bf 03df 423f 4f11 9abf
00000100: e1d8 053f 6422 f4be 10db 253e 0d70 5c3f
00000110: 94fb c63f bacb bbbf 46be 373d 5112 fb3e
00000120: 0c3b 263f 3aaf c73f ed3b ddbf 6449 c7bc
00000130: 3a5d 1abe e971 c23f 990d 7fbe e07b 66bf
00000140: e6dc d63e b46a 31bf b065 e53e 7857 1abe
00000150: c692 91bf b971 d8be 8f84 0e3f 83ad f8be
00000160: f57e 7d3f 145d 433f a198 08ba 86c2 f8be
00000170: 44d9 763e f6e7 ebbe b1e8 9c3f 7651 3f3f
00000180: db33 a9bf b881 523f f2cd b43e 410a ddbe
00000190: 8a3b 1a40 ccd1 1a3f bc0f 803e 8b6b c43c
000001a0: f0cf 95bf b629 95bf 5dbd f5be 0e45 2b3f
000001b0: 3661 943f 6b9c 5d3f 22e4 833e 2bfc b23e
000001c0: 8093 11c0 67b5 b83f 5bfd b33e 4bde 96bf
000001d0: 47c1 8bbe 49e8 f8bd a402 933f bf16 73bf
000001e0: ecb8 e7be 9bed 2d3f a036 923e 8a87 453f
000001f0: d314 9fbf 9ab0 54bf 16b1 cbbd 6889 8b3e
00000200: 9484 34bf f585 a3bd a1fd f0bf 4b93 41bf
00000210: e1a4 bf3e e537 80bf bd07 49c0 77ee 4a3e
00000220: c0f4 903f 5a05 66bf 9add 3b3f a755 86bf
00000230: 1ca6 e23e a58b bbbf fb78 973e 0cae 133f
00000240: 1e68 933f 3497 113f c15b 083f 29c0 bebd
00000250: 6561 56bf 1745 7ebf ce72 be3e a6e9 573d
00000260: 1192 273e 3ba5 39bf 1ec8 97be 76d8 9dbf
00000270: 8df9 01bf da54 593f 1da2 033f ceb7 d33e
00000280: 0c24 bd3f b280 8fbe faec c73f 53c5 07bf
00000290: c8e7 9bbf 5d9d 85bf c334 5cbf bcfb 613f
000002a0: 89df 9abc 21de 1440 5e9a 753e 9461 1dbf
000002b0: eec2 8abf 7748 4dbe 32c3 813e 8874 ae3e
000002c0: 5ba9 7dbe e76d 0bc0 0af9 5a3e ebb2 63bd
000002d0: d503 b33e 670e 633f 5a0b ea3e 0030 0f3f
000002e0: a946 4c3d c7ce 55be 5081 74be a293 1bbf
000002f0: 51d1 623f dc6f 303e 23dc c8bf 043f 02bf
00000300: 1ac4 eebf b047 f8bf 2bca 8e3f d363 d73e
00000310: d9d5 f9bf 4f40 89bf a340 94be 18de 963e
00000320: 8131 223f 22cb 94bf b52e 8bbe e35e b5bf
00000330: aff5 0740 dfe5 8a3e 795b 793d 3130 393f
00000340: 9994 2cc0 1ece 2d3f 09e5 06be e829 cebe
00000350: eda5 b2bf 4413 9c3d 5c7e 23bf 6d1f 0e3f
00000360: 1833 10c0 9706 6d3e 4445 793f 8bd4 0c3f
00000370: 5ceb 76bf cc53 0abd 7453 3ebf 9f32 123f
00000380: 323e a8bf fba0 2fbf cdfb 033f 6865 263d
00000390: 4f8c bcbf 412b a4be 47ad 09be 29e8 253e
000003a0: 393c d5bf b48d 0240 f647 82bd ca5d e83e
000003b0: cc6d 043e fe3d 06bf a4a5 cfbf 7929 d7be
000003c0: 8608 a03e 6dcc cbbe 21c8 bf3f e28a d33e
000003d0: 49b0 f2be 34cc e6be bd01 11bf d2aa 3fbe
000003e0: 9940 e3be 3ec3 983f ebc9 31bf d4df 8cbe
000003f0: 0ed8 963f eccf 9f3f bd53 00be 551f cc3e
0.00035300676 -0.5692659 0.7817913 0.50086343 -0.7818887 -0.6985543 0.48413134 0.5751051
-1.0023719 -0.5503371 0.41703054 -0.11149344 -0.2836744 -0.26404485 0.6830223 -0.2833009
1.0579995 -1.1672462 0.8599497 -0.24088573 1.2809732 0.5163269 -0.74261516 -1.5417081
0.33387148 0.07559238 1.2698053 0.9638227 0.7523555 0.04429498 1.0094718 0.976425
0.38348326 0.22900541 0.3622635 -0.40144256 -1.9521672 0.47646436 -0.47623497 -0.065704964
1.436624 -0.5593074 0.053530198 -0.08469284 -0.71002334 -0.13706051 0.98193336 -0.52529395
-0.19523428 1.1024587 0.64215165 -2.1803272 1.3670858 1.1368412 0.77747566 0.5313386
-1.6370496 -1.8181593 0.28684774 -1.46623 1.3648342 -0.83563846 0.7612154 -1.2036532
0.52284056 -0.47682488 0.16196847 0.86108476 1.5545526 -1.4671547 0.044859193 0.49037412
0.6493385 1.560035 -1.7283913 -0.024326988 -0.15074626 1.5191013 -0.24907531 -0.9003277
0.41965407 -0.6930344 0.44804144 -0.15072429 -1.1372917 -0.42274264 0.5567102 -0.4856988
0.99021846 0.763139 -0.0005210732 -0.4858591 0.24106318 -0.4607541 1.2258512 0.74733675
-1.321895 0.82229185 0.35313374 -0.43171886 2.409884 0.60476375 0.25012004 0.023977062
-1.1704082 -1.1653354 -0.47996035 0.66902244 1.1592166 0.865668 0.2575999 0.34958014
-2.2746277 1.443036 0.35154232 -1.1786588 -0.27295896 -0.1215368 1.1485181 -0.9495658
-0.45258272 0.6794068 0.285573 0.7715994 -1.242823 -0.8308197 -0.09945886 0.2725327
-0.705148 -0.07984535 -1.8827401 -0.75615376 0.3743048 -1.0017058 -3.1410973 0.1981753
1.1324692 -0.89851916 0.7338501 -1.0494889 0.44267356 -1.4651991 0.29584488 0.5768745
1.1516149 0.5687134 0.53265005 -0.093139954 -0.8374236 -0.9932417 0.37196964 0.05271306
0.16364314 -0.72517747 -0.29644865 -1.2331684 -0.5077141 0.848951 0.5141924 0.4135117
1.4776626 -0.28027874 1.5619195 -0.5303547 -1.2180109 -1.0438648 -0.8601801 0.8827474
-0.018905418 2.3260577 0.23984668 -0.6147702 -1.0840738 -0.20047174 0.25344235 0.3407328
-0.24771635 -2.178583 0.21384063 -0.05559055 0.3496386 0.8869385 0.45711786 0.5593262
0.049872074 -0.2087966 -0.23877454 -0.60772145 0.8860064 0.17230171 -1.569218 -0.50877404
-1.8653595 -1.9396877 1.1155447 0.42068347 -1.9518386 -1.072275 -0.28955564 0.2946632
0.63356787 -1.1624491 -0.27184072 -1.4169582 2.1243703 0.27128503 0.06087825 0.7233916
-2.6965697 0.67892635 -0.13173307 -0.40266347 -1.3956887 0.07620862 -0.63864684 0.555167
-2.2531185 0.23147045 0.97371316 0.55011815 -0.9645288 -0.03377132 -0.7434609 0.5710849
-1.314398 -0.6860501 0.5155609 0.040624052 -1.4730319 -0.3206425 -0.13445006 0.16201843
-1.6659003 2.0398989 -0.06361382 0.45384055 0.12932509 -0.5243834 -1.6222425 -0.4202383
0.31256503 -0.39804402 1.498295 0.41316897 -0.4740012 -0.4507767 -0.5664328 -0.18717507
-0.44385222 1.1934583 -0.6944873 -0.27514517 1.1784685 1.2485328 -0.12531944 0.39867654
