result/model-morp-sum-seq-norestrict/model.pt (torch_old, 267572 bytes, 21 tensors)

weight f4 [32, 4]
-1.5255959 -0.7502318 -0.6539809 -1.6094848 -0.45957243 -0.7076031 -0.9977084 -1.6724483
-0.53811854 0.80944353 -0.2957097 0.21175015 0.12658502 1.9350289 0.42642125 0.6265042
-0.51705253 -1.0474288 0.7779324 0.27152616 1.2522047 0.6126099 -0.3321808 1.1939702
1.1317452 -0.34464 -2.4840672 -1.6206119 -0.053128008 -0.8087118 -0.96124697 -0.32092333
2.0110586 0.28378654 0.48367676 -0.45341077 0.3546468 -0.333549 -0.25658885 -0.8784623
-0.03700824 0.33767107 -0.16571143 -0.03138489 2.5034335 -0.7226773 1.8905953 -0.3613468
-0.97085464 0.53434813 0.18414566 -0.40675557 0.9016736 0.5462651 1.2159083 2.0859978
0.091109805 0.8093391 -0.27187738 -0.76668215 1.5910002 -0.8198237 -3.3454401 -0.73532397
0.024256939 -1.0937433 -0.7050418 -1.0855985 -0.06290128 0.19775191 1.9022452 0.2665414
-0.62384886 0.031372674 -0.7949139 -0.62941194 -0.5012065 -0.59861445 0.35865226 -1.0142016
-0.4000369 0.22187455 -0.65062845 0.8336456 -1.3465437 -0.38493583 0.28468773 -0.044063944
0.19481051 -0.6028537 -1.1344856 0.63139266 -1.0483401 -0.4708772 0.29113635 1.9907043
0.6614453 1.1899205 0.8165339 -0.9135236 1.3851457 -0.81384623 -0.92757654 1.1119633
1.3352057 0.6042736 -0.10344208 -0.15121692 -2.102083 -0.62002194 -1.478231 -1.1334175
0.8737963 -0.5602594 1.2857845 0.81682384 0.2053041 0.30510718 0.535687 -0.431185
2.5581384 -0.23336388 -0.01347213 1.8606348 -1.9804063 1.7985829 0.10181159 0.340006
00000000: ba46 c3bf 310f 40bf 4b6b 27bf 9903 cebf
00000010: 144d ebbe 7a25 35bf d169 7fbf c912 d6bf
00000020: 23c2 09bf b137 4f3f 4367 97be 08d5 583e
00000030: 819f 013e 07af f73f e353 da3e 9462 203f
00000040: 8e5d 04bf 2612 86bf 9426 473f 7a05 8b3e
00000050: 3e48 a03f 01d4 1c3f 9a13 aabe 04d4 983f
00000060: 07dd 903f a774 b0be f5fa 1ec0 3670 cfbf
00000070: c19c 59bd bd07 4fbf 4814 76bf 1050 a4be
00000080: 2fb5 0040 784c 913e 7ba4 f73e 7525 e8be
00000090: 4494 b53e efc6 aabe 9d5f 83be e8e2 60bf
000000a0: f495 17bd 39e3 ac3e 42b0 29be 718d 00bd
000000b0: 4138 2040 6101 39bf 07ff f13f 7302 b9be
000000c0: ee89 78bf 0acb 083f ae90 3c3e 4442 d0be
000000d0: 15d4 663f 08d8 0b3f e2a2 9b3f fd80 0540
000000e0: c797 ba3d d930 4f3f 8333 8bbe 4845 44bf
000000f0: e5a5 cb3f f7df 51bf b11b 56c0 313e 3cbf
00000100: 7db6 c63c c8ff 8bbf 9f7d 34bf e4f4 8abf
00000110: 63d2 80bd 7a7f 4a3e c57c f33f 1d78 883e
00000120: 8fb4 1fbf a280 003d 7a7f 4bbf 2421 21bf
00000130: 124f 00bf cc3e 19bf 45a1 b73e 5cd1 81bf
00000140: a3d1 ccbe 1533 633e 968f 26bf cc69 553f
00000150: 8b5b acbf 4f16 c5be 97c2 913e 657c 34bd
00000160: 687c 473e 9f54 1abf d336 91bf f3a2 213f
00000170: 0230 86bf d116 f1be d30f 953e 66cf fe3f
00000180: 7b54 293f 514f 983f 5e08 513f afdc 69bf
00000190: 744c b13f 3a58 50bf a875 6dbf d054 8e3f
000001a0: 05e8 aa3f adb1 1a3f 71d9 d3bd 9cd8 1abe
000001b0: 8788 06c0 c2b9 1ebf ac36 bdbf d313 91bf
000001c0: 1db1 5f3f 296d 0fbf 9694 a43f 5e1b 513f
000001d0: 3d3b 523e 0237 9c3e c922 093f 48c4 dcbe
000001e0: 8ab8 2340 f1f6 6ebe 35ba 5cbc 4829 ee3f
000001f0: f47d fdbf f737 e63f 9882 d03d 4415 ae3e

weight_ih_l0 f4 [128, 104]
0.06425041 0.131853 -0.055756953 -0.11161462 0.0230232 0.117203854 0.07580955 0.16415046
0.12015057 -0.08381544 -0.034897268 -0.16940373 -0.07586363 0.0381983 -0.04920032 0.006455512
-0.057769243 0.052980356 0.06131691 -0.0013354162 -0.012041957 0.14556319 -0.08091576 -0.0010456522
-0.090418845 -0.14430289 -0.28189003 -0.06464877 -0.22059555 -0.07481609 0.018377084 -0.16664018
-0.1942897 0.059384014 -0.052766547 0.21605696 -0.02989817 -0.05582218 -0.05814092 -0.045805052
-0.24396496 0.060727686 -0.12124841 -0.037724108 0.11946625 -0.04765819 0.11009459 0.063193746
0.10715451 -0.026001912 -0.087837584 -0.032357205 0.01428746 -0.039485108 -0.09673337 -0.061281454
-0.26212946 0.027397642 -0.17240217 -0.27011728 -0.15600188 -0.19719653 0.08398942 -0.04833119
-0.27653798 0.044543903 0.04108933 -0.058965873 0.10395031 0.06561812 0.1350761 -0.14890535
-0.09802685 -0.096406445 0.17218445 -0.11806413 0.16559231 -0.16924943 -0.06019393 0.10464643
0.14945912 0.058707014 -0.055250045 -0.09316146 -0.18846168 0.11140451 0.20997542 0.10857225
0.179722 -0.12653525 -0.05877523 0.2801644 -0.060189977 0.17298485 -0.219105 -0.2379441
0.05074678 -0.10652106 -0.10354322 0.024430674 0.32801217 0.15748402 -0.25261933 -0.35052437
0.31156144 -0.0066511068 -0.04280721 0.05256805 -0.12682445 0.117427334 0.193099 -0.1368523
-0.2408369 -0.017362965 0.114372805 0.11836874 -0.035022013 0.0908591 -0.13106112 -0.027114773
-0.22775455 0.23959963 0.18488473 -0.051139638 -0.0055073197 0.14949843 0.07097642 -0.09086701
0.061940443 0.1374305 -0.05485094 -0.06952635 0.15246819 0.1691683 -0.29250112 0.10302105
0.09796002 -0.18748975 -0.034109958 -0.18960446 0.21704622 -0.16908818 0.10384897 0.2258569
0.09913148 0.124324575 -0.18897262 -0.0750898 -0.16032594 0.10867943 0.012306486 0.020731451
-0.0824503 -0.13415967 0.19927597 0.1649588 -0.09301578 -0.16644974 -0.20509076 0.08873584
-0.08750649 -0.036589287 0.03435243 -0.12033447 0.022957187 0.2636229 -0.08561496 -0.07212923
0.001950483 0.109163225 -0.047122907 0.04100066 -0.079450116 0.018353768 0.15699998 0.034213454
0.1869292 -0.038111277 -0.091941446 0.20158859 -0.013620321 0.20199215 0.04451189 0.02044646
-0.21486181 -0.07601182 0.030673465 -0.0026318417 -0.12166414 0.14441842 0.07956155 -0.026621519
-0.04234644 -0.07704275 0.02946731 -0.28010675 0.015747814 -0.04076338 -0.05307436 0.12340278
-0.09593154 -0.069972284 0.09014026 0.123285644 0.18261468 -0.006809285 0.16442037 0.09566786
-0.09171544 -0.18663687 -0.09323211 0.05370661 -0.051316414 -0.17701347 -0.17830509 0.29576936
-0.023776716 -0.017571565 -0.055792082 -0.13141192 -0.1291999 -0.005658091 0.044455983 -0.045619115
-0.050180007 -0.06637488 0.18165395 0.123934776 0.12859307 -0.060536075 0.1630592 -0.02004021
-0.14664078 -0.05385353 0.1259902 -0.14084385 0.05741125 -0.009404084 -0.06140643 -0.22308406
-0.016405594 -0.037426 -0.119562455 -0.030996796 0.0644835 0.0262286 0.17311996 0.02289723
0.010489569 0.15225185 0.13271265 -0.068456 0.017526813 -0.19913653 0.12509196 -0.11210319
00000000: b895 833d 7904 073e 6761 64bd 3596 e4bd
00000010: 269b bc3c 9308 f03d 0a42 9b3d 0f17 283e
00000020: 8111 f63d 6ea7 abbd 70f0 0ebd 2c78 2dbe
00000030: 645e 9bbd d275 1c3d 4686 49bd c288 d33b
00000040: 719f 6cbd ee01 593d 7127 7b3d 2209 afba
00000050: a14b 45bc 840e 153e 29b7 a5bd 440e 89ba
00000060: 842d b9bd 23c4 13be e453 90be 9366 84bd
00000070: cde3 61be 2e39 99bd 8a8b 963c b9a3 2abe
00000080: e1f3 46be a73c 733d bc21 58bd 093e 5d3e
00000090: 02ed f4bc cca5 64bd 2c25 6ebd 149e 3bbd
000000a0: f3d1 79be 98bd 783d 1651 f8bd 9884 1abd
000000b0: b9aa f43d 3c35 43bd 4679 e13d b96b 813d
000000c0: d373 db3d f601 d5bc 31e4 b3bd fd88 04bd
000000d0: f315 6a3c 23bb 21bd 251c c6bd 4302 7bbd
000000e0: d535 86be 0571 e03c 328a 30be d04c 8abe
000000f0: f5be 1fbe e3ed 49be a502 ac3d edf6 45bd
00000100: 6396 8dbe ab73 363d 494d 283d 3386 71bd
00000110: e6e3 d43d cb62 863d 6451 0a3e a57a 18be
00000120: 4dc2 c8bd be70 c5bd 1f51 303e 9bcb f1bd
00000130: 0891 293e b94f 2dbe e98d 76bd de50 d63d
00000140: d00b 193e c476 703d df4d 62bd 6fcb bebd
00000150: 19fc 40be 0c28 e43d cc03 573e 215b de3d
00000160: 0b09 383e 7592 01be 4cbe 70bd b571 8f3e
00000170: c489 76bd f122 313e 105d 60be 9ea7 73be
00000180: dbdb 4f3d b727 dabd 780e d4bd d622 c83c
00000190: 36f1 a73e 7e43 213e 5257 81be ee77 b3be
000001a0: fb84 9f3e 87f1 d9bb 9d56 2fbd 9851 573d
000001b0: 45de 01be be7d f03d bfbb 453e 0223 0cbe
000001c0: f39d 76be c73c 8ebc 4a3c ea3d 4f6b f23d
000001d0: 3e73 0fbd 5614 ba3d e334 06be cd1f debc
000001e0: 7d38 69be 9b59 753e 6c52 3d3e cc77 51bd
000001f0: bf76 b4bb 1e16 193e 165c 913d 7c18 babd
00000200: 43b5 7d3d 95ba 0c3e 61ab 60bd d563 8ebd
00000210: 9f20 1c3e 743a 2d3e b5c2 95be b3fc d23d
00000220: 439f c83d 50fd 3fbe e2b6 0bbd ac27 42be
00000230: 5d41 5e3e 7425 2dbe c5ae d43d 0847 673e
00000240: 7205 cb3d e29d fe3d 0a82 41be aec8 99bd
00000250: 7c2c 24be 5293 de3d 25a1 493c 01d5 a93c
00000260: b4db a8bd 2761 09be 000f 4c3e f6ea 283e
00000270: 0f7f bebd cd71 2abe 5003 52be 23bb b53d
00000280: 9a36 b3bd a6de 15bd 22b5 0c3d eb71 f6bd
00000290: b610 bc3c 95f9 863e e556 afbd 7db8 93bd
000002a0: 59a7 ff3a f890 df3d f303 41bd 4ff0 273d
000002b0: beb6 a2bd a45a 963c 9ac4 203e 6823 0c3d
000002c0: 5e6a 3f3e 921a 1cbd cc4b bcbd 3d6d 4e3e
000002d0: c427 5fbc 08d7 4e3e 1952 363d 567f a73c
000002e0: bc04 5cbe 16ac 9bbd eb46 fb3c fa7a 2cbb
000002f0: 0c2b f9bd 6ce2 133e 2af1 a23d 5f15 dabc
00000300: 7673 2dbd 97c8 9dbd 6e65 f13c 276a 8fbe
00000310: 8f01 813c 80f7 26bd 8064 59bd 99ba fc3d
00000320: c177 c4bd a14d 8fbd 759b b83d 2f7d fc3d
00000330: 58ff 3a3e 6c20 dfbb d05d 283e 83ed c33d
00000340: 4ed5 bbbd bc1d 3fbe 7af0 bebd 76fb 5b3d
00000350: 2931 52bd 0543 35be 9c95 36be 156f 973e
00000360: 63c7 c2bc 3ef2 8fbc 3d86 64bd d990 06be
00000370: fb4c 04be 8267 b9bb 7a17 363d 1cdb 3abd
00000380: 8d89 4dbd 8eef 87bd 7e03 3a3e 84d1 fd3d
00000390: e7ad 033e adf4 77bd fef8 263e 5e2b a4bc
000003a0: 0029 16be 8595 5cbd 9303 013e 5f39 10be
000003b0: 0f28 6b3d 9613 1abc 4f85 7bbd 2670 64be
000003c0: 0665 86bc 014c 19bd 29dd f4bd feec fdbc
000003d0: ed0f 843d 5cdd d63c 5c46 313e f992 bb3c
000003e0: 71dc 2b3c e9e7 1b3e d3e5 073e a932 8cbd
000003f0: 6494 8f3c 72ea 4bbe 1b18 003e 5b96 e5bd

weight_hh_l0 f4 [128, 32]
-0.27288365 -0.2756897 0.13109806 -0.04518962 0.040268186 -0.036372714 -0.10451699 0.030024627
-0.08396728 0.31051087 0.065661654 0.12219889 -0.07836542 0.11091747 -0.023062494 0.018535182
-0.25462255 0.30697095 -0.17674398 -0.067934 -0.16652146 0.24101704 -0.006683423 -0.30746847
0.26446044 0.07322149 0.1294684 0.23741585 -0.2489606 0.017333893 0.035364594 0.22383265
0.15846007 0.122907095 0.14914356 0.08710703 0.060162164 -0.009559192 -0.11511477 -0.10986061
0.008320887 -0.05007623 -0.0073260944 -0.15118057 0.06872218 -0.078117825 0.23507239 0.053482156
0.0057738 0.015732402 0.17026494 -0.10416561 0.058025323 -0.22809066 -0.17030928 -0.058669277
-0.119755775 -0.08772156 0.13048467 -0.016922388 0.022154992 -0.15632199 -0.028261643 0.054869387
0.22670928 -0.045674868 0.28159973 0.15488182 0.1858023 -0.018893264 -0.1592364 0.0532919
-0.012418252 0.10459986 0.20417123 -0.19854964 -0.02301786 -0.07549914 -0.31484267 -0.08149843
-0.042252623 -0.06853582 -0.1000356 -0.17538714 0.07838064 -0.10838235 -0.010819519 0.05082983
0.033596605 -0.09864344 0.116449066 -0.12930183 -0.15633129 0.00014210482 0.037496783 0.01643231
0.12795496 -0.04998531 0.27098772 0.2040447 0.23121989 0.1532757 -0.19040823 0.0483522
0.010574762 -0.12797566 -0.021342944 -0.047414165 0.16987468 0.17912866 -0.086967945 -0.15343693
-0.25537452 0.024317823 -0.06474457 0.061425857 -0.23929489 0.105386 0.15804724 -0.25199774
-0.038326576 0.14828025 -0.088041045 -0.030564751 -0.07828953 0.14726451 0.039883308 0.0643917
-0.066691495 -0.14066975 0.1513175 0.2519721 0.24280569 -0.07189654 0.09277408 -0.10203042
-0.16843545 -0.09741957 0.13147089 0.0018568212 -0.05808697 -0.0040974133 -0.06977741 -0.17311442
-0.15579614 -0.023754738 -0.23254599 0.115136385 -0.23393221 0.13447317 -0.0676374 -0.20993048
0.19533063 0.188643 -0.023933714 0.06676979 -0.0016906911 0.23865001 0.12768961 -0.056631383
0.24261454 -0.08327324 0.10339508 0.21077415 -0.033803575 0.13863592 -0.059572726 0.23374556
0.013228042 0.11025338 0.14053027 0.11860917 0.1535098 0.19094807 -0.2086883 -0.026902838
-0.3679688 0.08020404 -0.007514358 -0.32770184 -0.3237473 0.2506011 -0.039748047 0.035978265
0.15341029 0.14454031 0.37944528 -0.024233874 -0.27698025 0.25298715 -0.30907732 0.3735751
0.16551176 -0.13829295 0.23805995 -0.13816355 0.06792165 -0.040048704 -0.25157204 0.16003467
-0.009381587 0.07680646 0.19086222 0.13541074 0.1377271 0.19058466 0.099532105 -0.16976042
-0.13036235 -0.039205994 -0.028628958 0.05901789 0.059803423 0.068524726 -0.07594819 -0.14435099
0.20219386 0.12619834 -0.080793686 -0.12957661 -0.051495142 -0.05012859 -0.011014458 -0.0900755
0.08863855 -0.014140985 0.1291469 0.06677354 0.267662 0.045420036 -0.17548248 0.15316337
0.04943031 -0.09371864 0.053414863 0.2149461 0.13721728 -0.082463 0.065053545 0.101416096
-0.2478864 0.22107622 -0.1935082 -0.18658197 -0.16685283 -0.17998123 -0.030169863 -0.020801708
0.043413613 0.25966814 -0.13052236 -0.0019166223 -0.022912243 0.2596866 -0.16389099 0.06475422
00000000: 68b7 8bbe 3327 8dbe 923e 063e c018 39bd
00000010: 41f0 243d 8efb 14bd 010d d6bd 35f6 f53c
00000020: 0af7 abbd 48fb 9e3e 9e79 863d 6943 fa3d
00000030: 0d7e a0bd b328 e33d 8eed bcbc 18d7 973c
00000040: e35d 82be 4c2b 9d3e 60fc 34be fb20 8bbd
00000050: 9a84 2abe 2ccd 763e 9e00 dbbb 826c 9dbe
00000060: 5c67 873e 26f5 953d 5d93 043e 241d 733e
00000070: 87ef 7ebe cfff 8d3c 77da 103d 6334 653e
00000080: 5b43 223e b7b6 fb3d 17b9 183e 2c65 b23d
00000090: 9a6c 763d 289e 1cbc 4bc1 ebbd 99fe e0bd
000000a0: 5454 083c bc1c 4dbd bc0f f0bb 14cf 1abe
000000b0: 37be 8c3d 3dfc 9fbd d1b6 703e 1b10 5b3d
000000c0: 2532 bd3b 3de1 803c ef59 2e3e c854 d5bd
000000d0: f6ab 6d3d 9990 69be 8e65 2ebe 324f 70bd
000000e0: 8442 f5bd 5ca7 b3bd c69d 053e d2a0 8abc
000000f0: 637e b53c df12 20be f684 e7bc b9be 603d
00000100: 7a26 683e 9215 3bbd d72d 903e 5799 1e3e
00000110: f542 3e3e 0cc6 9abc de0e 23be 9b48 5a3d
00000120: ed75 4bbc 7438 d63d 4312 513e 9950 4bbe
00000130: f38f bcbc 4b9f 9abd 0f33 a1be a6e8 a6bd
00000140: 1611 2dbd 825c 8cbd 77df ccbd b098 33be
00000150: 0786 a03d 91f7 ddbd 5a44 31bc f132 503d
00000160: 989c 093d 9205 cabd d97c ee3d b367 04be
00000170: 4f15 20be f901 1539 3a96 193d 0d9d 863c
00000180: a006 033e 65bd 4cbd e7be 8a3e 18f1 503e
00000190: e8c4 6c3e 4ef4 1c3e 60fa 42be f50c 463d
000001a0: c441 2d3c 0d0c 03be 66d7 aebc 5b35 42bd
000001b0: a1f3 2d3e 816d 373e 401c b2bd 921e 1dbe
000001c0: 73c0 82be 2c36 c73c cd98 84bd ae99 7b3d
000001d0: b809 75be 9dd4 d73d 23d7 213e d905 81be
000001e0: 54fc 1cbd c7d6 173e dd4e b4bd ee62 fabc
000001f0: 4356 a0bd 82cc 163e ae5c 233d ccdf 833d
00000200: 8d95 88bd bb0b 10be faf2 1a3e 7d02 813e
00000210: 0ea2 783e 7e3e 93bd 5600 be3d 53f5 d0bd
00000220: 587a 2cbe e983 c7bd 4ea0 063e 9560 f33a
00000230: 9aec 6dbd 9843 86bb 75e7 8ebd e844 31be
00000240: 0689 1fbe 4c99 c2bc 8920 6ebe a0cc eb3d
00000250: ed8b 6fbe 56b3 093e 7a85 8abd 04f8 56be
00000260: c104 483e a12b 413e a310 c4bc 9abe 883d
00000270: 2e9a ddba ab60 743e 11c1 023e 4ff6 67bd
00000280: f26f 783e 298b aabd cdc0 d33d 2ed5 573e
00000290: 9e75 0abd 93f6 0d3e 8802 74bd ff5a 6f3e
000002a0: 6eba 583c 86cc e13d 2be7 0f3e 5de9 f23d
000002b0: ac31 1d3e e487 433e 63b2 55be 5763 dcbc
000002c0: 6866 bcbe 0442 a43d 013b f6bb 89c8 a7be
000002d0: 35c2 a5be ca4e 803e d9ce 22bd f25d 133d
000002e0: 9617 1d3e 6002 143e a746 c23e 1e86 c6bc
000002f0: 5bd0 8dbe 8887 813e 623f 9ebe 3c45 bf3e
00000300: ea7b 293e ab9c 0dbe fdc5 733e bf7a 0dbe
00000310: 821a 8b3d 1c0a 24bd 0dce 80be 21e0 233e
00000320: 3ab5 19bc b54c 9d3d 6371 433e 1da9 0a3e
00000330: 5508 0d3e a028 433e 7dd7 cb3d add5 2dbe
00000340: b57d 05be 7796 20bd 4787 eabc bebc 713d
00000350: 6ff4 743d b156 8c3d ba8a 9bbd bfd0 13be
00000360: e80b 4f3e 233a 013e 2977 a5bd bbaf 04be
00000370: 92ec 52bd a353 4dbd fc75 34bc 8179 b8bd
00000380: 2188 b53d 97af 67bc 163f 043e 91c0 883d
00000390: fe0a 893e 5c0a 3a3d aeb1 33be dcd6 1c3e
000003a0: 7077 4a3d 8fef bfbd 8bc9 5a3d d51a 5c3e
000003b0: b082 0c3e 5de2 a8bd cb3a 853d 3eb3 cf3d
000003c0: efd5 7dbe ce61 623e 0327 46be 580f 3fbe
000003d0: 78db 2abe 004d 38be ca26 f7bc 5868 aabc
000003e0: 79d2 313d 39f3 843e a7a7 05be 2c37 fbba
000003f0: 75b2 bbbc a4f5 843e 0ad3 27be dc9d 843d

bias_ih_l0 f4 [128]
0.007532801 -0.089759246 0.16994749 0.062732525 -0.08910762 0.2595172 -0.0159107 0.15762179
0.025867315 0.20991479 0.15313438 0.20015757 0.16558442 0.10406623 0.023065906 0.13559869
0.043885637 0.10996236 0.026955385 0.26724416 0.22313388 0.07538974 0.05417834 0.0788461
0.23144011 0.028552977 0.22951312 0.32516605 0.05009608 0.28767276 0.1343075 -0.09166545
-0.19604531 0.08891859 0.02535601 -0.06342602 0.1261463 -0.021718634 -0.05354008 -0.10281923
-0.1519596 0.12123672 -0.09698188 -0.070697695 0.1857053 0.17347617 0.21500364 -0.07637633
0.18761691 0.006399271 0.118769966 0.1598003 0.23379332 0.20992883 -0.019144421 -0.12966307
0.08243411 -0.12301493 0.017386474 0.103022374 0.068602346 -0.0068374276 -0.07877613 0.112385094
-0.037461832 -0.20619969 0.043649398 -0.11433832 0.07963918 0.21987183 -0.12823777 -0.025281286
0.09301623 0.21410409 0.03936005 -0.16220935 0.002783234 0.005145599 -0.08260671 -0.2969865
0.005838179 0.11986509 -0.0773621 -0.24791297 -0.17859674 -0.07996671 -0.055427372 -0.34559128
0.09136681 -0.10617146 0.2590281 0.28176615 -0.14090197 0.24583295 0.09459359 0.2093262
-0.035021737 0.20789252 0.06625506 0.02556037 0.04653011 0.1997209 0.09866708 0.23068024
0.26197013 0.13140182 0.010021032 0.059333034 0.20015326 -0.0057749995 0.07311126 -0.035721414
0.20209755 0.13030523 -0.03891325 0.103385955 0.19526581 -0.03730944 -0.0018240733 0.11389018
0.035943314 -0.06978948 -0.0020677948 0.02208311 -0.169206 0.016109714 0.07534565 -0.054146316
00000000: b7d5 f63b b2d3 b7bd b706 2e3e e979 803d
00000010: 0e7e b6bd 70df 843e 2857 82bc 9b67 213e
00000020: b1e7 d33c e7f3 563e 42cf 1c3e 1bf6 4c3e
00000030: f68e 293e ad20 d53d b6f4 bc3c 62da 0a3e
00000040: 6dc1 333d f233 e13d 8ad1 dc3c 3ad4 883e
00000050: 357d 643e f065 9a3d 1bea 5d3d 107a a13d
00000060: a3fe 6c3e efe7 e93c 7d05 6b3e 2a7c a63e
00000070: 8c31 4d3d d849 933e e887 093e 18bb bbbd
00000080: 1ac0 48be f31a b63d 68b7 cf3c 80e5 81bd
00000090: 7f2c 013e 47eb b1bc d84c 5bbd e392 d2bd
000000a0: 4c9b 1bbe f54a f83d 709e c6bd f4c9 90bd
000000b0: 8829 3e3e bda3 313e ea29 5c3e 316b 9cbd
000000c0: a61e 403e fab0 d13b ab3d f33d b1a2 233e
000000d0: 8467 6f3e 95f7 563e c3d4 9cbc 65c6 04be
000000e0: 37d3 a83d 40ef fbbd 146e 8e3c 65fd d23d
000000f0: 637f 8c3d 800c e0bb 6155 a1bd 282a e63d
00000100: 9471 19bd 0326 53be b6c9 323d 362a eabd
00000110: de19 a33d 1526 613e c350 03be b31a cfbc
00000120: 4b7f be3d 1a3e 5b3e 0138 213d 351a 26be
00000130: eb66 363b 6a9c a83b b52d a9bd 9d0e 98be
00000140: 324e bf3b d47b f53d 0570 9ebd e6dc 7dbe
00000150: 10e2 36be 96c5 a3bd d007 63bd 57f1 b0be
00000160: 861e bb3d 6c70 d9bd 559f 843e a743 903e
00000170: 9b48 10be a2bb 7b3e 49ba c13d 9b59 563e
00000180: f472 0fbd c7e1 543e bcb0 873d fb63 d13c
00000190: 5b96 3e3d a383 4c3e f711 ca3d 7137 6c3e
000001a0: f320 863e 338e 063e 412f 243c 3207 733d
000001b0: faf4 4c3e 353c bdbb 5bbb 953d 9e50 12bd
000001c0: a9f2 4e3e bc6e 053e 8063 1fbd 04bc d33d
000001d0: c3f3 473e c9d1 18bd be15 efba 413f e93d
000001e0: 4c39 133d c9ed 8ebd d783 07bb a3e7 b43c
000001f0: 5644 2dbe 85f8 833c d24e 9a3d 87c8 5dbd

bias_hh_l0 f4 [128]
0.063883215 0.21660376 -0.01295527 0.07883878 -0.060397595 -0.0055429433 -0.03414538 0.1780818
0.25961915 0.19432324 0.15016145 0.21652052 0.013188011 0.12156695 0.2404055 0.27327725
0.26534647 0.07049313 0.18701215 0.15117915 0.024465121 0.15374888 -0.07957464 -0.006287125
-0.023956638 0.06593016 0.20024285 0.2250685 0.012291037 0.17814104 0.1219372 0.10051804
0.008382564 -0.11039771 0.018999957 -0.13850413 -0.058224216 0.0831319 0.13193624 0.055286314
-0.09456331 0.055140994 0.04136401 -0.2028795 -0.0745385 0.0021419094 0.09160108 0.14646475
-0.118466854 -0.1475259 0.093188755 -0.0010720354 0.110637635 0.13174586 -0.09487593 0.1726022
-0.011600619 0.02555128 0.026942432 -0.0676014 0.1394086 -0.0937752 0.23639508 -0.059402253
-0.07457689 -0.25383574 -0.05321724 -0.04607556 -0.058074765 0.12451052 -0.12965071 0.022761911
0.06862506 0.18843992 0.10362384 -0.06259198 0.20304702 0.15086618 -0.20208643 -0.24225701
-0.15671088 0.05157651 -0.020963226 -0.21849427 0.0719946 -0.0539951 0.09015387 -0.046691626
0.070811786 0.05183301 0.18288143 0.22243209 -0.06723625 0.011346191 0.07813578 0.14998616
0.26856387 0.14929268 -0.06171088 0.0038815257 0.080407925 0.2277723 0.07474449 0.1357123
0.0832534 0.14053887 0.08317651 -0.04490371 0.13551918 0.25310323 -0.07197829 -7.8861536e-05
0.10659673 0.19659068 0.17870654 0.053291313 0.17292912 0.04091076 0.27337626 0.03468803
0.09507411 0.049126204 -0.09436319 -0.0009633767 -0.044845182 0.1880835 0.11570114 0.11241258
00000000: 34d5 823d 60cd 5d3e 5742 54bc 3a76 a13d
00000010: 7863 77bd 94a1 b5bb 07dc 0bbd 135b 363e
00000020: cdec 843e acfc 463e ecc3 193e 8eb7 5d3e
00000030: 8712 583c 18f8 f83d dc2c 763e ffea 8b3e
00000040: 7edb 873e b45e 903d 1d80 3f3e b5ce 1a3e
00000050: 146b c83c 5970 1d3e 07f8 a2bd 3a04 cebb
00000060: b640 c4bc 6406 873d 760c 4d3e 5b78 663e
00000070: 5860 493c 9b6a 363e 36ba f93d 67dc cd3d
00000080: 0657 093c 3218 e2bd cca5 9b3c 07d4 0dbe
00000090: 847c 6ebd 0f41 aa3d 4b1a 073e e773 623d
000000a0: 69aa c1bd 86db 613d 4f6d 293d a5bf 4fbe
000000b0: a4a7 98bd 475f 0c3b 5999 bb3d dbfa 153e
000000c0: c09e f2bd 0811 17be bfd9 be3d 8a83 8cba
000000d0: fc95 e23d 63e8 063e 504e c2bd a2be 303e
000000e0: 8610 3ebc eb50 d13c 60b6 dc3c 9a72 8abd
000000f0: 21c1 0e3e 360d c0bd 8d11 723e c74f 73bd
00000100: c5bb 98bd c2f6 81be 52fa 59bd bab9 3cbd
00000110: cedf 6dbd 5fff fe3d 28c3 04be 3077 ba3c
00000120: 4c8b 8c3d 65f6 403e bc38 d43d 3930 80bd
00000130: 8feb 4f3e aa7c 1a3e bfef 4ebe 3912 78be
00000140: d178 20be e441 533d 12bb abbc f6bc 5fbe
00000150: e871 933d f729 5dbd 98a2 b83d b83f 3fbd
00000160: c505 913d da4e 543d 4545 3b3e 3dc5 633e
00000170: 29b3 89bd 60e5 393c a705 a03d f995 193e
00000180: 3481 893e 2ee0 183e 8cc4 7cbd 3261 7e3b
00000190: e9ac a43d 243d 693e a413 993d 2af8 0a3e
000001a0: c280 aa3d 6ce9 0f3e 7258 aa3d f4ec 37bd
000001b0: 8ac5 0a3e bf96 813e 5b69 93bd 7762 a5b8
000001c0: 634f da3d 114f 493e d9fe 363e fe47 5a3d
000001d0: 5514 313e 0b92 273d f9f7 8b3e 0915 0e3d
000001e0: 37b6 c23d 8f38 493d 7d41 c1bd 1e8b 7cba
000001f0: 95af 37bd f698 403e b8f4 ec3d 9138 e63d

weight_ih_l0_reverse f4 [128, 104]
0.02804303 0.10585876 -0.11955004 0.053497367 -0.23169738 -0.0055139326 0.005018374 0.08781189
0.017848536 -0.0020142 -0.10999894 -0.072216086 -0.07254002 -0.06387881 0.031036833 0.20284207
0.2066954 -0.14360881 -0.116069585 -0.020384304 0.0659094 -0.057156067 -0.0604367 -0.05233524
0.04038481 -0.1176048 0.052312016 0.15357938 0.12429596 0.02878021 -0.0214521 -0.13368586
0.24415454 0.1192519 0.08722437 -0.026758166 0.1373525 0.0055526095 0.031466253 0.06053509
-0.10469767 -0.12798405 0.08149486 0.07624279 0.22123936 -0.054961964 -0.17842926 -0.113339104
0.13179044 -0.00635353 -0.05056086 -0.28903425 0.031047564 0.12448359 0.10062554 -0.11729385
0.030429373 -0.10416102 0.14409617 -0.09694366 -0.06542489 0.024126923 0.018337818 -0.14276347
-0.01035369 0.2699181 -0.07792211 0.14133833 0.014029096 0.27608675 0.007727293 -0.11893796
-0.20443584 0.09763879 0.054206286 0.10090737 0.018467238 -0.12943667 -0.095131315 0.15597783
0.060240712 0.11429002 -0.20135507 -0.10947949 -0.04274221 -0.009948538 -0.073719464 0.028436683
-0.008597193 -0.1792852 -0.2024694 0.25985917 0.08991191 -0.22079606 0.08094848 -0.18443012
0.20641273 0.0042720377 -0.1856653 -0.18927784 0.07386753 -0.1964402 -0.1207951 -0.19703923
-0.11673501 -0.07729596 -0.07049014 -0.11959813 0.13684489 -0.08790956 -0.098093145 -0.061088048
0.1365833 -0.048959907 0.0023804603 0.10146283 0.10828796 0.2288404 0.026480377 -0.07607698
-0.055933677 -0.11341013 0.14284551 -0.001038201 -0.07279673 0.059480637 0.022233333 0.08082974
-0.0012834927 0.01110437 -0.023375947 0.06954253 -0.13435136 0.10822424 -0.04651307 -0.053496905
0.04629091 -0.0015563006 -0.13829319 0.09927661 0.014247863 -0.05393142 0.12702274 0.081312485
0.109401464 0.0064037563 -0.011207177 0.10636126 0.18044475 0.030661846 -0.16072085 -0.03440064
-0.07914421 -0.07528256 0.0068488056 -0.061607406 -0.011104562 -0.043871682 0.030515077 -0.17212144
0.15021831 0.23851344 0.046300348 -0.068532154 0.07687991 -0.0664091 -0.010972069 0.1851199
0.05295074 0.16481306 0.08365473 -0.15009513 -0.057365008 0.008618356 0.010571133 0.14178234
-0.15069646 -0.13993599 0.053533856 0.12153742 0.039698005 0.08641129 0.06843553 0.2552232
0.11143967 0.010551598 -0.015785135 -0.16311578 -0.14564249 0.16717374 0.07609202 -0.092517264
0.14710288 -0.040551286 -0.009569985 0.014303982 -0.090559825 -0.09463772 -0.049965143 -0.058209863
-0.047133002 0.15938869 0.027257299 0.19434603 0.11023087 0.024459379 -0.03548779 0.03948639
0.07664862 0.18739499 -0.030578088 -0.13065426 -0.0014144011 -0.013634021 -0.13847429 -0.018748669
0.0004905022 -0.14431837 -0.077561714 0.2336221 0.106180005 -0.033868205 0.090394855 0.07841188
0.011029869 0.13976723 0.17291844 0.19421689 -0.031872634 -0.09164834 0.12514238 0.09930905
-0.047171287 0.075555176 0.19204192 -0.036423605 0.010909475 0.061267592 -0.04558084 -0.09308294
-0.021747926 -0.13473648 -0.13997401 -0.12026907 0.03025948 -0.09457816 0.058012918 -0.12384607
0.022664137 -0.057564452 0.08241026 -0.04007642 0.10379122 -0.007686245 -0.18600482 0.050149526
00000000: 7fba e53c 7acc d83d a7d6 f4bd 0e20 5b3d
00000010: 1442 6dbe 38ae b4bb 2c71 a43b b8d6 b33d
00000020: 1837 923c ab00 04bb 2047 e1bd 07e6 93bd
00000030: dd8f 94bd e5d2 82bd f540 fe3c d5b5 4f3e
00000040: f5a7 533e 300e 13be e4b5 edbd fcfc a6bc
00000050: 82fb 863d 7b1c 6abd 798c 77bd 7a5d 56bd
00000060: 8b6a 253d c9da f0bd 2045 563d ea43 1d3e
00000070: e18e fe3d 7ac4 eb3c 50bc afbc f2e4 08be
00000080: a603 7a3e 573a f43d b1a2 b23d f133 dbbc
00000090: 22a6 0c3e aaf2 b53b c2e2 003d a4f3 773d
000000a0: bb6b d6bd 400e 03be c7e6 a63d 2e25 9c3d
000000b0: 928c 623e cc1f 61bd 29b6 36be 551e e8bd
000000c0: 13f4 063e 4631 d0bb e818 4fbd 4cfc 93be
000000d0: 7657 fe3c 41f1 fe3d c314 ce3d c237 f0bd
000000e0: 0547 f93c 5f52 d5bd f28d 133e 668a c6bd
000000f0: 7cfd 85bd d3a5 c53c 3139 963c 9630 12be
00000100: 86a2 29bc b532 8a3e a195 9fbd ffba 103e
00000110: 4bda 653c 3e5b 8d3e 3b35 fd3b bf95 f3bd
00000120: a157 51be d9f6 c73d 6907 5e3d 86a8 ce3d
00000130: 9b48 973c 0c8b 04be 35d4 c2bd a7b8 1f3e
00000140: f7be 763d e310 ea3d 0630 4ebe c836 e0bd
00000150: 7512 2fbd 31ff 22bc 3bfa 96bd 0cf4 e83c
00000160: 3edb 0cbc 8a96 37be 2354 4fbe 430c 853e
00000170: bc23 b83d 5d18 62be 51c8 a53d 40db 3cbe
00000180: dc5d 533e 73fc 8b3b 0b1f 3ebe 0dd2 41be
00000190: dc47 973d 9f27 49be 6c63 f7bd a7c4 49be
000001a0: c412 efbd 584d 9ebd 225d 90bd ddef f4bd
000001b0: 1121 0c3e ed09 b4bd 0fe5 c8bd 7637 7abd
000001c0: 7edc 0b3e 2f8a 48bd 7f01 1c3b bfcb cf3d
000001d0: 14c6 dd3d 2355 6a3e 60ed d83c 3fce 9bbd
000001e0: b61a 65bd 9243 e8bd 1846 123e 3f14 88ba
000001f0: 7416 95bd f8a1 733d ae22 b63c 108a a53d
00000200: de3a a8ba 1aef 353c ea7e bfbc 506c 8e3d
00000210: 6793 09be aca4 dd3d 7d84 3ebd 921f 5bbd
00000220: 8a9b 3d3d c8fc cbba bb9c 0dbe 8951 cb3d
00000230: de6f 693c 31e7 5cbd 4012 023e 2987 a63d
00000240: e00d e03d 9ad6 d13b 4f9e 37bc efd3 d93d
00000250: 82c6 383e 8d2e fb3c 0294 24be afe7 0cbd
00000260: 5c16 a2bd be2d 9abd f26b e03b 0c58 7cbd
00000270: e9ef 35bc cbb2 33bd c1fa f93c 9a40 30be
00000280: d4d2 193e de3c 743e 6fa5 3d3d 965a 8cbd
00000290: 3773 9d3d 7f01 88bd 31c4 33bc 1290 3d3e
000002a0: e0e2 583d c1c4 283e 2c53 ab3d 8ab2 19be
000002b0: 92f7 6abd 0134 0d3c 8c32 2d3c 642f 113e
000002c0: 2c50 1abe 614b 0fbe 5146 5b3d 9ce8 f83d
000002d0: 609a 223d 67f8 b03d ed27 8c3d 9eac 823e
000002e0: 7b3a e43d 9ce0 2c3c d44f 81bc d307 27be
000002f0: 4e23 15be 982f 2b3e 22d6 9b3d b179 bdbd
00000300: 23a2 163e 1b19 26bd 6dcb 1cbc 405b 6a3c
00000310: 6e77 b9bd 6cd1 c1bd 40a8 4cbd 776d 6ebd
00000320: 890e 41bd ca36 233e b34a df3c a502 473e
00000330: b9c0 e13d 095f c83c a55b 11bd 7bbc 213d
00000340: f4f9 9c3d 79e4 3f3e e67e fabc 3bca 05be
00000350: 6d63 b9ba 3b61 5fbc 34cc 0dbe cf96 99bc
00000360: 0c95 003a 32c8 13be add8 9ebd a23a 6f3e
00000370: e774 d93d 63b9 0abd f020 b93d 6896 a03d
00000380: a0b6 343c 241f 0f3e 8811 313e cbe0 463e
00000390: e18c 02bd 20b2 bbbd 5325 003e 8b62 cb3d
000003a0: ae36 41bd acbc 9a3d a3a6 443e eb30 15bd
000003b0: a8bd 323c baf3 7a3d fab2 3abd 45a2 bebd
000003c0: b528 b2bc 5cf8 09be 5955 0fbe a14f f6bd
000003d0: bbe2 f73c 32b2 c1bd f49e 6d3d 02a3 fdbd
000003e0: 24aa b93c b4c8 6bbd b6c6 a83d 2c27 24bd
000003f0: 7e90 d43d e5dc fbbb 0c78 3ebe 9769 4d3d

weight_hh_l0_reverse f4 [128, 32]
0.02476104 0.12730417 0.04828013 0.2596756 0.014197463 0.019332401 -0.054943133 -0.058747202
0.07302943 -0.10575715 -0.2083039 -0.087905146 0.2241219 -0.06696327 0.19059661 0.2021451
0.17208393 -0.009027064 0.11720038 -0.05476168 -0.20725901 -0.053728797 -0.03436957 -0.05915533
-0.042009346 0.1927562 0.042261932 -0.003482786 0.0024840184 -0.07558501 -0.044300377 -0.070799954
0.21452945 -0.17399207 0.14153244 0.055438958 -0.16472258 -0.060206432 -0.047925252 -0.03139946
0.13602574 0.07153092 -0.052453466 0.08406149 0.14852911 0.022329798 0.1597734 0.22646709
0.038019795 -0.18393993 -0.0067634406 -0.16181386 -0.022613032 -0.050081458 -0.055759773 0.27933064
-0.23397991 0.09569636 0.24950255 -0.1262452 -0.052427914 -0.059706368 0.18831049 0.119970456
0.18824704 -0.18834735 0.005045146 0.06077592 0.091056995 0.21934395 0.07220984 0.08110787
-0.020336026 -0.06629201 0.055818625 -0.2339749 0.04541393 -0.06600971 0.067818545 0.23395747
-0.17296544 0.06843693 -0.038166173 -0.031403676 0.06717332 -0.08603343 0.18194623 0.21941614
0.018704936 0.099973455 0.08932701 -0.16659422 -0.04862304 0.10049222 0.24804363 0.07990306
0.06285475 -0.085741885 -0.07524761 0.10294299 -0.027604165 0.06575273 0.134767 0.05652699
0.06844184 0.06182029 -0.11526319 -0.19914386 0.13981959 -0.07811822 0.038074203 0.019919822
0.12883933 -0.084733345 -0.20294352 0.02556658 -0.1386281 -0.07083483 0.033162363 -0.13158748
-0.015061179 -0.2456263 -0.26412818 0.1440523 -0.10462633 0.07959455 -0.07117993 -0.069291085
0.054522105 0.08088951 0.10640181 0.12422863 0.16198349 0.08934082 0.11995732 0.14282522
0.07162646 0.044841643 -0.1543287 -0.116233654 0.18214259 -0.0045784237 -0.0776772 0.0137117375
-0.069484495 -0.198207 -0.048748344 0.06359823 0.05142077 0.09909631 0.08371326 0.07265701
-0.08581778 -0.17280675 0.13468347 0.12183443 0.29229525 0.16047047 0.16709276 -0.04691203
0.03471973 -0.172334 0.19449198 -0.088549934 -0.14652637 0.2323523 0.14860268 0.24117114
0.18235704 -0.13448243 -0.07689866 -0.27325964 0.034281075 -0.24618736 -0.11414588 -0.1329484
0.16624676 -0.14623576 -0.26349837 -0.21464682 -0.040366627 0.11801426 0.08787231 0.11528834
0.07236119 0.16423634 0.10019534 -0.13842154 0.03545423 0.11561066 -0.07534767 -0.17111878
-0.017452594 -0.18325976 0.2450234 0.07290428 0.08402477 0.12645303 0.14846833 -0.04646842
0.12439575 -0.17701724 -0.18373609 0.08596542 -0.07616813 -0.26223996 -0.1273947 -0.069016896
-0.19557926 0.02192282 -0.0025601033 -0.17322822 -0.041801665 0.07827417 0.07351425 -0.054750178
0.015623634 -0.022693608 0.089208156 -0.16291976 0.0077931485 0.22776237 0.017292535 0.024256656
0.19599134 0.0016801622 0.22932 0.035913564 0.08053747 0.13430083 0.061975382 -0.100511424
0.036818556 -0.06430337 0.08798981 -0.16711466 0.15305786 -0.2030299 -0.06502274 0.053670485
-0.23678774 -0.1325237 -0.00068792107 -0.2019621 0.082248546 0.15880309 0.09749145 0.16501975
0.001449961 0.13657816 0.24268077 0.09064607 0.25595888 0.008119484 -0.026542652 0.096509375
00000000: aad7 ca3c 065c 023e 63c1 453d 33f4 843e
00000010: 7a9c 683c fc5e 9e3c 0d0c 61bd e8a0 70bd
00000020: 7490 953d 3497 d8bd 9e4d 55be 9d07 b4bd
00000030: 3680 653e 0a24 89bd c22b 433e 20ff 4e3e
00000040: c536 303e 40e6 13bc c106 f03d c94d 60bd
00000050: b53b 54be ba12 5cbd 1bc7 0cbd dc4c 72bd
00000060: fe11 2cbd e261 453e d91a 2d3d 743f 64bb
00000070: eaca 223b 50cc 9abd 5074 35bd 91ff 90bd
00000080: 9cad 5b3e fa2a 32be e1ed 103e f613 633d
00000090: 09ad 28be 059b 76bd 454d 44bd b89c 00bd
000000a0: 554a 0b3e ce7e 923d 72d9 56bd 6e28 ac3d
000000b0: 0418 183e fbec b63c a39b 233e fde6 673e
000000c0: a5ba 1b3d c05a 3cbe da9f ddbb 88b2 25be
000000d0: f73e b9bc 3722 4dbd 5c64 64bd 6d04 8f3e
000000e0: 6e98 6fbe 74fc c33d 997d 7f3e 6c46 01be
000000f0: a7be 56bd aa8e 74bd 77d4 403e 12b3 f53d
00000100: d5c3 403e 21de 40be c151 a53b 2cf0 783d
00000110: 177c ba3d b39b 603e c1e2 933d e21b a63d
00000120: bd97 a6bc 1bc4 87bd 12a2 643d 1e97 6fbe
00000130: f503 3a3d 1930 87bd 73e4 8a3d 8c92 6f3e
00000140: da1d 31be a928 8c3d 2254 1cbd 24a1 00bd
00000150: 2a92 893d 4c32 b0bd 1d50 3a3e a0ae 603e
00000160: 183b 993c e2be cc3d 14f1 b63d ad97 2abe
00000170: f428 47bd ddce cd3d 26ff 7d3e 37a4 a33d
00000180: feb9 803d 7199 afbd 6b1b 9abd c6d3 d23d
00000190: 2122 e2bc 5ea9 863d 5c00 0a3e d888 673d
000001a0: 3c2b 8c3d 4637 7d3d 1b0f ecbd 5eec 4bbe
000001b0: de2c 0f3e 72fc 9fbd b2f3 1b3d e52e a33c
000001c0: 75ee 033e ad88 adbd 6dd0 4fbe 0171 d13c
000001d0: 86f4 0dbe da11 91bd 42d5 073d debe 06be
000001e0: 2ac3 76bc 7685 7bbe cf3b 87be 7282 133e
000001f0: 5446 d6bd 7802 a33d c8c6 91bd 7ce8 8dbd
00000200: 9252 5f3d 66a9 a53d 31e9 d93d 946b fe3d
00000210: 00df 253e 52f8 b63d 2fac f53d c640 123e
00000220: e5b0 923d dfab 373d 5808 1ebe e90b eebd
00000230: 9683 3a3e 9a06 96bb 3915 9fbd 32a7 603c
00000240: e34d 8ebd c7f6 4abe 58ac 47bd ca3f 823d
00000250: 969e 523d 02f3 ca3d dc71 ab3d 33cd 943d
00000260: 3bc1 afbd 41f4 30be 77ea 093e 5484 f93d
00000270: b9a7 953e 5f52 243e 5d1a 2b3e d426 40bd
00000280: 4736 0e3d 5378 30be e828 473e ab59 b5bd
00000290: 020b 16be c3ed 6d3e 4d2b 183e 91f5 763e
000002a0: cebb 3a3e c3b5 09be 0b7d 9dbd b0e8 8bbe
000002b0: 506a 0c3d 8a18 7cbe 51c5 e9bd a023 08be
000002c0: 973c 2a3e d4be 15be 42e9 86be 60cc 5bbe
000002d0: 7a57 25bd 76b1 f13d 66f6 b33d 4b1c ec3d
000002e0: 1b32 943d 922d 283e 3733 cd3d 60be 0dbe
000002f0: 7438 113d 48c5 ec3d e14f 9abd c339 2fbe
00000300: bef8 8ebc 72a8 3bbe 6ae7 7a3e d74e 953d
00000310: 2e15 ac3d e77c 013e 1508 183e ac55 3ebd
00000320: 33c3 fe3d 0244 35be 5025 3cbe a30e b03d
00000330: 09fe 9bbd 5144 86be c273 02be bb58 8dbd
00000340: ee45 48be 7c97 b33c 68c7 27bb bd62 31be
00000350: 3938 2bbd 354e a03d a48e 963d b941 60bd
00000360: 45fa 7f3c f2e7 b9bc c4b2 b63d 70d4 26be
00000370: ab5d ff3b 8a3a 693e 13a9 8d3c e5b5 c63c
00000380: f4b1 483e e338 dc3a ddd2 6a3e 1a1a 133d
00000390: d4f0 a43d 2886 093e e6d9 7d3d efd8 cdbd
000003a0: 0ecf 163d 7cb1 83bd 0034 b43d 1b20 2bbe
000003b0: 33bb 1c3e 12e7 4fbe a42a 85bd 95d5 5b3d
000003c0: 7c78 72be 4bb4 07be 9a55 34ba 27cf 4ebe
000003d0: ed71 a83d 479d 223e 99a9 c73d f0fa 283e
000003e0: 9e0c be3a 25db 0b3e 4f81 783e a6a4 b93d
000003f0: 0b0d 833e 9607 053c fa6f d9bc b5a6 c53d

bias_ih_l0_reverse f4 [128]
-0.048788905 -0.012470753 0.15838173 -0.07767221 0.080874816 0.15725173 0.22652782 0.14750963
-0.08986846 -0.041630372 0.021498164 0.03374804 0.0025767286 0.16031116 0.1650183 0.15250719
0.13534333 0.017956873 0.035399046 0.10184308 0.1892091 -0.12821282 0.15087572 0.24783401
0.16423784 0.028943582 0.036134727 -0.062683456 0.14486086 0.10111473 0.16401647 0.007174198
0.02539171 0.07293418 0.045671534 -0.062497348 -0.013209632 0.24344991 0.23080182 -0.048040245
-0.062089507 -0.10172163 0.23937872 0.01145644 0.13779879 0.028000092 -0.010801774 0.08408702
-0.033929285 0.153476 0.10761247 0.0766108 0.1717368 -0.052738253 -0.15431955 0.081136025
0.05993451 -0.07246829 0.0951401 0.21400312 0.030357178 -0.026923073 0.22598232 -0.06525502
-0.040855717 -0.09462591 -0.0007083817 0.121448666 0.03286632 0.029083515 0.1750831 0.14112201
-0.020592336 -0.053915884 0.056826986 -0.14472222 0.17199194 0.04048335 0.0650062 0.15712477
0.08076461 -0.20149006 -0.13390519 0.034016117 -0.0047169635 0.109500185 0.09697957 0.05696458
0.054888263 0.0640502 0.049630173 -0.0892136 -0.0015444958 0.054758932 0.09778825 -0.1197056
-0.05811195 0.11001252 0.0887382 0.07481976 -0.07651388 0.21905728 0.26925775 0.109375685
0.12435524 0.1879478 0.24801314 0.008894459 0.13375258 0.048632905 -0.09170822 -0.101027824
-0.0044804956 -0.10290756 0.08526012 -0.0527438 0.2393689 0.09983807 0.09558201 -0.10457774
-0.19077429 0.043773234 0.1956582 -0.013486199 0.07217248 0.11892749 0.019992743 0.15454437
00000000: e0d6 47bd 2152 4cbc d22e 223e 9c12 9fbd
00000010: b2a1 a53d 9906 213e e9f6 673e c40c 173e
00000020: f50c b8bd 9c84 2abd eb1c b03c 633b 0a3d
00000030: 55de 283b 9c28 243e 8ffa 283e d82a 1c3e
00000040: 7197 0a3e 4b1a 933c 97fe 103d 1b93 d03d
00000050: 08c0 413e 394a 03be 2a7f 1a3e 33c8 7d3e
00000060: f72d 283e 171b ed3c 0202 143d 2f60 80bd
00000070: 6856 143e 3d15 cf3d eff3 273e 8915 eb3b
00000080: 4702 d03c 845e 953d 1312 3b3d 38fd 7fbd
00000090: 366d 58bc ef4a 793e 5057 6c3e d9c5 44bd
000000a0: 9151 7ebd 6e53 d0bd b21f 753e cbb3 3b3c
000000b0: 201b 0d3e 7360 e53c edf9 30bc d135 ac3d
000000c0: 6ff9 0abd d028 1d3e ed63 dc3d 20e6 9c3d
000000d0: c6db 2f3e 1104 58bd f205 1ebe a52a a63d
000000e0: e47d 753d 416a 94bd d0d8 c23d a223 5b3e
000000f0: 9eaf f83c c78d dcbc e967 673e 6da4 85bd
00000100: 5358 27bd 3bcb c1bd b1b2 39ba 14ba f83d
00000110: d69e 063d 8d40 ee3c fc48 333e 4a82 103e
00000120: 42b1 a8bc e7d6 5cbd 6ac3 683d 1032 14be
00000130: a81e 303e dfd1 253d f821 853d 51e5 203e
00000140: ea67 a53d 6953 4ebe 711e 09be 7c54 0b3d
00000150: c290 9abb a241 e03d 3a9d c63d b153 693d
00000160: 84d2 603d c02c 833d 0249 4b3d 9fb5 b6bd
00000170: ae70 caba e74a 603d 3545 c83d 3628 f5bd
00000180: cc06 6ebd 3e4e e13d 60bc b53d 1a3b 993d
00000190: 4fb3 9cbd 8d50 603e 27dc 893e 5c00 e03d
000001a0: f6ad fe3d 6375 403e 28f7 7d3e 11ba 113c
000001b0: 70f6 083e 4c33 473d 85d1 bbbd ade7 cebd
000001c0: 1fd1 92bb 33c1 d2bd dc9c ae3d e209 58bd
000001d0: 1f1d 753e e777 cc3d 80c0 c33d db2c d6bd
000001e0: 565a 43be 904b 333d a05a 483e 38f5 5cbc
000001f0: 2acf 933d 4290 f33d d2c7 a33c e140 1e3e

bias_hh_l0_reverse f4 [128]
0.023470094 0.0589031 -0.097429425 0.0957517 0.23368064 -0.1260062 0.05236923 0.12134264
0.0015437076 0.14378075 -0.12494729 0.17908026 0.12391898 0.19604291 0.3152355 0.022089558
-0.062186424 0.1016849 -0.07366116 -0.12021342 0.13418522 -0.015224976 0.032653075 0.057835557
-0.07773607 0.11044303 -0.06546803 0.06132644 0.14376873 -0.074648604 -0.026320385 0.052406747
-0.15898705 0.04534833 0.062300127 0.22555576 -0.035446852 -0.09179336 0.0024807618 0.032633834
0.22083278 0.14456135 0.14736232 -0.0011336335 0.16755378 0.022928912 0.12180044 -0.11240453
-0.08346296 0.00085411937 -0.0014714518 -0.07086061 0.15097612 0.06287447 -0.1150835 0.12116035
0.04287235 -0.088167444 0.11747127 0.15432091 0.10981937 -0.08475957 -0.088401884 0.15529451
0.092370935 -0.064398706 0.13084252 0.040780436 0.12042563 0.11525547 -0.028947126 -0.038822167
-0.05241081 0.06508968 -0.049776293 -0.008772619 0.12397601 0.09302052 0.0038946113 0.002201403
-0.07592771 -0.12354089 -0.080468975 0.06588332 -0.16247705 0.025086857 0.23250572 -0.018079504
0.07110083 -0.12933077 0.22975476 -0.049316023 0.081941165 0.13683438 0.102150045 0.02130603
-0.13120173 0.0643716 -0.004181845 0.06537182 0.06465756 -0.029614255 0.09193363 0.04491269
0.122950055 0.09516366 0.11634897 -0.027234236 0.21202272 0.054274 -0.050185014 0.14272036
0.25482437 0.103612535 0.17153433 0.09197511 0.26640972 -0.13670565 0.19836469 -0.03756914
-0.00602708 0.05912634 0.11299607 0.24048078 0.16281997 0.1793805 0.041352328 0.017326398
00000000: 5b44 c03c 6144 713d 1489 c7bd 7819 c43d
00000010: fa49 6f3e c507 01be 1e81 563d 7d82 f83d
00000020: 3b56 ca3a 433b 133e 5de4 ffbd d160 373e
00000030: 3cc9 fd3d 79bf 483e 8c66 a13e 29f5 b43c
00000040: 31b7 7ebd 2c40 d03d aadb 96bd 7432 f6bd
00000050: da67 093e 2e72 79bc 3bbf 053d fae4 6c3d
00000060: 1734 9fbd f52f e23d 1a14 86bd 6f31 7b3d
00000070: 1c38 133e 5ee1 98bd d99d d7bc 75a8 563d
00000080: 80cd 22be 2cbf 393d 6b2e 7f3d 17f8 663e
00000090: b830 11bd 28fe bbbd 4794 223b 0eab 053d
000000a0: fd21 623e e407 143e 26e6 163e 6e96 94ba
000000b0: 3893 2b3e 6ad5 bb3c 8272 f93d 5934 e6bd
000000c0: a1ee aabd fbe6 5f3a bbdd c0ba 5e1f 91bd
000000d0: 7c99 1a3e 55c4 803d e6b0 ebbd eb22 f83d
000000e0: eb9a 2f3d 2291 b4bd c794 f03d 4d06 1e3e
000000f0: fae8 e03d 6d96 adbd 0c0c b5bd 8605 1f3e
00000100: f92c bd3d 78e3 83bd 95fb 053e 6309 273d
00000110: b6a1 f63d 0f0b ec3d 8622 edbc fe03 1fbd
00000120: b8ac 56bd bd4d 853d 3ae2 4bbd 08bb 0fbc
00000130: 22e7 fd3d 8b81 be3d bc3c 7f3b 6a45 103b
00000140: fd7f 9bbd 0203 fdbd ebcc a4bd d6ed 863d
00000150: 6260 26be f482 cd3c fb15 6e3e 781b 94bc
00000160: 509d 913d 496f 04be d544 6b3e 99ff 49bd
00000170: c5d0 a73d 501e 0c3e 0b34 d13d fc89 ae3c
00000180: bf59 06be 42d5 833d dc07 89bb a9e1 853d
00000190: 2f6b 843d 9899 f2bc b347 bc3d 5ef6 373d
000001a0: 3dcd fb3d 2ae5 c23d 5e48 ee3d 551a dfbc
000001b0: 7c1c 593e 6a4e 5e3d cd8e 4dbd 4925 123e
000001c0: 5778 823e cf32 d43d b2a6 2f3e 725d bc3d
000001d0: db66 883e 91fc 0bbe 1d20 4b3e 19e2 19bd
000001e0: d07e c5bb 762e 723d 7c6a e73d 9840 763e
000001f0: 47ba 263e 86af 373e 0f61 293d 17f0 8d3c

weight_ih_l1 f4 [128, 64]
0.15299587 0.06883047 0.13771583 0.13918324 0.28723693 0.02830144 -0.08308296 0.14344887
-0.06377929 -0.13219492 0.18278609 0.15110092 -0.055229694 0.012514804 -0.23355038 -0.2867369
0.012336937 0.17951094 -0.29356277 -0.11012292 -0.029744139 -0.13333425 -0.14224605 -0.052437626
-0.10730676 -0.05380178 0.001557666 0.010560414 0.029064156 0.17759076 -0.061939575 0.04393554
0.3593206 0.15152776 0.18104917 0.058688734 -0.1195594 0.03921787 0.051469944 0.21129908
0.027182207 -0.10268354 -0.07254108 -0.11171746 -0.027370466 -0.2984319 -0.06656274 0.22389646
-0.021489426 -0.28614175 -0.29657206 -0.16359015 -0.12736095 0.27220842 -0.04135451 0.15537922
-0.19388317 -0.025716882 0.30012044 0.18346405 -0.011854906 0.269702 -0.07638795 -0.2162018
0.1501105 -0.18024553 0.25898778 0.1379656 0.28749356 0.0313956 -0.15004645 0.29207516
0.18396716 -0.041518457 0.024631184 0.057381988 0.14759913 0.06977489 -0.14794439 0.06170382
-0.3448155 -0.016626304 -0.2624887 -0.097401395 -0.07708376 0.32840556 0.19442573 -0.0003110808
-0.05446371 0.011486221 0.2470952 0.05962708 -0.11328552 0.028986176 0.00021931584 0.044588584
0.047739036 -0.02704463 0.13508603 -0.03467404 -0.05037495 -0.062251836 0.21579267 -0.15047923
0.26561147 -0.06712227 0.04592236 -0.20217825 0.21011537 -0.2788591 0.09031506 0.2947454
-0.0038339323 -0.05320712 -0.16339469 -0.38409817 -0.02365264 0.28471765 -0.1393898 0.06475244
-0.053952474 0.32432958 0.03526744 -0.18546031 0.09684203 0.18116917 0.04289223 -0.21564896
0.06217316 -0.091251 0.1887329 0.118822195 0.10203459 0.007987749 -0.14288287 -0.009861912
0.025514029 0.044567894 0.02396942 0.27645648 0.18078992 -0.20064054 -0.075930245 -0.20662989
-0.18292707 -0.052837342 -0.1799611 -0.21149322 -0.2669605 -0.030512601 0.16453958 0.035243675
-0.03416762 0.008922845 0.052372076 -0.076024204 0.0051902533 0.19351119 -0.10388373 0.1919986
0.34805807 -0.07747777 0.16679199 0.037100658 -0.124634825 0.09526415 0.32631183 0.07517384
0.22452967 -0.31448975 0.14024495 -0.020007106 0.00883103 -0.030601585 0.007723354 0.23806922
-0.011802293 -0.2001607 -0.3034782 -0.3683288 -0.017126039 0.09126916 -0.1931958 0.17863467
-0.3907502 0.044635013 0.17984758 0.097636 0.11325477 0.24856044 0.13271305 -0.107803315
-0.2182322 -0.039542202 0.10114386 0.068548456 0.1127962 0.17867354 0.028696949 0.23585932
-0.1510032 0.0665298 0.1513653 0.13901563 -0.08566238 0.043015525 -0.29745218 -0.0047005233
-0.08376973 0.1034962 -0.034244195 -0.24026604 -0.04298929 0.0050073783 -0.054196086 -0.095920436
-0.0030782272 0.09566978 0.054926686 0.17856391 0.02480715 0.19695346 0.05279374 0.047860853
-0.11049839 -0.19634923 -0.043898266 0.041659746 0.12579262 0.29474717 0.018176071 0.051292848
0.17517649 -0.072311096 -0.16614576 -0.28672206 0.08999203 -0.2999551 0.26831746 0.077909686
-0.040704798 -0.26242378 -0.08817941 -0.05360367 -0.1593364 -0.06294236 0.25943136 -0.076794796
-0.122983955 -0.30125225 -0.067843065 -0.28599092 0.26504388 0.15256347 0.033699334 -0.18543242
00000000: f3aa 1c3e fdf6 8c3d 6105 0d3e 0d86 0e3e
00000010: b810 933e 6cd8 e73c 6627 aabd 43e4 123e
00000020: b79e 82bd 1b5e 07be 472c 3b3e 33ba 1a3e
00000030: 8838 62bd e40a 4d3c d527 6fbe 2ecf 92be
00000040: dd20 4a3c b7d1 373e dc4d 96be 2088 e1bd
00000050: fba9 f3bc c688 08be f3a8 11be d6c8 56bd
00000060: a6c3 dbbd 415f 5cbd 992a cc3a 9605 2d3c
00000070: f417 ee3c 5ada 353e 5ab4 7dbd c1f5 333d
00000080: dff8 b73e 182a 1b3e f464 393e 9963 703d
00000090: 8fdb f4bd eba2 203d 26d2 523d c95e 583e
000000a0: 38ad de3c bf4b d2bd 6b90 94bd 20cc e4bd
000000b0: 0738 e0bc 11cc 98be 0c52 88bd 1d45 653e
000000c0: 980a b0bc 2c81 92be 4bd8 97be 2d84 27be
000000d0: e96a 02be e75e 8b3e 5963 29bd bb1b 1f3e
000000e0: 4f89 46be 36ac d2bc 63a9 993e 00de 3b3e
000000f0: 143b 42bc 6116 8a3e 4971 9cbd 0164 5dbe
00000100: 91b6 193e 4992 38be 0c9a 843e db46 0d3e
00000110: 5b32 933e ac98 003d c7a5 19be e08a 953e
00000120: e361 3c3e 420f 2abd 56c7 c93c 6009 6b3d
00000130: 3a24 173e 23e6 8e3d bc7e 17be 25bd 7c3d
00000140: a88b b0be e333 88bc eb64 86be 627a c7bd
00000150: 17de 9dbd c624 a83e 8a17 473e 8f18 a3b9
00000160: 5715 5fbd b430 3c3c 8606 7d3e 863b 743d
00000170: 3d02 e8bd 6b74 ed3c 26f8 6539 85a2 363d
00000180: 028a 433d b38c ddbc fe53 0a3e 5e06 0ebd
00000190: f755 4ebd c8fb 7ebd c1f8 5c3e 3a17 1abe
000001a0: 3afe 873e 6777 89bd 1619 3c3d d107 4fbe
000001b0: 7c28 573e 9fc6 8ebe 1af7 b83d dee8 963e
000001c0: b642 7bbb b6ef 59bd f050 27be 84a8 c4be
000001d0: 2ec3 c1bc 83c6 913e 33bc 0ebe ed9c 843d
000001e0: 45fd 5cbd 870e a63e 9774 103d 4fe9 3dbe
000001f0: 1d55 c63d 6984 393e c3af 2f3d 15d3 5cbe
00000200: 49a9 7e3d cee1 babd 3343 413e 0d59 f33d
00000210: 83f7 d03d 0cdf 023c e34f 12be db93 21bc
00000220: cc02 d13c d38c 363d 845b c43c b48b 8d3e
00000230: fe20 393e b774 4dbe 5181 9bbd c996 53be
00000240: 3c51 3bbe f86b 58bd b947 38be ae91 58be
00000250: 0caf 88be 90f5 f9bc 107d 283e ac5b 103d
00000260: 59f3 0bbd 2031 123c 1a84 563d 94b2 9bbd
00000270: 0013 aa3b cc27 463e fec0 d4bd 489b 443e
00000280: ab34 b23e aaac 9ebd 85cb 2a3e dcf6 173d
00000290: 8b40 ffbd da19 c33d 5812 a73e bef4 993d
000002a0: 1beb 653e cd04 a1be 5f9c 0f3e f1e5 a3bc
000002b0: 06b0 103c 2db0 fabc 3014 fd3b 6bc8 733e
000002c0: 685e 41bc edf6 4cbe 7f61 9bbe 9895 bcbe
000002d0: e84b 8cbc 53eb ba3d 1fd5 45be 02ec 363e
000002e0: 6910 c8be 34d3 363d f729 383e 62f5 c73d
000002f0: 1ef2 e73d a186 7e3e eee5 073e fcc7 dcbd
00000300: 4378 5fbe 01f7 21bd 8324 cf3d 2263 8c3d
00000310: b201 e73d 32f6 363e dd15 eb3c 1b85 713e
00000320: 95a0 1abe c740 883d 81ff 1a3e 1d5a 0e3e
00000330: c26f afbd 0c31 303d a74b 98be d906 9abb
00000340: 778f abbd d1f5 d33d a443 0cbd 4d08 76be
00000350: 8a15 30bd ef14 a43b b7fc 5dbd ef71 c4bd
00000360: 15bc 49bb 85ee c33d cefa 603d 75d9 363e
00000370: 5d38 cb3c 2bae 493e 403e 583d be09 443d
00000380: fb4c e2bd c60f 49be abce 33bd 69a3 2a3d
00000390: c8cf 003e 1ae9 963e fce5 943c 7318 523d
000003a0: 7761 333e d717 94bd 1d22 2abe 3ccd 92be
000003b0: be4d b83d b793 99be e860 893e 1d8f 9f3d
000003c0: 13ba 26bd 695c 86be 6897 b4bd 868f 5bbd
000003d0: 1529 23be ede7 80bd 30d4 843e 9746 9dbd
000003e0: 03df fbbd bc3d 9abe 4ef1 8abd 676d 92be
000003f0: d5b3 873e 9939 1c3e 5008 0a3d ffe1 3dbe
