result/model-1/model.pt (torch_old, 951998 bytes, 21 tensors)

weight f4 [32, 4]
00000000: f02e 9cbf e338 ed3f 59ac 463f 1747 2ebf
00000010: 39d6 85bf a802 0a3f 1209 733d 4a12 4a3f
00000020: 72ea 7a3f ff2b 38bf 0da0 5e3f 4a52 00bf
00000030: 4e6a 843f f91a 6dbf 7b99 e1bc d4ef c33f
00000040: 6327 8cbf 5493 c8be 6d03 4b3e b319 85b9
00000050: 9302 013f 2ce7 3fbf a9f2 8dbf 3f4a a53e
00000060: cc2f 4e3f 2786 223f da6c 58bf a1ee 1a3f
00000070: 2793 503f 33c5 823e 0d1d 8fbf d7d8 3abf
00000080: 8047 1ebf b4c0 303f d7ba 3ebf 7180 693f
00000090: 17de dc3f 2af5 70bf 16fc 873f 05a3 1cbf
000000a0: b4ca 5c3e 03c7 f93e 3cc9 0040 a7e6 98bf
000000b0: dfed 07be 6f62 73bf 4754 d73e 41d5 88be
000000c0: aaa1 33bf 2c71 58bf 2857 ebbf e0c7 eb3f
000000d0: 7a93 c33f 6242 9b3f 59d6 19c0 287a 71bf
000000e0: e91d 06c0 10dc de3d aae3 6a3f 64d5 cd3f
000000f0: 92c4 5b3d f65c 6cbe ce0f c13e d82e 00bf
00000100: 4409 4ebf f19d 653e 474e eabf f39f b03f
00000110: 301f 03be 4a79 ccbf 93fd b73f d07f bfbf
00000120: 3187 77bf 6589 41bf 1fe3 10bf 99ee e63f
00000130: f266 313a 9bd9 43bf f760 8dbf 580f 68bf
00000140: 2f7e bebe 7958 963f 080c c23f c006 243f
00000150: 53d8 c2bf 3fea ba3f 6ac6 a5bf 9a1a d0bf
00000160: 65b9 1440 f988 6fbe e6b6 b8bf 79b9 c3bc
00000170: 178c 873e 8cce 013f 0cd6 babf 0fab dd3f
00000180: 0c60 4340 2a47 2d3f d16b fd3f 34a8 2740
00000190: ee43 773e e8dc 703e dda6 673f 9c18 fabf
000001a0: 2ff2 d13c f501 5c3e 821d 48bf 7d53 adbc
000001b0: 7a84 09be 1305 e73f c6ec b83f aabd 4dbf
000001c0: a9ed 8bbf b0f5 0dbf 5a79 74bf 2e9e b43f
000001d0: e6c4 d2bf 790f 20bf 0844 063f 75d7 e2bc
000001e0: fe6a 753c f59c ed3e ce23 b8bd d568 943d
000001f0: a751 afbf f47e 0ec0 29ae 493f 13b0 0ebf
-1.2201824 1.8532985 0.7760673 -0.68077224 -1.0456 0.53910303 0.059334822 0.78934157
0.98013985 -0.7194213 0.8696297 -0.50125563 1.0344942 -0.9261928 -0.027539006 1.5307565
-1.094952 -0.39174902 0.19825526 -0.00025386884 0.5039455 -0.74962115 -1.1089679 0.32283208
0.8054168 0.6348595 -0.84541094 0.6052037 0.81474537 0.25541076 -1.118074 -0.7298712
-0.6182785 0.6904404 -0.74503845 0.9121161 1.7255276 -0.9412409 1.0623806 -0.6118625
0.215617 0.48784646 2.0122824 -1.194539 -0.13274334 -0.9507207 0.42056486 -0.267252
-0.70168555 -0.84547687 -1.8385973 1.8420372 1.5279381 1.2129633 -2.4037077 -0.9432702
-2.0955756 0.10881817 0.9175364 1.6080747 0.05365426 -0.23082337 0.3770737 -0.5007148
-0.8048289 0.22423531 -1.8305138 1.3798813 -0.12804866 -1.5974514 1.437426 -1.496088
-0.9669066 -0.7560027 -0.5659656 1.8041564 0.0006767354 -0.76503915 -1.1045216 -0.9064841
-0.37205645 1.174575 1.5159922 0.640728 -1.5222267 1.4602736 -1.2951176 -1.6258118
2.3238156 -0.23392095 -1.4430816 -0.023892151 0.26474068 0.5070579 -1.4596572 1.7317828
3.0527372 0.6768671 1.9798528 2.6196413 0.24147007 0.23521769 0.9048899 -1.953876
0.025628177 0.21485122 -0.78170025 -0.021157974 -0.13429442 1.8048424 1.4447258 -0.8036753
-1.0931903 -0.55453014 -0.9549767 1.4110773 -1.6466339 -0.6252361 0.5244756 -0.027690629
0.014979122 0.4640881 -0.08991204 0.072465576 -1.3696793 -2.2264986 0.7878137 -0.5573742

weight_ih_l0 f4 [128, 774]
00000000: 0b51 67bd 6e19 0cbc 8b86 99bd aae4 0f3e
00000010: a652 5bbc 0eeb 14be e38f 39bc af7e 89bd
00000020: 5059 0e3d 33b1 d93c cc7a 483c 36fb 1cbd
00000030: ee34 29be 250f 1a3d e68b a9bd 1fcd fd3d
00000040: 945a 39bd b8c9 97bb d3d4 9bbd 51c2 c23d
00000050: fdd5 f8bd 78b3 0abe 6f64 213d 42f0 9b3d
00000060: f2b3 1d3d 363b 073e 880d 82bd c4db 15be
00000070: 738f 143e a324 1cbe dc03 05be 6885 293d
00000080: 115c 1b3e 1745 31be a37f 1abe 3800 49bc
00000090: 7df9 163e a8a6 c3bd 295a afbd 3ac8 c7bd
000000a0: 15c1 f13c dfd9 ccbd afc3 db3b e5ba 343e
000000b0: 1cb7 04be b538 e6bd 45a4 a33d 29a9 f03d
000000c0: 5ae2 0fbe 9d2d 663d 7f3a f23a 2cbb 85bd
000000d0: d4ec 22be 7299 963d a855 533d 4190 933d
000000e0: 1aca a13c a56f 803d e9fb 7abd 56dd e6bd
000000f0: 0f2c a33c b063 ccbd 1af9 fa3d 6e35 d9bd
00000100: c2e9 04bd 78c7 81bd 7978 ebbd fb08 073e
00000110: 54e7 1b3e 5cba 653d 738d 1cbe 7365 0f3e
00000120: c0e0 193e 1c02 b53d a7bd 1fbe d339 123e
00000130: 02e7 de3d 19c5 b3bc 69a2 b2bc da6d aebd
00000140: 57cf 8cbc ead6 773d afc8 94bc dca4 8bbd
00000150: 3601 05be ffad 10be 1081 94bd 7c6c e13b
00000160: 272e 50bd 1ab6 b3bc 319d 343d ca1f 0cbc
00000170: 6ea5 8a3d 7585 243e 4b4b 333e 0254 d0bb
00000180: 336e 01be 8d3b 00be 86d1 fb3d 76cf 1c3e
00000190: 13d0 cf3d ec2d c4bd 7a09 f23d e0c1 27be
000001a0: fc87 a1bd ed3a a33d e118 a33c 8edf 1abe
000001b0: 08a9 08be 6b42 00be bccf 8d3d 20ae 473d
000001c0: 91b3 94bd 4dc0 793c a89c 343c 981f 373e
000001d0: 3002 a2bd fcfd 00be c69a 37bd 52cc efbd
000001e0: f18f 5fbd 1ca4 a43c 4ee4 e2bd 7d18 2abe
000001f0: cb86 f63c 2e07 823d 7365 f2bc a4b1 a43d
00000200: 7f60 d73d ef33 11be 4cf8 40bd 7d46 b4bc
00000210: b1d2 fe3d 6064 adbc b367 7a3c 7785 e7bd
00000220: a650 05be b17a f13d 470a 0fbe a9ad 253d
00000230: ca5f d73d d46c 8ebd 1001 803d 9581 dfbd
00000240: bd18 443d 40ea 80bc 59b1 2a3e 5d43 f03d
00000250: 082a 263e 411f 93bd 8d0b aa3d 4aa5 43bc
00000260: 21a4 c0bb 3789 913d ae90 07be 1acd 6f3d
00000270: d7ec 293e 0a54 d63d 130b f0bd 27af 05be
00000280: 1f41 263e e469 e0bd 910a 09bd 2f36 e73d
00000290: 45dd 153e 495d efbc 5590 213e c3c5 61bd
000002a0: e058 463c 2534 3fbd 7b5a e7bd eec4 d6bd
000002b0: 0de5 cb3d 6ad4 313d 85e9 2abe 87c9 42bb
000002c0: 194d 22be 8d20 8dbc 7e17 0f3d b642 25be
000002d0: 995f 583c 6e7e d93d e09c fabd af68 d8bb
000002e0: 1665 8c3d d4a6 e63d 0ac9 003e e5a2 083e
000002f0: 23e8 8fbc 010e 263e ad70 07be 99fc 313e
00000300: 45a0 00be 8eef e3bd fbb2 f53d 140b debd
00000310: c769 19bd faad 0ebe 759b a13c 7dae ee3c
00000320: 213e cd3d 67e4 27be 28e9 083e 5e89 343e
00000330: 467c b43d b9e4 14be 94e1 f6bd 893a ff3d
00000340: e710 0abe 5d1f 37bd 7f23 673d a7fa acbd
00000350: 8e01 3dbd 73db 2fbe 3034 263e 3a1e 17bd
00000360: 8ada f4bd ad55 2f3e c85d dbbb ab44 24be
00000370: fc3e d83c bd5a 003e ed38 0fbd 1908 8abb
00000380: c7da 8ebd 2fa2 efbd bc63 953c c8bd 913c
00000390: 539a 5abd 6ca6 bdbc 518c 133d 2137 b8bd
000003a0: e8af 2d3e 91cd d0bc 7ade f9bc 0b71 0b3d
000003b0: 7c44 60bd de17 963d 17b6 af3c e75e 083e
000003c0: 5b77 28be 6059 aa3d 7199 babd 8122 2d3e
000003d0: f910 0cbe 9111 b5bd 27ff 37be 8403 8e3d
000003e0: ad3e c5bd 3bfa 783d d631 e83d b7a9 ef3d
000003f0: 202b 663d 53d1 133e f7b2 b63a a616 c6bd
-0.056473773 -0.008550985 -0.07496365 0.14052072 -0.013386404 -0.14542791 -0.011325809 -0.06713616
0.034753144 0.026573753 0.012236308 -0.03832551 -0.16524097 0.0376121 -0.08278637 0.12392639
-0.045252398 -0.004632201 -0.076089524 0.09509719 -0.1215019 -0.13545024 0.03940242 0.07614185
0.038501687 0.13206181 -0.06350237 -0.14634615 0.14507847 -0.15248351 -0.12989753 0.04138699
0.1517184 -0.17311512 -0.15087752 -0.012268119 0.1474361 -0.095532715 -0.085621186 -0.09754987
0.029511014 -0.10002493 0.006706677 0.1764942 -0.12960476 -0.11241285 0.07990316 0.11751015
-0.1405119 0.056195844 0.0018480568 -0.06529841 -0.15910655 0.07353486 0.05159536 0.072052486
0.01974969 0.062712945 -0.061275396 -0.11272685 0.01991847 -0.099799514 0.122545436 -0.10605894
-0.03244949 -0.06336874 -0.11497588 0.1318702 0.15224963 0.05608593 -0.15288334 0.14003544
0.15027142 0.08838293 -0.1559969 0.1427987 0.10883905 -0.02194457 -0.021805959 -0.08517046
-0.017188711 0.060507692 -0.0181621 -0.06818554 -0.12988743 -0.14128874 -0.07251179 0.0068793874
-0.050825264 -0.021937419 0.044095222 -0.008552501 0.067698345 0.16066535 0.1750919 -0.0063576708
-0.12639694 -0.12522717 0.12295823 0.15313515 0.10147109 -0.095790714 0.11818214 -0.16382551
-0.07887265 0.079702236 0.019909324 -0.15124342 -0.1334573 -0.12525336 0.06924388 0.048750043
-0.07260812 0.015243602 0.011023678 0.17883146 -0.079105735 -0.12596887 -0.044825338 -0.11708893
-0.054580633 0.020097785 -0.11078702 -0.16610904 0.030093571 0.06349026 -0.02958939 0.08041695
0.10516452 -0.14179967 -0.047111794 -0.022006268 0.1244253 -0.021166027 0.015283513 -0.11304753
-0.13019046 0.1179098 -0.13968764 0.04044882 0.10516317 -0.06954351 0.06250203 -0.10913388
0.047875155 -0.0157367 0.16669215 0.117315985 0.16226971 -0.071836956 0.083029844 -0.011941263
-0.0058789407 0.0710625 -0.13238785 0.05854521 0.16594253 0.10465248 -0.11720862 -0.13055097
0.16235779 -0.10957697 -0.033457343 0.112896316 0.14635189 -0.029219287 0.15777715 -0.05512024
0.01210615 -0.04668059 -0.11296555 -0.1048678 0.09955797 0.043415464 -0.16690643 -0.002972217
-0.15849723 -0.017227435 0.034934513 -0.1613873 0.013206386 0.10619818 -0.12236953 -0.006604276
0.06855218 0.11262289 0.1257669 0.1334339 -0.017566746 0.1621628 -0.13226576 0.17381515
-0.12561138 -0.11129676 0.119970284 -0.10841957 -0.037454393 -0.13933554 0.019727448 0.029135937
0.10021616 -0.16395722 0.13370192 0.17630526 0.08812766 -0.14540376 -0.12054744 0.124623366
-0.1348301 -0.044707645 0.056430336 -0.08446246 -0.04614406 -0.17173557 0.16230845 -0.03689406
-0.119557455 0.17122526 -0.006694529 -0.1604182 0.02639722 0.12534614 -0.034966398 -0.004212391
-0.06975322 -0.11700856 0.018236034 0.01779069 -0.05336983 -0.023150645 0.036022488 -0.0899489
0.16961634 -0.025488647 -0.030501593 0.034043353 -0.05475281 0.07328771 0.021449132 0.13317452
-0.1645178 0.08317828 -0.09111298 0.16907693 -0.1367835 -0.08841241 -0.17968427 0.06934264
-0.09631095 0.060785513 0.113376305 0.117022924 0.05619347 0.1443532 0.0013938834 -0.096722886

weight_hh_l0 f4 [128, 32]
00000000: dd36 923d 1df2 1f3e 91cb 23be 0791 313e
00000010: b8b8 1fbe 79e7 183e 1aca 003e 9ab4 593d
00000020: 79ed c5bd ee6c ffbd 03fa b6bd a6f8 173e
00000030: f869 84bd 4951 f6bc 34bb cf3d 572c 813d
00000040: 1fb6 d5bd 75a6 bcbc 247f 1a3e 09e9 2e3e
00000050: bdf9 10bc 92c0 67bd b7f3 2ebd a616 5cbc
00000060: 0a79 bb3d 45a2 cdbc e0f0 d53d acef febd
00000070: db94 6ebc 4310 263b 341d 2bbd 5323 b73d
00000080: 46dd dabd 9330 90bd e103 243e a827 79b9
00000090: 06cc c9bc c5d0 d93d 09d3 d33b 6f3d b03d
000000a0: f33d 6dbd 936f 10be 10ac d03c ddec 373d
000000b0: d3fd 81ba 332b 93bd c1d9 2abe 41d5 a8bd
000000c0: fcc4 d8bd 053d 86bd 26c5 f0bd fef3 c2bd
000000d0: 5aa0 db3d 1393 6abd 169b 263e 9f34 c33d
000000e0: bec2 0c3e 49f2 e4bd 667a 1b3e 690a c8bd
000000f0: b033 7cbd d57b 2f3e c482 af3d 2372 cc3d
00000100: c2f6 d13d 5150 20ba fc8f 173e 4a6f 563d
00000110: d9ae 1fbe 901a 613c d756 31be 6660 1ebe
00000120: a72e 20be 5702 ba3d 51d0 083e 7873 4ebd
00000130: c09f fdbd 2001 20be ba82 18be 4049 bbbb
00000140: c9cb 28bc 3684 943d 5c8e 13be 3b10 243e
00000150: dadf 8bbb 52f7 f8bd 9b6b 203e e3ae 83bd
00000160: ab86 023e fcb7 02be e4f6 d93d 5d10 83bd
00000170: b2fc 1abe 6b1b 2b3d b44d 263e 7e66 193e
00000180: 1e1a 32bc fdf7 aa3d a787 f43d 9c47 343e
00000190: 97b0 2dbd a628 ef3d 14f5 d03d 544e 543d
000001a0: 81d5 11be e6b2 83bd fda4 f8bc 256f 39bb
000001b0: da27 9bbd bb3f 37be cb37 123e 22f7 bf3d
000001c0: c7a2 b0bc 015a d2bd ec25 afbd 81b8 c9bd
000001d0: a84b bcbd bbd1 29be 9ed2 07bd 74d3 ecbc
000001e0: c7fc 9c3d edd6 1ebe b92b 133e 2c45 91bd
000001f0: 47d9 bdbc d590 bcbd 918c 2a3e 2981 eabd
00000200: a012 c0bd 68d2 bfbd 67fd adbd c1a4 b6bb
00000210: 8607 03be daa7 ed3d d0c9 ff3d cd6b 01be
00000220: 77a4 e33d 89a7 58bd 68fb 8c3d cf54 9abd
00000230: db38 38bc 6190 3d3d 52a8 233e e7dd 7dbd
00000240: 8dce 203e 6473 e3bd 7258 debd 6402 1abc
00000250: b80e 2ebe f4a6 f93b b3b8 823c 8354 2a3e
00000260: 8b4b 063e 2fd8 0fbe 4f7b 143e 55b6 1abe
00000270: 418c 043e d0b5 09be 3eea e9bd 18b8 02be
00000280: e441 9cbd d906 1d3e 00d2 333e f323 cbbb
00000290: fa14 1b3e 43ce c1bd 7ef6 11be 1641 f1bd
000002a0: 8f69 7abc 9b92 033e 1981 d3bd 6f96 243d
000002b0: 8609 d83d beec 003e 1803 de3d 8e7a 273d
000002c0: 9c72 10bd c5db 11be f31f 8b3d d070 c9bd
000002d0: f651 2b3e 9efb 07be b046 a3bd 2d25 bc3d
000002e0: 4224 fa3d 9dfa 83bc a20e c2bd 5c4f 163d
000002f0: 1003 983c 6241 2fbd 9ec7 85bd de24 97bd
00000300: 85d2 003e e46d b9bd 215c aebd 9ab9 793d
00000310: c9ae bebc bb0e 313d 0e75 00be 685a debc
00000320: 7545 ff3d ce87 0e3e 9c6e 03be baf0 4bbd
00000330: dcd3 ba3d 3a23 e6bd 6dc6 dcbd fb82 8c3d
00000340: 85fa e1bd 7d68 12bc 6519 89bd 048d 62bd
00000350: 5ce1 fc3d 6154 563d 76b0 2ebe d43f 94bd
00000360: c3d9 9d3c ee0e 88bd 1b22 4dbd 5ba6 a03d
00000370: 03b8 fdbd 6710 d5bd 78cc 17bd 4b5c 0ebe
00000380: 0ee4 d43d 487a c93d 84b9 1d3d 1ba0 2c3d
00000390: 2144 a33c 7673 0a3e 745c 4c3d 2278 99bd
000003a0: 4a2e ab3d bec9 13be a4ee 263e 9268 b7bb
000003b0: 2f0c dcbd 6963 dabd 00db e03d 15af 9cbc
000003c0: 4646 30be b1d6 07be c62f 293e 9062 2bbe
000003d0: a8ba 413c ce7f 93bd 9054 8bbd 96f3 c33d
000003e0: f71d a2bd c17d b2bd d30c febc 73c6 9cbd
000003f0: decb 07be abfa 95bd 2a35 47bc b14f 133e
0.071393706 0.15619703 -0.15995623 0.1734048 -0.15597808 0.1493205 0.12577096 0.05315075
-0.09664435 -0.124719486 -0.08934405 0.14840946 -0.064655244 -0.030068057 0.10143128 0.06307285
-0.104351275 -0.023028592 0.15087563 0.17081083 -0.008848605 -0.056580134 -0.042712893 -0.013433134
0.09153946 -0.02510179 0.10446334 -0.124480575 -0.014561857 0.0025339283 -0.041775897 0.089422844
-0.10686736 -0.07040515 0.16017105 -0.00023761264 -0.024633419 0.10635523 0.0064643663 0.086054675
-0.057920408 -0.14105062 0.02547267 0.044903625 -0.0009917564 -0.07185974 -0.16684629 -0.082438
-0.10584447 -0.06554607 -0.11756353 -0.09519194 0.10723944 -0.057269167 0.16270098 0.09531521
0.13746163 -0.11179025 0.1518341 -0.097676106 -0.06157273 0.17137082 0.085698634 0.09982707
0.102521434 -0.00061154837 0.1480102 0.052352227 -0.15594043 0.013739243 -0.17318283 -0.1546646
-0.15642796 0.090824775 0.13360716 -0.05040309 -0.123839855 -0.15625429 -0.14893618 -0.005715519
-0.010302492 0.0725178 -0.14409775 0.16021816 -0.0042686285 -0.121565476 0.15666048 -0.06429841
0.12746684 -0.12765497 0.10642794 -0.063996054 -0.15135458 0.041774195 0.16240579 0.14980504
-0.010870485 0.08348081 0.11939936 0.17605442 -0.042404737 0.11677675 0.10202995 0.051832512
-0.14241602 -0.064306065 -0.03035211 -0.0028295007 -0.075759605 -0.17895405 0.14279096 0.09373309
-0.021561993 -0.10271073 -0.08552155 -0.098496445 -0.09194118 -0.16583912 -0.033159845 -0.028909422
0.07665401 -0.15511675 0.14372148 -0.070932716 -0.023174895 -0.09207312 0.16655184 -0.114504166
-0.093785524 -0.09366304 -0.08495598 -0.0055738394 -0.12795839 0.11604281 0.124896646 -0.12638779
0.111153536 -0.05289415 0.068838894 -0.07535707 -0.011244024 0.04628027 0.15982178 -0.0619792
0.15703793 -0.111059934 -0.10856713 -0.009399984 -0.16997802 0.0076187793 0.015957212 0.16633801
0.13114755 -0.14047311 0.14500163 -0.15108617 0.12944128 -0.13448262 -0.11421631 -0.12765539
-0.07629755 0.15334643 0.17560577 -0.006199354 0.1514472 -0.094631694 -0.14254186 -0.11779992
-0.015283956 0.12848894 -0.10327358 0.040182527 0.105486915 0.1259031 0.10840434 0.04088836
-0.03526555 -0.14243992 0.06793203 -0.098359704 0.16730484 -0.13279578 -0.07972467 0.09186778
0.12213947 -0.016110713 -0.09475447 0.036696777 0.018556148 -0.042786963 -0.065322146 -0.07380079
0.12580307 -0.09054163 -0.08513666 0.06096802 -0.023276703 0.04322694 -0.12544653 -0.027142718
0.1246442 0.13918993 -0.12835163 -0.04979012 0.0912244 -0.11237188 -0.10780034 0.0686092
-0.11034111 -0.008936045 -0.06694297 -0.055310264 0.123476714 0.052326564 -0.17059502 -0.07238737
0.019268876 -0.066434726 -0.050081354 0.0784423 -0.12388613 -0.10403519 -0.03706023 -0.13902394
0.103950605 0.098377764 0.038507 0.042144876 0.019929947 0.13520607 0.049892858 -0.07493617
0.08358438 -0.14432427 0.16301972 -0.0055971825 -0.10744511 -0.10663492 0.10979271 -0.019126454
-0.17214307 -0.13265492 0.1652213 -0.16736817 0.0118242875 -0.07202111 -0.068032384 0.09567945
-0.079158716 -0.08715392 -0.031011974 -0.07655039 -0.13261363 -0.07323202 -0.012158671 0.14385869

bias_ih_l0 f4 [128]
00000000: 5784 2cbe 24b7 b7bd 402a 9ebd 2be9 0dbe
00000010: c990 573d 2ac1 f0bd 937d 51bd 2f10 753d
00000020: 1db5 e53d b921 033e d31b d5bc f515 87bc
00000030: 9135 1f3d 4696 b13d 1bc7 173e 1445 eb3c
00000040: bed4 913c e4ed 8b3c 6f9c 523d 3855 bcbd
00000050: eb0a 373e 4f11 a73d ebef a5bd a1bf 4bbb
00000060: 8b91 38bd 6405 27be acc2 fbbd fc4c 8d3d
00000070: 98d9 1b3e 96d5 b9bc bd4e 66bd ca74 ec3b
00000080: 839c 123e 1d29 b1bd 0330 8ebd 9912 b73d
00000090: 3714 143d cf24 28be f0ac e03c 9fe5 12be
000000a0: d8f5 2e3e 21e5 efbd 5d5c 043e bcb3 cd3d
000000b0: 12f7 f8bc fe97 afbd 4f69 2dbe 3ef1 1b3e
000000c0: 3ee0 df3d 12a0 30bd 7828 083e d2e6 ebbd
000000d0: 4de2 18bd 126a 01be acfd 0fbe 1e00 ffbd
000000e0: 8cb9 b73d 19d6 87bd 6946 d83d da6f 113e
000000f0: c8e3 a83d ba8f 4b3c c9f9 17be 5b55 e53d
00000100: 0489 dfbd 239b 17be 15eb 2e3e 531c eabd
00000110: ba8f fbbc 2512 14be 6b24 013e 0ac2 19be
00000120: ea6a 07bd 62d5 ea3d 7559 ed3b 26d7 20be
00000130: 4475 e93d 6c29 b4bd 6559 103e 2ed7 4fbd
00000140: 3ca4 19be 8115 ad3d 29f8 e2bc c3ac 183e
00000150: 1136 2fbe ea5d 113e 89e7 d23c 46ac 963d
00000160: 9632 063e d11e 083e 6220 9b3d 4ca7 9bbc
00000170: df6f 2bbe c226 c9bc b3f9 c33d 890f d0bd
00000180: 5692 19bd 861f b73d b926 70bd 05c6 fc3d
00000190: 8d8e f4bd 67f6 1e3d d5c0 04be beac 8a3d
000001a0: 6591 2f3e ddc5 883d df05 5fbd bd90 2bbe
000001b0: a355 00be fe50 13be 97eb 95bb 9b01 6d3d
000001c0: 1ada dbbd bf64 ab3d 9d28 f93c ff2a 5c3d
000001d0: 6cba b03c dcd2 283e 9182 54bd a7b7 f9bd
000001e0: ea0b 10be d47b d8bd 7eaf 89bc e857 823d
000001f0: 013c d23d b0db 2abe bcc8 653d 3412 8dbd
-0.16847359 -0.08970478 -0.07722902 -0.13858478 0.052628312 -0.11755593 -0.051145148 0.059829887
0.11216185 0.12805833 -0.026014244 -0.016489962 0.038869444 0.086712405 0.14822046 0.028719462
0.017801639 0.017081209 0.051418718 -0.09195942 0.17875259 0.08157598 -0.08102401 -0.0031089562
-0.045060676 -0.1631065 -0.1229299 0.06899449 0.15219724 -0.022684854 -0.056227434 0.007216071
0.14317517 -0.0865042 -0.06942751 0.08939094 0.03615209 -0.16420291 0.027426213 -0.14345406
0.1708597 -0.11713625 0.12925859 0.10044047 -0.03039125 -0.08573912 -0.16934703 0.15228745
0.10931443 -0.043121405 0.13296688 -0.11518635 -0.037325192 -0.12638119 -0.14061612 -0.12451194
0.08970937 -0.06632633 0.10560305 0.14202824 0.08246571 0.012424404 -0.14841379 0.11197921
-0.109148055 -0.14805274 0.17081864 -0.11431184 -0.030708183 -0.14460047 0.12611549 -0.15015426
-0.033060946 0.11466481 0.00724333 -0.15707073 0.1139932 -0.08796963 0.14096601 -0.05074232
-0.15004057 0.08451367 -0.027706223 0.14909653 -0.17110468 0.14195982 0.02574517 0.07357077
0.13105235 0.13293006 0.07574536 -0.019000672 -0.16741894 -0.024554614 0.09569111 -0.10159213
-0.037493072 0.089415595 -0.05863068 0.12342457 -0.11941252 0.038809206 -0.12964185 0.06771229
0.17145307 0.066783644 -0.05444896 -0.16754432 -0.12532668 -0.14386365 -0.0045752036 0.05786286
-0.10734959 0.08368825 0.030414874 0.05375194 0.021573268 0.16486686 -0.05188233 -0.12193232
-0.14067045 -0.10570493 -0.016807314 0.06364423 0.10265351 -0.16685367 0.05609964 -0.068882376

bias_hh_l0 f4 [128]
00000000: 37f2 35bd 3268 813d 9fb2 a6bd 041a b0bd
00000010: 324c 083e 6237 6dbd 2229 bd3d ae55 1f3c
00000020: 6f2c 1ebe 6500 0f3e 1dd2 a33d 46a9 193e
00000030: e0e6 0b3e 8238 4abd 2991 2d3e b675 2e3d
00000040: 58db 223e 8749 c13d f830 213e b495 1abc
00000050: 8df1 233e 9f0b eb3d c252 883d ebdb 25be
00000060: 0b39 b13d a17b fb3d 74d5 1ebe ac64 923d
00000070: b23f e63d ed75 95bd a1d9 663d 9210 be3d
00000080: 79d6 323e 8002 05be 9488 07bc 67f1 f63c
00000090: 7fcd b33b 4753 5dbd c0f4 273c a634 a1bd
000000a0: 0a77 203d bc68 00bd dbe5 f7bd fc06 0f3e
000000b0: 2f6c 0ebe 5cd8 853d dbea f63d 38d8 abbd
000000c0: 464d bebd f380 ec3d cfcc 2c3c a18c 19be
000000d0: 7da8 9abc a980 323e 0470 d9bd f1ef 86bd
000000e0: 6a00 6f3d f8fe 103e bd0d a53c 8828 853c
000000f0: 67c0 cebb 4a88 cf3d 903e 0cbe e553 183e
00000100: f90a e93d e745 c23d a7f2 07be ac86 c23b
00000110: 715c 863d 176d 5d3b ea00 1cbe f878 cb3d
00000120: bea2 06be b4b6 0fbe c61c abbd 9a90 0dbe
00000130: 7aca 23be 0c3c 99bd 3725 963d 4f77 163e
00000140: aed5 ea3d e2d3 4d3c 2096 06be 339d 21bd
00000150: e83c a8bd 164d 15bd 4d6a aa3d 4800 ebbc
00000160: aa6a b13c e01a e03d f02d 11be 0ede 193d
00000170: a6f4 1c3e 6bd8 233c f292 4f3d d436 b23d
00000180: fbbf 333e a6d6 0a3c 807f 593c 71f6 d53d
00000190: 4f42 f1bd 5055 bcbd aeeb a93d 338f 2ebd
000001a0: f8d1 ec3d a6dc bbbd 4df0 42bc 1a20 7e3d
000001b0: 1b8b 593d 88b2 0fbe 2651 1dbe 2fc8 2fbe
000001c0: 8822 333e 080e 43bd 437d debc 8e69 16be
000001d0: f451 04be f147 79bd df1b 0fbe 7607 1bbe
000001e0: bda1 a2bd 6d68 0b3e 8d94 ae3d a037 643c
000001f0: db75 623d 1fab c43c f43f 31bd 5689 2fbe
-0.044420447 0.06318702 -0.08139538 -0.08598712 0.13310316 -0.057914145 0.09236361 0.0097250175
-0.15446638 0.13964994 0.0799906 0.15005979 0.1366229 -0.049370296 0.16949905 0.042592727
0.15903986 0.09437852 0.15741336 -0.009435106 0.16010113 0.11476826 0.0665641 -0.16197173
0.08653458 0.1227944 -0.15511113 0.07148108 0.11242618 -0.07297883 0.05635989 0.09280504
0.17464627 -0.12989235 -0.008272309 0.030144406 0.0054871435 -0.054034498 0.010251224 -0.0787137
0.039176024 -0.031349882 -0.12104388 0.13967508 -0.13908456 0.06535408 0.12056514 -0.0839085
-0.092920825 0.115480326 0.010546877 -0.14995052 -0.01887917 0.17431892 -0.106170684 -0.06588734
0.058350004 0.14159763 0.020148152 0.016254678 -0.0063095572 0.10133417 -0.1369574 0.14875753
0.11379046 0.09485989 -0.13276158 0.0059364643 0.065606005 0.0033786946 -0.15234724 0.09935182
-0.13148019 -0.1403454 -0.083550975 -0.13824692 -0.15995207 -0.07482156 0.07331317 0.1469395
0.114665374 0.012562724 -0.13143206 -0.039456557 -0.08214742 -0.036450468 0.083210565 -0.028686658
0.021657307 0.10942626 -0.1417768 0.037565283 0.15327701 0.0100003285 0.050677247 0.08701864
0.17553703 0.008474028 0.013275027 0.104473956 -0.117802255 -0.091959596 0.082969055 -0.042617034
0.11563486 -0.09172945 -0.0118981125 0.062042333 0.053111177 -0.14032948 -0.15362987 -0.17166208
0.17493641 -0.047620803 -0.027159339 -0.14688703 -0.12921888 -0.060859624 -0.13975476 -0.15139565
-0.079410054 0.13614054 0.085244276 0.013929278 0.055288177 0.024007378 -0.04327388 -0.17142233

weight_ih_l0_reverse f4 [128, 774]
00000000: 0ed0 053e aacd 6fbd e29e 59bd f964 b73d
00000010: ed4a f4bc dd81 aa3c 5da9 54bd 9b0c 25bd
00000020: 03bb 503d 6a96 f63d 36f3 a13d 3ca4 8bbd
00000030: 3b2e 243d 7716 93bd 2c30 9cbd abfd 80bd
00000040: d365 173d b7e4 18be 05a6 db3d 0085 debd
00000050: 822f fa3d 840c 2fbd fdcb 2f3e 200c 093d
00000060: fc56 29be 5b6d 1cbe c96d 9fbd 279e 503d
00000070: 7ae4 243e 38b1 eb3d 5419 af3d 6c63 09be
00000080: ddf9 84bc b123 563d 84bc aebc 2ff7 f13c
00000090: 1ecb cbbd b930 893c c012 623d e6be 133d
000000a0: 74e2 c23c a73c 5d3d 8f75 cbbd 97af 7a3b
000000b0: 2372 dbbd 456e 103e 59cc abbd 672f 893c
000000c0: 3a7d c53b 3dbd 5abd e03a 3cbd 3cd2 093e
000000d0: d738 8dbd 9602 b33c ac62 04be 8fc6 9a3d
000000e0: 9416 c4bd 999d 1fbe fc57 62bd c683 b9bd
000000f0: 8e22 0e3e 22c2 c2bc f2d7 5c3c da70 1a3d
00000100: 496e fbbd ca41 2cbc 29e4 84bb 631f 32be
00000110: 1e93 cd3c ef69 2a3e ca53 02bd 505f 3c3c
00000120: 15cc c2bc b364 433d 722d 17be 5f1a 9f3d
00000130: 2d6c 0bbd 62b1 bcbd 7e34 b7bd cc89 7cbc
00000140: b0c8 743d 505a 3dbd 83b2 e43d 7764 f9bd
00000150: 6cce eabd 5d82 023e 232d 93bc abce 153e
00000160: e0f8 c93d e07f 203e aa56 c63c 7eba 9d3d
00000170: 9a37 f2bd 230d 02bd 00ff 933d 9df3 fcbd
00000180: 2430 0f3d 2afd 31be 2b97 273e bfc9 14be
00000190: 9cc2 303e 388d c03d f8ed 06be e2d3 bbbd
000001a0: b6ac 51bc d09d 1ebe 7ce4 753d beb0 113e
000001b0: 724a 473c e4a0 723c 1841 0bbe 5e4a 273d
000001c0: d77e 03be be25 583d 39d0 2b3e 6c4f 0fbe
000001d0: 35de 413d 48ad 39b9 7742 c4bd b085 373d
000001e0: d678 22be ecac 11be 6aa7 2e3e e4b5 133e
000001f0: 7588 533c d983 173d 69d2 a3bd 96f8 083d
00000200: 5785 963d 0dd5 06be d653 07be bb2f ec3c
00000210: af73 9d3d 2768 783d 74be 73bd bf0f 973d
00000220: a13d c43c 4adb 1fbe f9d3 193d 8cd4 abbd
00000230: e37f 143e bf63 e0bc d93b b4bd 1e91 d9bd
00000240: 54f0 a33d 5a27 08be 912c b1bd 46be 85bd
00000250: 0858 033c 4c10 b63d 087d 673d d15b 44bc
00000260: 2cb0 1fbd 609c 053e a9f4 c0bd 77e4 4a3d
00000270: 9989 f83c 0d70 cdbd 0313 17bd 9219 8abd
00000280: df7a 14be cf24 0b3e aaaa de3d ed5b 2c3e
00000290: b64a 053e 4156 063e fea9 0d3d 436b 27be
000002a0: 8959 bfbd fbbc a9bd 25e8 8f3d d298 d8bd
000002b0: 1455 7bbd 2390 ca3d 6434 bbbc cd02 923c
000002c0: 0ca3 04be 8ade 1dbd f524 8f3d 5396 c43d
000002d0: e592 20be ba7b 76bc a9c0 f7bd 3989 52bc
000002e0: 49b7 80bc fc67 f0bd 8362 883d 0a23 17be
000002f0: 3c22 c8bd 30b9 033e 5b85 223e acba a43c
00000300: 0e17 d6bc d315 85bd 2ef6 90bc a06f 28be
00000310: 7411 023e 0dc8 2ebe 5813 153e 4c50 183e
00000320: 0d5e 5fbd 7b45 04be 79cf fc3c 8bb7 2e3d
00000330: 9380 22be c0b7 59bd e09a 6a3d 504d 20be
00000340: 3a8e a53d 1084 94bd 7ac0 223e 5e3d 29be
00000350: 8be6 dbbd 5989 79bc f727 9bbd f3ca da3b
00000360: 4ac6 183e 73df 2a3d 7375 16be 1e89 29be
00000370: a720 2ebe f018 81bd 62cc 2bbe 396d 003d
00000380: c958 f2bd 15c7 dabd 4753 833c 45a9 0a3e
00000390: abc8 32be a49d e63d 107e bdbd b1c6 a43d
000003a0: b404 1d3d e180 0e3d ecdb 0d3e ace8 04be
000003b0: d666 483d 2818 2fbe 6f0e a03d 47ef 35be
000003c0: cc3d 973d 138e 7d3d 21f7 23bc f2e1 273e
000003d0: 1143 7dbd 4c8a dc3c 3080 51bd 7c6f 033e
000003e0: ba02 0cbe bd0b fbbd 7453 833d 73d9 483c
000003f0: 4dc4 333e 3660 aabb 697d 2d3e 32e7 233e
0.13067648 -0.058545746 -0.053130038 0.08954806 -0.029820884 0.020813877 -0.05191933 -0.040295225
0.0509596 0.12040408 0.07907717 -0.068184346 0.04008315 -0.07182019 -0.076263756 -0.06298383
0.03696234 -0.14930998 0.10725025 -0.108652115 0.12216093 -0.042736545 0.17167659 0.03345883
-0.16537088 -0.15276091 -0.07784612 0.050932076 0.16102782 0.11508411 0.08549753 -0.13416833
-0.016232425 0.05228013 -0.021330126 0.029536812 -0.09950851 0.016746866 0.055193663 0.036070727
0.023789622 0.05401292 -0.09934532 0.0038251632 -0.10715129 0.14104564 -0.083885856 0.016746236
0.006026891 -0.053403128 -0.045954585 0.13459104 -0.06895607 0.021851819 -0.12928265 0.07557403
-0.09574619 -0.15587462 -0.05525969 -0.09058337 0.13880369 -0.02377421 0.01347922 0.03770528
-0.122768946 -0.010513732 -0.004055519 -0.17394786 0.025094565 0.16641973 -0.03181819 0.011497334
-0.023778955 0.047703456 -0.1476343 0.07768702 -0.03403871 -0.092135206 -0.08945559 -0.015413713
0.059761703 -0.046228707 0.11166861 -0.12177365 -0.11465153 0.12745042 -0.017965859 0.14629619
0.09861922 0.1567378 0.024211247 0.07701586 -0.118270114 -0.03175081 0.07226372 -0.12351153
0.03495802 -0.1738173 0.1636626 -0.14530085 0.17261738 0.09401935 -0.13176715 -0.09171273
-0.012797525 -0.15489888 0.060032353 0.14227578 0.012163745 0.014808867 -0.1359905 0.040842406
-0.12841354 0.05277037 0.1677865 -0.13995141 0.047331054 -0.00017707527 -0.0958299 0.04480523
-0.15866408 -0.1422612 0.17056051 0.14424855 0.012910952 0.036990974 -0.07999117 0.033440195
0.07349651 -0.1316721 -0.13215575 0.028831353 0.076880805 0.060646202 -0.059507802 0.0737605
0.023955168 -0.15610996 0.03755567 -0.083901495 0.1450191 -0.027391313 -0.088004775 -0.10623382
0.08004823 -0.13296261 -0.086510785 -0.065304324 0.008016594 0.08889827 0.056515723 -0.011984781
-0.03898637 0.13047934 -0.09421665 0.049534287 0.03033905 -0.100311376 -0.036883365 -0.067431584
-0.14499997 0.1358826 0.10872395 0.16831942 0.13016781 0.13118841 0.034585945 -0.16349511
-0.09343249 -0.08287998 0.070267 -0.10576023 -0.061360434 0.09890773 -0.02285213 0.017823601
-0.12952822 -0.038542308 0.06989471 0.095989846 -0.15681036 -0.015044147 -0.12097294 -0.012850099
-0.015712397 -0.117385834 0.066594146 -0.1475946 -0.09772155 0.12863612 0.15871184 0.020108543
-0.02613404 -0.06498303 -0.017695513 -0.16448832 0.1270197 -0.17068501 0.1455816 0.14874381
-0.054533053 -0.1291713 0.03086065 0.04265551 -0.1586936 -0.053153753 0.057276607 -0.15654492
0.08083768 -0.072517514 0.15893736 -0.16527316 -0.10737332 -0.0152305 -0.07575982 0.0066770255
0.14919391 0.041717004 -0.14693241 -0.16556212 -0.17004643 -0.063035846 -0.16777185 0.031354163
-0.11833341 -0.10682503 0.01603092 0.13541134 -0.17459361 0.11260536 -0.0925256 0.0804571
0.038334563 0.034790877 0.13853425 -0.12979382 0.048926197 -0.17099059 0.07815253 -0.17767058
0.07384834 0.06190307 -0.010007651 0.16394785 -0.061831538 0.026921414 -0.05114764 0.12835497
-0.13672915 -0.12258098 0.06412402 0.012258875 0.17555352 -0.0051994575 0.16942371 0.16006163

weight_hh_l0_reverse f4 [128, 32]
00000000: c473 373e 9930 033e fcdb e1bd 13d3 4abd
00000010: 81da 24be 4af2 253e bdd3 ea3d d538 e1bd
00000020: 16c5 fd3d 93c4 9fbd c8b2 ad3d 1ed3 b4bd
00000030: 613b 2b3e 2757 a3bd c55a 17be 2dff 073e
00000040: 3561 1a3b c0a3 8cbd f348 d73d c374 ee3d
00000050: ceb0 d5bc cb12 11be decd 1dbe 8069 0ebe
00000060: d2b9 313e c2ee 8dbd 0116 123e 80b8 32be
00000070: d8f4 5f3d 4dbf de3b 9bc1 0abe 3ca1 1bbd
00000080: 6d1d 1e3c 0ddd 8f3d 93c0 08be b0d6 d03d
00000090: 2448 b3bb 2ab1 2c3e 58f5 193d 1d8b 19be
000000a0: b811 17be 31f0 11be a0a2 20be 78d1 afbd
000000b0: 9121 c6bd 3d0c 87bd f46b 483d 6338 eabd
000000c0: 09bb 6c3d 8dbc 01be fa29 98bb db55 65bd
000000d0: d4d0 07be c811 083e 7a1b f73d e8e0 103e
000000e0: 37f7 f5bc 408c cebd 0e78 0c3e 9faa bfbc
000000f0: 4f3a 0d3d cbe3 0e3e 58ad 2b3e e501 4e3d
00000100: d03a debd 261a bc3d 2cee bcbc 90d2 a6bd
00000110: 6ed1 23bd 557e 863d 9cfa cb3d 92a4 97bc
00000120: 73d6 173e e0e2 9dbd 0a8e 11be 3032 173e
00000130: 6baa 1c3e 1b3a 9a3d 5b36 073e 9a9c 143e
00000140: 61f2 44bd 1c55 d13a 8a10 fbbd c21a 673c
00000150: 5c3a afbc f94d 9fbd 5fed 653d f41b fcbd
00000160: 8c64 1ebe a358 39be 0b33 febc 7865 2dbe
00000170: 248b a53d c6a7 9dbd 1e72 f53d 20cf 25be
00000180: 6f0e b2bd 5c02 f43d 5af9 ad3c 7e14 2d3e
00000190: 6cb8 a1bc 6c65 bbbd 9eb2 083e 8106 e93d
000001a0: ea9e 183e e2d2 93bc cbd6 c7bd 98a5 21be
000001b0: d0bd 66bd 0c11 283e 9338 913d 98a0 d63d
000001c0: 3c14 8bbd 64c6 193e 8d92 42bc 26c3 f4bd
000001d0: 703f 833d 6c48 573d 6eee 873d c668 2a3e
000001e0: 888c 413d 3d10 0c3e 2817 e13d e9ef 1ebe
000001f0: 01fe ef3d 5411 273d 28f3 30be 7a97 043d
00000200: 8893 933d 3770 a33d ffa9 1f3e c7f8 efbd
00000210: c214 29be a604 113d b913 22bc 3716 9dbd
00000220: ae1a e13d 958f ed3d 6a69 0d3d 3a0b 3abe
00000230: 5c82 0b3d d9ac 133a 748b 0a3b e417 7fbd
00000240: 8314 28be e8db 743d c144 3abc 9af4 11bd
00000250: 21cc b8bd 7871 2d3e 6155 9c3d f688 ba3d
00000260: 2459 66bd 0c2f 97bc 8322 263e a5fc 233e
00000270: 6784 553d a477 4ebd 8ee2 c1bd 961d 103c
00000280: 6b9c a23b 6637 efbc d95f d8bd ea85 33bc
00000290: 2999 2a3e a660 fb3d d57a 993d ff62 2f3e
000002a0: 69a2 d4bd 0834 ccbd c00d 5cbd 0e09 343e
000002b0: 4596 093e c54a 2b3e 88db ac3d 8ab2 8e3d
000002c0: 7d5c 363e d976 18be f77f 34bd 2bff 003e
000002d0: 681d 903c 1bf2 1c3e eec7 0f3e 9e8c 51bc
000002e0: 438b d1bc 4aee 44bd 1ef8 843d 4f29 443d
000002f0: 75ae 253d de02 fa3d 8f9c 87bd 4849 cb3c
00000300: d0db 8cbc a16f 1ebd 401a 45bd 29d1 08bd
00000310: 5933 5e3d c928 3d3d 0ae7 e43d 6342 0ebe
00000320: fb3e 2dbd f830 34bb 594d c23d 69f4 5bbd
00000330: 0bd5 023d 89a4 e9bd 9346 07be bffe 153e
00000340: 4061 1d3d 65dd 183e 3425 b1bd 0d0b aebd
00000350: 6542 0cbe 6034 d13d fdfd 9a3c 1936 e0bd
00000360: 356f 803d f689 bebd 58e8 2b3d 9f9e 393d
00000370: 8810 e1bc d6eb 213e c269 19be 247a 37be
00000380: d015 0f3e 95b2 97bd 440c cebd 478b 193e
00000390: 536a 383d 39c2 4dbd d2ef e33d 23aa 94bd
000003a0: 5f08 97bd cf6b 073e dfd8 3a3d 8829 973d
000003b0: af13 d6bd ea31 4d3d ed2c 11be 4fdb 103d
000003c0: 9614 8a3d 3e13 ccbd 557a 053d 4df9 2e3e
000003d0: 3adc 11be 6407 8cbc ca1c 5e3c 9db4 30be
000003e0: 785c d53d a5bc cebd d990 273e 2cba b5bb
000003f0: d6b2 27be fd38 1ebe a3ce 26bc c778 32be
0.17915255 0.12811507 -0.11028287 -0.049517702 -0.16098978 0.16205707 0.11466167 -0.10997168
0.12391107 -0.078011654 0.084813654 -0.0882933 0.1672187 -0.07975607 -0.1478072 0.13280936
0.0023556475 -0.0686717 0.10511961 0.11643364 -0.026085284 -0.14167325 -0.15410563 -0.13907433
0.17356041 -0.06930305 0.14266206 -0.17453194 0.05467686 0.006797707 -0.13550417 -0.037995562
0.00965057 0.07024584 -0.13354711 0.101971984 -0.0054712463 0.16864458 0.037587494 -0.14994474
-0.14752853 -0.14251782 -0.15687037 -0.08584875 -0.09674371 -0.06594131 0.048931077 -0.11436536
0.057795558 -0.12669583 -0.004643676 -0.05599008 -0.13263255 0.13288033 0.120657876 0.14148295
-0.030025108 -0.10085344 0.13717672 -0.023396788 0.034479436 0.13954084 0.16765344 0.050294776
-0.10851061 0.09184675 -0.023062788 -0.0814563 -0.03999465 0.06567065 0.09959909 -0.01851109
0.148279 -0.077092886 -0.1421434 0.14765239 0.15299384 0.07530614 0.13204329 0.14512864
-0.048082713 0.0015970799 -0.12259014 0.014105501 -0.021390133 -0.07778544 0.056134578 -0.12310019
-0.15468043 -0.18100218 -0.031030199 -0.16933239 0.080831796 -0.07698016 0.11984657 -0.16192293
-0.08694159 0.119145125 0.021237064 0.16902348 -0.01974126 -0.09150204 0.13349387 0.11378194
0.14904371 -0.018044893 -0.097577654 -0.15785825 -0.056333363 0.16412753 0.07090869 0.104798496
-0.06790969 0.15017086 -0.011875761 -0.11951284 0.06408584 0.0525593 0.06637274 0.1664153
0.04725316 0.1367807 0.10990745 -0.15521206 0.11718369 0.04078801 -0.17280257 0.03237102
0.07205874 0.07980388 0.15592192 -0.117173724 -0.16511825 0.035404824 -0.009892398 -0.07670253
0.10991417 0.11599652 0.03452436 -0.18168345 0.034059867 0.0005633361 0.002114025 -0.062278643
-0.16414075 0.05978003 -0.011368931 -0.03563366 -0.090233095 0.16937816 0.07633472 0.091081545
-0.056237355 -0.01845505 0.16224103 0.16014345 0.05212822 -0.050407067 -0.0946704 0.008796116
0.004962494 -0.02920122 -0.105651565 -0.010957221 0.16659988 0.122742936 0.074941315 0.17127608
-0.1038254 -0.09970862 -0.05372405 0.17581579 0.1343623 0.16727741 0.0844031 0.069676474
0.17808719 -0.14889087 -0.04406735 0.12597339 0.017592147 0.15326731 0.14041111 -0.012789873
-0.0255791 -0.048078813 0.06492637 0.047890957 0.04044958 0.12207578 -0.06621658 0.024815217
-0.017194659 -0.038680676 -0.048120737 -0.033402596 0.054248188 0.046181474 0.1117688 -0.13892512
-0.04229639 -0.0027495008 0.09487409 -0.053699885 0.031941455 -0.11408336 -0.13210516 0.14647959
0.038422823 0.14928205 -0.08649674 -0.084982015 -0.13697203 0.10215068 0.01891994 -0.10947818
0.06271211 -0.09303658 0.041969627 0.04531729 -0.027473703 0.1581262 -0.1498175 -0.17917687
0.13973165 -0.07407109 -0.10060933 0.14994536 0.045023274 -0.050234053 0.111297265 -0.072590135
-0.073746435 0.1322472 0.04561698 0.07380968 -0.10452973 0.05009643 -0.14177294 0.0353654
0.06742208 -0.09964608 0.032587368 0.17087288 -0.14244166 -0.017093368 0.013556669 -0.17256398
0.10418028 -0.10094575 0.16363849 -0.005545875 -0.16376814 -0.15451427 -0.010181102 -0.17428885

bias_ih_l0_reverse f4 [128]
00000000: 60b0 9e3d 4946 85bc 45de d0bd 19fa babd
00000010: 96e0 0bbc 7875 373e d768 5cbd 5b4c b8bd
00000020: 16f5 d43c 4328 08be 7229 ad3c ec2b 22bc
00000030: b0b9 193e 92dd 96bd c75a 063e 5aa8 b43d
00000040: 08ae cc3d a2ed f53c d1e5 3bbd 89ca 943d
00000050: 306c 803d 17ed 1c3e 1c8d 233e 66e0 a7bd
00000060: 5980 e53d 64d9 dc3d 63f7 7abd 4768 acbc
00000070: f4b9 babc 8463 0abe 3ee6 883d eb77 243d
00000080: d3ac 603d 61d0 e9bd 9afa 153e 383c 143d
00000090: 870a 96bd 64e6 2ebe fa61 62bd 9009 f6bd
000000a0: 696f 203e 5bb2 3e3d 130a 113e 8869 303e
000000b0: b82b f03d d627 b03d 2457 053e 98b0 053e
000000c0: f48d 0bbe 24e8 1fbe 8170 cbbd d94d 8fbd
000000d0: 766c 86bd 6d1b 583b 941a 0a3e 1bb7 a2bd
000000e0: b744 223e 732d c7bc 6e15 013e a1b2 9a3d
000000f0: bcfd e23d cd27 933b 778a 2ebd 3ddb f5bd
00000100: bb5d 48bd c321 f53d 86e4 2e3e c45a 24be
00000110: 8df1 efbb 8aa1 fbbd 3328 eabd 02f9 1c3e
00000120: 8880 abbd d55e 42bc ea68 b6bd 1f88 aa3d
00000130: 42b2 eabd e71e 963d f810 f5bd b681 28be
00000140: c681 333d 6169 d8bd e644 883d 3f31 513d
00000150: 2326 ee3d 5893 1b3d 84ac 053e 6b0d fd3c
00000160: 7f2a 06be 8aae 263d e664 043e e562 f23c
00000170: 5a67 143e 29ba c4bd 808e 083d 73b1 8c3d
00000180: e664 bfbd 07d8 b43d 4975 d6bd d18c 8cbb
00000190: c445 283d fb4b 1abd df1f 25be dbcd b63d
000001a0: 8a9e f23d 6768 c33c c3c6 b93d f06e 223d
000001b0: 3717 97bd 35d2 163e ab88 1ebe 0f6b 033c
000001c0: 2e71 d93d 0b7d 9f3d 7c6f ed3d 4bf5 aebd
000001d0: dca4 ff3d b395 033e 6deb 153e d6d5 f9b9
000001e0: dfde 34be 607c 153e c973 d5bb 2b38 153e
000001f0: 2028 e5bc 2008 11be 8d80 2ebd c2d3 10be
0.077484846 -0.016268866 -0.101986445 -0.091297336 -0.008537432 0.17915905 -0.05381092 -0.08998939
0.025995772 -0.13296609 0.021137927 -0.009898167 0.1501224 -0.0736648 0.13120566 0.08821173
0.09994131 0.030020539 -0.045873467 0.07265193 0.06270635 0.15324818 0.15971798 -0.081970975
0.11206121 0.107836515 -0.061271083 -0.021045817 -0.022793747 -0.13514525 0.0668454 0.040153425
0.054852318 -0.11416698 0.14646378 0.03619024 -0.07326227 -0.17080075 -0.05526922 -0.12013543
0.156675 0.04655681 0.14164 0.17227757 0.11727089 0.08601348 0.13021523 0.13055646
-0.1362837 -0.15615898 -0.09933568 -0.0699727 -0.06563656 0.0032975331 0.13486701 -0.07945081
0.15846525 -0.024313664 0.12605831 0.07553602 0.11083552 0.0044908286 -0.04261252 -0.12004707
-0.048917513 0.1196933 0.17079362 -0.1605025 -0.0073224963 -0.122866705 -0.11433449 0.15329364
-0.08374125 -0.01186343 -0.089067295 0.08326744 -0.11459781 0.07330113 -0.11966127 -0.16455731
0.043824933 -0.105669744 0.06653766 0.051072355 0.11628368 0.037982315 0.1305409 0.030890187
-0.13102148 0.040693797 0.12929115 0.029588172 0.1449255 -0.0960582 0.033339024 0.06869783
-0.09345417 0.088302664 -0.10471589 -0.0042892476 0.04108216 -0.037670117 -0.16125439 0.089259826
0.11846645 0.023853494 0.09071114 0.03965658 -0.07377475 0.14728625 -0.15481822 0.00802113
0.106172904 0.07787522 0.115935296 -0.0854288 0.12482616 0.12850074 0.14640589 -0.000476523
-0.17663144 0.14598227 -0.006514047 0.14572208 -0.027973235 -0.14163256 -0.042603064 -0.14143279

bias_hh_l0_reverse f4 [128]
00000000: 8a81 cbbd 6780 a0bd 8f63 323d e98e 953d
00000010: 51f8 0b3d 0d70 f0bd a15c 28be 2ba4 de3c
00000020: 59a0 b83d a93d 0b3e 68b3 10be 46b8 71bd
00000030: 6c7b b13d 7308 183d e67a 00bd 816d a8bc
00000040: cb61 443d 12bf d23d 172e ee3d 3df9 6c3d
00000050: 5153 4e3a 0101 fb3d 12ce 1d3e 3344 2d3e
00000060: 05dc 21be a28e 1e3e d604 823d f5bb d23d
00000070: e814 65bd 2396 f8bd 0465 9b3d 0119 e23d
00000080: 1dd3 86bd 3b05 7fbd a5a2 573d 1489 24be
00000090: 1437 853c 1c38 483d 2efd f4bb 037f 543c
000000a0: 6e8e e6bd fc7f 2d3e 06ef c43d 7324 993d
000000b0: fa05 2a3c 866a 3eb8 a9ff 16be 895b 91bd
000000c0: 523e 963c 1a67 c3bd 50d1 743d 47b8 f63d
000000d0: 597e dfbd ace0 f53d 400e 183e d60d b8bc
000000e0: d004 c0bd 50ba f5bd a7e7 05bd 613f b43c
000000f0: 8e33 2dbe dd64 2ebd 6c0a 243e f349 2ebe
00000100: b21d dabd ab6e c3bd 9def 23bd f180 d93c
00000110: 8b2e fbbc c0dc 2cbd 3fe9 c53d 6301 3439
00000120: 27da debd ad50 bcbd 757f 673d f861 1abe
00000130: ce36 ddbd 3419 0e3e 9388 bfbd 4d00 d7bd
00000140: 523a 943d 4199 5cbd 9032 053e c5a5 0bbe
00000150: 0f70 b33d 87b1 f43d c2aa 023e 61ec f13d
00000160: 4af6 d2bc 8b1d 13be dc85 00be 7746 84bd
00000170: 0211 dcbd 931d ec3d 6837 123d 8b85 1cbe
00000180: 166e 78bd f8a7 3cbd 4b22 d33d 33aa 28be
00000190: ec98 99bd c902 e53d 127b aa3d 8980 8ebd
000001a0: 1900 1bbe 84cf 0ebe ba5e 82bd d730 e2bd
000001b0: afe2 cebd cb8a 1bbe 0ece 2ebe 0d24 713d
000001c0: 9022 013e 0924 97bd 3884 943d bb1a 643d
000001d0: 8bc0 8b3b 8c1e 29be 4eab ef3d 6b38 f6bd
000001e0: a50d 5e3d 2ab1 87bd 5a06 133d 593c 04bd
000001f0: b90e e23d 2259 59bc fad6 f53d 78a9 7a3d
-0.09936817 -0.07836991 0.043551978 0.073026486 0.03417236 -0.11740122 -0.16441585 0.02717789
0.09014959 0.1359774 -0.14130938 -0.059013627 0.08666119 0.037117433 -0.031367205 -0.020560028
0.047944825 0.1029035 0.11629885 0.05785488 0.00078706915 0.12256051 0.15410641 0.16920547
-0.15806587 0.15484098 0.06348579 0.10289756 -0.05592814 -0.12138011 0.075876266 0.11039925
-0.065832354 -0.062260848 0.052645344 -0.16067916 0.016261615 0.048881635 -0.0074764704 0.012969735
-0.11257635 0.16943353 0.096159026 0.07477655 0.0103774015 -4.5398738e-05 -0.14745964 -0.07097537
0.018340264 -0.095411494 0.05976993 0.12046867 -0.10912771 0.120057434 0.14849186 -0.022467535
-0.09375918 -0.11998427 -0.032691624 0.022002878 -0.16914198 -0.04257666 0.160196 -0.17020397
-0.10650195 -0.095425926 -0.040023435 0.026550742 -0.030661842 -0.04220271 0.09663629 0.00017166654
-0.10881453 -0.09195075 0.056518037 -0.15076435 -0.10801469 0.13876802 -0.09352221 -0.10498104
0.07237686 -0.05385709 0.1300757 -0.13637455 0.08761608 0.11947923 0.12760451 0.11812664
-0.025752205 -0.14366738 -0.12551063 -0.064587526 -0.107454315 0.11529078 0.03569737 -0.15285318
-0.06065186 -0.046058625 0.10309275 -0.16471176 -0.07499871 0.11182172 0.08324255 -0.0695811
-0.15136756 -0.13946348 -0.06365724 -0.11044472 -0.1010183 -0.15189664 -0.17070791 0.05887227
0.12610841 -0.0737992 0.07251781 0.055689555 0.0042648963 -0.16515559 0.11702596 -0.120224796
0.05421223 -0.06625588 0.03589473 -0.032284115 0.110379644 -0.01326588 0.12003894 0.061196774

weight_ih_l1 f4 [128, 64]
00000000: 711d 95bd e667 463d 612e 19be a5b7 153e
00000010: 2b8e 063e c304 60bd a0d2 c3bb 9a70 b9bc
00000020: e556 56bd e472 b43d 9f9c 033c e6bb 2b3e
00000030: bb4f 063e 008c d9bc 8530 27be 1841 1a3e
00000040: 69f5 fe3d e211 26be a77e e4bd 562f 2a3e
00000050: db7b b23c d3a0 113b ead3 debc 35de 263e
00000060: c1cc cabd 7a8d 653d e222 cf3c 9cff f3bd
00000070: d1fc ca3c 7fef 17be 92ac a4bd fefa 22be
00000080: 2201 c53d 3ef9 6f3d d1cb 9b3d 1c49 183c
00000090: a68a 073e 0fa5 b8bd 1193 033e aa6a cf3d
000000a0: eb3b 073e ec57 da3d 04cb 29be fdb5 c1bd
000000b0: 4206 cdbd be26 51bd eb61 1e3e 66e7 f43d
000000c0: b3ec 08be 58db e8bc d830 a9bd 0531 30be
000000d0: ca90 7b3d e738 e23c f829 c2bc 8fb1 85bd
000000e0: 0582 1ebe 2127 423d fb86 f83d ef71 483c
000000f0: 80e7 b4bd 855a b83d 08ba 08be 3625 023d
00000100: 9f1e f7bd 621a ad3d 9529 f6bc 3e8f b8bd
00000110: 1d1c 013e b8c5 52bd bd73 c73d e44b ba3d
00000120: f88f 393d cedc 23be 4fa6 01be e9eb 0f3e
00000130: 1a84 e93d da14 293d c5e8 7b3c 310f 0c3e
00000140: 6ddb fbbb bd83 fcbd 4c69 603d bcdc 343c
00000150: 0bd5 ef3d d138 2e3e 0128 a73d 03cf 2d3e
00000160: 4246 afbc bdd2 20be f7b6 f5bc 21b0 f7bd
00000170: 81ca d3bb 2440 113e 21f2 073e ef26 733d
00000180: 1eeb 9ebd b3c6 c13d 5eec 793d cb5a 013e
00000190: dad3 b2bd e7a2 253e 8499 163e e65b ae3d
000001a0: bd8f 0d3d b09e f63d 5968 113e dea1 063e
000001b0: 6675 9dbc 36de c8bd 87b4 5abd a8b8 2d3e
000001c0: 9755 ff3d 8626 823d c00a 0f3e dab5 a5bd
000001d0: 86ad 903d d389 27be ba51 e73d af99 2f3d
000001e0: be5f d2bc ab30 a6bd 18eb 00be 779b e8bd
000001f0: a774 2b3e bda6 1bbe 25ce 0a3e 2f31 193e
00000200: b585 01bd 66df 1e3d 7f8a 193e 67f8 053d
00000210: f615 103e 9e7e 4dbd d9bd 25be b3fb b8bd
00000220: 918d 8bbd 86d2 a2bd c3df b5bd 884c 2f3e
00000230: fc43 31be 691f d4bd ea73 d23d 5457 ba3d
00000240: 80b8 013e 1a83 dcbd 8947 c4bd b6ae e7bd
00000250: 5601 07be d5c5 443c 3021 f0bd aee0 1bbe
00000260: d7b5 25be af15 ec3d 7a5d 1e3d 027f debd
00000270: 0136 a63d 4631 893d fc96 16be 2ae7 03be
00000280: aeed ee3c a2bf f43d 904e 29be 334f 2b3d
00000290: e702 ccbd b53e 6b3c 2395 133e 1cce 1bbe
000002a0: 2cff 163e eb62 df3d 26d6 b23d b691 3d3d
000002b0: 6a46 81bd 8623 e93d 47fd 353e 53ba 94bd
000002c0: 27d8 da3d 917a 493b f065 97bd b859 833d
000002d0: 6fd9 973d 19e3 d3bd c2da efbc c652 2d3e
000002e0: b27a a6bd e7e9 ae3d 0c69 38bd 2e74 fa3d
000002f0: 5234 05bd b18a 1bbd f841 053d 3bcc 1fbe
00000300: efb1 1cbe ff20 ce3d 1c79 f5bd a6b2 bbb9
00000310: db00 e53d eacb 0ebe f116 013d 4e71 123d
00000320: 5348 dd3c 0d19 253e b8d4 7a3d 7cb3 073e
00000330: 7086 cfbd a7aa 1abd edd4 25be c771 a23d
00000340: 96e0 2f3e 6c77 a0bd a0b0 b73c 66b4 2cbe
00000350: 19ae ea3d 98cb b13d 8eff 21bc d955 283e
00000360: 76af 303e 86bf bc3d ad24 04be a622 f7bc
00000370: fa7a a3bd 3337 053e 9bda bebd f6f0 3d3b
00000380: d95f 91bd 79d6 853d 6ae8 f53d d362 e33c
00000390: e48b 8abc 1209 9ebd 8744 22be 51aa fbbd
000003a0: d727 0bbe 9b16 46bd dcec f9bc 3354 33be
000003b0: 359e 963c 45b4 f7bd d958 1b3e ff6b 5b3d
000003c0: 4d68 0e3e fdae dbbd 20ec d4bd d6b1 a03c
000003d0: ae11 c0bd 570f 203c 6637 f2bd 68e7 5bbd
000003e0: 80d6 06be c663 25bd a63f d4bc b6f0 903d
000003f0: 0d36 cebd 950a a63d f044 d73d d1ae cb3d
-0.07281006 0.04843893 -0.14959098 0.14620836 0.1314017 -0.05469204 -0.005976036 -0.0226367
-0.052328963 0.08810976 0.008032947 0.16770896 0.13116352 -0.026556015 -0.16327102 0.15063894
0.12449152 -0.16217759 -0.111569695 0.1661962 0.021787575 0.0022221103 -0.027200658 0.16295703
-0.09902335 0.056043126 0.025285188 -0.11913988 0.024778755 -0.14837454 -0.08040728 -0.15916058
0.09619357 0.058587305 0.07607234 0.009294774 0.13236484 -0.090158574 0.1284907 0.101277664
0.1320645 0.10661301 -0.1658135 -0.0945854 -0.10010959 -0.051062338 0.1546704 0.11958198
-0.13371544 -0.028424904 -0.08261269 -0.172062 0.06141738 0.027615024 -0.023701653 -0.06528007
-0.15479286 0.047400597 0.121351205 0.012234195 -0.088332176 0.0900164 -0.13352215 0.03177377
-0.120663874 0.08452298 -0.030049125 -0.09011696 0.1260838 -0.05145809 0.09738872 0.09096506
0.045303315 -0.16002199 -0.12661098 0.14054836 0.114021495 0.04127965 0.015375321 0.1367767
-0.0076860697 -0.123298146 0.05478792 0.011038955 0.117105566 0.17013861 0.08161927 0.169735
-0.021395806 -0.1570539 -0.029994471 -0.12094141 -0.0064633493 0.14184624 0.13275959 0.0593633
-0.07759689 0.09461727 0.061016433 0.12632291 -0.08731814 0.16175424 0.14706999 0.08513622
0.034560908 0.12041986 0.14199962 0.13147685 -0.019221019 -0.098080084 -0.05339482 0.16964972
0.12467497 0.06355004 0.13968945 -0.08091326 0.07064347 -0.1636117 0.11294885 0.042871173
-0.025680419 -0.081147514 -0.12589681 -0.113577776 0.16743718 -0.15200324 0.135552 0.14960168
-0.031621654 0.038787268 0.14994238 0.032707598 0.14070877 -0.05016958 -0.16185702 -0.09032383
-0.06814111 -0.079503104 -0.0888057 0.17119038 -0.1731109 -0.103575535 0.10276015 0.09098688
0.12668037 -0.10767193 -0.09583957 -0.1131262 -0.13184103 0.012010057 -0.1172508 -0.15222427
-0.16182648 0.11527573 0.038663365 -0.108640686 0.08115769 0.06698851 -0.14706033 -0.12881151
0.029166069 0.119506136 -0.16533875 0.041823577 -0.09961491 0.014358212 0.1441236 -0.15215343
0.14745778 0.10907539 0.08732252 0.04628154 -0.063122585 0.11383729 0.17772399 -0.07262101
0.10685759 0.0030743221 -0.0739249 0.06413597 0.07414519 -0.1034605 -0.029279117 0.16926107
-0.08128871 0.08540707 -0.045022056 0.12229191 -0.0325206 -0.037974063 0.032533616 -0.15605251
-0.15302251 0.10064887 -0.119859904 -0.00035800523 0.11181804 -0.13944975 0.03151602 0.035752587
0.027012026 0.16122837 0.06123802 0.13252062 -0.10133064 -0.037760403 -0.16194506 0.079318576
0.17175516 -0.07835278 0.022423089 -0.16865692 0.11458988 0.086814106 -0.009887589 0.16438998
0.17254433 0.09216218 -0.12904616 -0.030167889 -0.0798244 0.13009338 -0.093190394 0.0028982735
-0.070983596 0.06535048 0.1200722 0.027757084 -0.016912408 -0.07716574 -0.15846454 -0.12288345
-0.13589416 -0.048361402 -0.030508451 -0.17512588 0.018385986 -0.120949306 0.15170611 0.05356979
0.13906975 -0.10726736 -0.103966 0.019616049 -0.09378372 0.009769282 -0.11826973 -0.053687483
-0.13167763 -0.040378354 -0.025909256 0.07077162 -0.10068903 0.08107487 0.10511196 0.09945453
